{"format": "layers-model", "generatedBy": "keras v2.5.0", "convertedBy": "TensorFlow.js Converter v2.8.4", "modelTopology": {"keras_version": "2.5.0", "backend": "tensorflow", "model_config": {"class_name": "Model", "config": {"name": "model", "layers": [{"class_name": "InputLayer", "config": {"batch_input_shape": [null, 256, 256, 3], "dtype": "float32", "sparse": false, "ragged": false, "name": "ip"}, "name": "ip", "inbound_nodes": []}, {"class_name": "Conv2D", "config": {"name": "conv2d", "trainable": true, "dtype": "float32", "filters": 8, "kernel_size": [2, 2], "strides": [2, 2], "padding": "valid", "data_format": "channels_last", "dilation_rate": [1, 1], "groups": 1, "activation": "linear", "use_bias": true, "kernel_initializer": {"class_name": "HeNormal", "config": {"seed": null}}, "bias_initializer": {"class_name": "Zeros", "config": {}}, "kernel_regularizer": null, "bias_regularizer": null, "activity_regularizer": null, "kernel_constraint": null, "bias_constraint": null}, "name": "conv2d", "inbound_nodes": [[["ip", 0, 0, {}]]]}, {"class_name": "PReLU", "config": {"name": "p_re_lu", "trainable": true, "dtype": "float32", "alpha_initializer": {"class_name": "Zeros", "config": {}}, "alpha_regularizer": null, "alpha_constraint": null, "shared_axes": [1, 2]}, "name": "p_re_lu", "inbound_nodes": [[["conv2d", 0, 0, {}]]]}, {"class_name": "Conv2D", "config": {"name": "conv2d_1", "trainable": true, "dtype": "float32", "filters": 32, "kernel_size": [2, 2], "strides": [2, 2], "padding": "valid", "data_format": "channels_last", "dilation_rate": [1, 1], "groups": 1, "activation": "linear", "use_bias": true, "kernel_initializer": {"class_name": "HeNormal", "config": {"seed": null}}, "bias_initializer": {"class_name": "Zeros", "config": {}}, "kernel_regularizer": null, "bias_regularizer": null, "activity_regularizer": null, "kernel_constraint": null, "bias_constraint": null}, "name": "conv2d_1", "inbound_nodes": [[["p_re_lu", 0, 0, {}]]]}, {"class_name": "PReLU", "config": {"name": "p_re_lu_1", "trainable": true, "dtype": "float32", "alpha_initializer": {"class_name": "Zeros", "config": {}}, "alpha_regularizer": null, "alpha_constraint": null, "shared_axes": [1, 2]}, "name": "p_re_lu_1", "inbound_nodes": [[["conv2d_1", 0, 0, {}]]]}, {"class_name": "Conv2D", "config": {"name": "conv2d_2", "trainable": true, "dtype": "float32", "filters": 16, "kernel_size": [2, 2], "strides": [2, 2], "padding": "same", "data_format": "channels_last", "dilation_rate": [1, 1], "groups": 1, "activation": "linear", "use_bias": true, "kernel_initializer": {"class_name": "HeNormal", "config": {"seed": null}}, "bias_initializer": {"class_name": "Zeros", "config": {}}, "kernel_regularizer": null, "bias_regularizer": null, "activity_regularizer": null, "kernel_constraint": null, "bias_constraint": null}, "name": "conv2d_2", "inbound_nodes": [[["p_re_lu_1", 0, 0, {}]]]}, {"class_name": "PReLU", "config": {"name": "p_re_lu_2", "trainable": true, "dtype": "float32", "alpha_initializer": {"class_name": "Zeros", "config": {}}, "alpha_regularizer": null, "alpha_constraint": null, "shared_axes": [1, 2]}, "name": "p_re_lu_2", "inbound_nodes": [[["conv2d_2", 0, 0, {}]]]}, {"class_name": "SeparableConv2D", "config": {"name": "separable_conv2d", "trainable": true, "dtype": "float32", "filters": 16, "kernel_size": [3, 3], "strides": [1, 1], "padding": "same", "data_format": "channels_last", "dilation_rate": [1, 1], "groups": 1, "activation": "linear", "use_bias": true, "bias_initializer": {"class_name": "Zeros", "config": {}, "shared_object_id": 18}, "bias_regularizer": null, "activity_regularizer": null, "bias_constraint": null, "depth_multiplier": 1, "depthwise_initializer": {"class_name": "GlorotUniform", "config": {"seed": null}}, "pointwise_initializer": {"class_name": "GlorotUniform", "config": {"seed": null}}, "depthwise_regularizer": null, "pointwise_regularizer": null, "depthwise_constraint": null, "pointwise_constraint": null}, "name": "separable_conv2d", "inbound_nodes": [[["p_re_lu_2", 0, 0, {}]]]}, {"class_name": "PReLU", "config": {"name": "p_re_lu_3", "trainable": true, "dtype": "float32", "alpha_initializer": {"class_name": "Zeros", "config": {}}, "alpha_regularizer": null, "alpha_constraint": null, "shared_axes": [1, 2]}, "name": "p_re_lu_3", "inbound_nodes": [[["separable_conv2d", 0, 0, {}]]]}, {"class_name": "DepthwiseConv2D", "config": {"name": "depthwise_conv2d", "trainable": true, "dtype": "float32", "kernel_size": [3, 3], "strides": [1, 1], "padding": "same", "data_format": "channels_last", "dilation_rate": [1, 1], "groups": 1, "activation": "linear", "use_bias": true, "bias_initializer": {"class_name": "Zeros", "config": {}}, "bias_regularizer": null, "activity_regularizer": null, "bias_constraint": null, "depth_multiplier": 1, "depthwise_initializer": {"class_name": "GlorotUniform", "config": {"seed": null}}, "depthwise_regularizer": null, "depthwise_constraint": null}, "name": "depthwise_conv2d", "inbound_nodes": [[["p_re_lu_3", 0, 0, {}]]]}, {"class_name": "MaxPooling2D", "config": {"name": "max_pooling2d", "trainable": true, "dtype": "float32", "pool_size": [2, 2], "padding": "same", "strides": [2, 2], "data_format": "channels_last"}, "name": "max_pooling2d", "inbound_nodes": [[["p_re_lu_1", 0, 0, {}]]]}, {"class_name": "PReLU", "config": {"name": "p_re_lu_4", "trainable": true, "dtype": "float32", "alpha_initializer": {"class_name": "Zeros", "config": {}}, "alpha_regularizer": null, "alpha_constraint": null, "shared_axes": [1, 2]}, "name": "p_re_lu_4", "inbound_nodes": [[["depthwise_conv2d", 0, 0, {}]]]}, {"class_name": "Conv2D", "config": {"name": "conv2d_4", "trainable": true, "dtype": "float32", "filters": 64, "kernel_size": [1, 1], "strides": [1, 1], "padding": "same", "data_format": "channels_last", "dilation_rate": [1, 1], "groups": 1, "activation": "linear", "use_bias": true, "kernel_initializer": {"class_name": "HeNormal", "config": {"seed": null}}, "bias_initializer": {"class_name": "Zeros", "config": {}}, "kernel_regularizer": null, "bias_regularizer": null, "activity_regularizer": null, "kernel_constraint": null, "bias_constraint": null}, "name": "conv2d_4", "inbound_nodes": [[["max_pooling2d", 0, 0, {}]]]}, {"class_name": "Conv2D", "config": {"name": "conv2d_3", "trainable": true, "dtype": "float32", "filters": 64, "kernel_size": [1, 1], "strides": [1, 1], "padding": "same", "data_format": "channels_last", "dilation_rate": [1, 1], "groups": 1, "activation": "linear", "use_bias": true, "kernel_initializer": {"class_name": "HeNormal", "config": {"seed": null}}, "bias_initializer": {"class_name": "Zeros", "config": {}}, "kernel_regularizer": null, "bias_regularizer": null, "activity_regularizer": null, "kernel_constraint": null, "bias_constraint": null}, "name": "conv2d_3", "inbound_nodes": [[["p_re_lu_4", 0, 0, {}]]]}, {"class_name": "Add", "config": {"name": "add", "trainable": true, "dtype": "float32"}, "name": "add", "inbound_nodes": [[["conv2d_4", 0, 0, {}], ["conv2d_3", 0, 0, {}]]]}, {"class_name": "PReLU", "config": {"name": "p_re_lu_5", "trainable": true, "dtype": "float32", "alpha_initializer": {"class_name": "Zeros", "config": {}}, "alpha_regularizer": null, "alpha_constraint": null, "shared_axes": [1, 2]}, "name": "p_re_lu_5", "inbound_nodes": [[["add", 0, 0, {}]]]}, {"class_name": "Conv2D", "config": {"name": "conv2d_5", "trainable": true, "dtype": "float32", "filters": 16, "kernel_size": [1, 1], "strides": [1, 1], "padding": "same", "data_format": "channels_last", "dilation_rate": [1, 1], "groups": 1, "activation": "linear", "use_bias": true, "kernel_initializer": {"class_name": "HeNormal", "config": {"seed": null}}, "bias_initializer": {"class_name": "Zeros", "config": {}}, "kernel_regularizer": null, "bias_regularizer": null, "activity_regularizer": null, "kernel_constraint": null, "bias_constraint": null}, "name": "conv2d_5", "inbound_nodes": [[["p_re_lu_5", 0, 0, {}]]]}, {"class_name": "PReLU", "config": {"name": "p_re_lu_6", "trainable": true, "dtype": "float32", "alpha_initializer": {"class_name": "Zeros", "config": {}}, "alpha_regularizer": null, "alpha_constraint": null, "shared_axes": [1, 2]}, "name": "p_re_lu_6", "inbound_nodes": [[["conv2d_5", 0, 0, {}]]]}, {"class_name": "SeparableConv2D", "config": {"name": "separable_conv2d_1", "trainable": true, "dtype": "float32", "filters": 16, "kernel_size": [3, 3], "strides": [1, 1], "padding": "same", "data_format": "channels_last", "dilation_rate": [1, 1], "groups": 1, "activation": "linear", "use_bias": true, "bias_initializer": {"class_name": "Zeros", "config": {}, "shared_object_id": 46}, "bias_regularizer": null, "activity_regularizer": null, "bias_constraint": null, "depth_multiplier": 1, "depthwise_initializer": {"class_name": "GlorotUniform", "config": {"seed": null}}, "pointwise_initializer": {"class_name": "GlorotUniform", "config": {"seed": null}}, "depthwise_regularizer": null, "pointwise_regularizer": null, "depthwise_constraint": null, "pointwise_constraint": null}, "name": "separable_conv2d_1", "inbound_nodes": [[["p_re_lu_6", 0, 0, {}]]]}, {"class_name": "PReLU", "config": {"name": "p_re_lu_7", "trainable": true, "dtype": "float32", "alpha_initializer": {"class_name": "Zeros", "config": {}}, "alpha_regularizer": null, "alpha_constraint": null, "shared_axes": [1, 2]}, "name": "p_re_lu_7", "inbound_nodes": [[["separable_conv2d_1", 0, 0, {}]]]}, {"class_name": "DepthwiseConv2D", "config": {"name": "depthwise_conv2d_1", "trainable": true, "dtype": "float32", "kernel_size": [3, 3], "strides": [1, 1], "padding": "same", "data_format": "channels_last", "dilation_rate": [1, 1], "groups": 1, "activation": "linear", "use_bias": true, "bias_initializer": {"class_name": "Zeros", "config": {}}, "bias_regularizer": null, "activity_regularizer": null, "bias_constraint": null, "depth_multiplier": 1, "depthwise_initializer": {"class_name": "GlorotUniform", "config": {"seed": null}}, "depthwise_regularizer": null, "depthwise_constraint": null}, "name": "depthwise_conv2d_1", "inbound_nodes": [[["p_re_lu_7", 0, 0, {}]]]}, {"class_name": "PReLU", "config": {"name": "p_re_lu_8", "trainable": true, "dtype": "float32", "alpha_initializer": {"class_name": "Zeros", "config": {}}, "alpha_regularizer": null, "alpha_constraint": null, "shared_axes": [1, 2]}, "name": "p_re_lu_8", "inbound_nodes": [[["depthwise_conv2d_1", 0, 0, {}]]]}, {"class_name": "Conv2D", "config": {"name": "conv2d_6", "trainable": true, "dtype": "float32", "filters": 64, "kernel_size": [1, 1], "strides": [1, 1], "padding": "same", "data_format": "channels_last", "dilation_rate": [1, 1], "groups": 1, "activation": "linear", "use_bias": true, "kernel_initializer": {"class_name": "HeNormal", "config": {"seed": null}}, "bias_initializer": {"class_name": "Zeros", "config": {}}, "kernel_regularizer": null, "bias_regularizer": null, "activity_regularizer": null, "kernel_constraint": null, "bias_constraint": null}, "name": "conv2d_6", "inbound_nodes": [[["p_re_lu_8", 0, 0, {}]]]}, {"class_name": "Add", "config": {"name": "add_1", "trainable": true, "dtype": "float32"}, "name": "add_1", "inbound_nodes": [[["p_re_lu_5", 0, 0, {}], ["conv2d_6", 0, 0, {}]]]}, {"class_name": "PReLU", "config": {"name": "p_re_lu_9", "trainable": true, "dtype": "float32", "alpha_initializer": {"class_name": "Zeros", "config": {}}, "alpha_regularizer": null, "alpha_constraint": null, "shared_axes": [1, 2]}, "name": "p_re_lu_9", "inbound_nodes": [[["add_1", 0, 0, {}]]]}, {"class_name": "Conv2D", "config": {"name": "conv2d_7", "trainable": true, "dtype": "float32", "filters": 16, "kernel_size": [1, 1], "strides": [1, 1], "padding": "same", "data_format": "channels_last", "dilation_rate": [1, 1], "groups": 1, "activation": "linear", "use_bias": true, "kernel_initializer": {"class_name": "HeNormal", "config": {"seed": null}}, "bias_initializer": {"class_name": "Zeros", "config": {}}, "kernel_regularizer": null, "bias_regularizer": null, "activity_regularizer": null, "kernel_constraint": null, "bias_constraint": null}, "name": "conv2d_7", "inbound_nodes": [[["p_re_lu_9", 0, 0, {}]]]}, {"class_name": "PReLU", "config": {"name": "p_re_lu_10", "trainable": true, "dtype": "float32", "alpha_initializer": {"class_name": "Zeros", "config": {}}, "alpha_regularizer": null, "alpha_constraint": null, "shared_axes": [1, 2]}, "name": "p_re_lu_10", "inbound_nodes": [[["conv2d_7", 0, 0, {}]]]}, {"class_name": "SeparableConv2D", "config": {"name": "separable_conv2d_2", "trainable": true, "dtype": "float32", "filters": 16, "kernel_size": [3, 3], "strides": [1, 1], "padding": "same", "data_format": "channels_last", "dilation_rate": [1, 1], "groups": 1, "activation": "linear", "use_bias": true, "bias_initializer": {"class_name": "Zeros", "config": {}, "shared_object_id": 70}, "bias_regularizer": null, "activity_regularizer": null, "bias_constraint": null, "depth_multiplier": 1, "depthwise_initializer": {"class_name": "GlorotUniform", "config": {"seed": null}}, "pointwise_initializer": {"class_name": "GlorotUniform", "config": {"seed": null}}, "depthwise_regularizer": null, "pointwise_regularizer": null, "depthwise_constraint": null, "pointwise_constraint": null}, "name": "separable_conv2d_2", "inbound_nodes": [[["p_re_lu_10", 0, 0, {}]]]}, {"class_name": "PReLU", "config": {"name": "p_re_lu_11", "trainable": true, "dtype": "float32", "alpha_initializer": {"class_name": "Zeros", "config": {}}, "alpha_regularizer": null, "alpha_constraint": null, "shared_axes": [1, 2]}, "name": "p_re_lu_11", "inbound_nodes": [[["separable_conv2d_2", 0, 0, {}]]]}, {"class_name": "DepthwiseConv2D", "config": {"name": "depthwise_conv2d_2", "trainable": true, "dtype": "float32", "kernel_size": [3, 3], "strides": [1, 1], "padding": "same", "data_format": "channels_last", "dilation_rate": [1, 1], "groups": 1, "activation": "linear", "use_bias": true, "bias_initializer": {"class_name": "Zeros", "config": {}}, "bias_regularizer": null, "activity_regularizer": null, "bias_constraint": null, "depth_multiplier": 1, "depthwise_initializer": {"class_name": "GlorotUniform", "config": {"seed": null}}, "depthwise_regularizer": null, "depthwise_constraint": null}, "name": "depthwise_conv2d_2", "inbound_nodes": [[["p_re_lu_11", 0, 0, {}]]]}, {"class_name": "PReLU", "config": {"name": "p_re_lu_12", "trainable": true, "dtype": "float32", "alpha_initializer": {"class_name": "Zeros", "config": {}}, "alpha_regularizer": null, "alpha_constraint": null, "shared_axes": [1, 2]}, "name": "p_re_lu_12", "inbound_nodes": [[["depthwise_conv2d_2", 0, 0, {}]]]}, {"class_name": "Conv2D", "config": {"name": "conv2d_8", "trainable": true, "dtype": "float32", "filters": 64, "kernel_size": [1, 1], "strides": [1, 1], "padding": "same", "data_format": "channels_last", "dilation_rate": [1, 1], "groups": 1, "activation": "linear", "use_bias": true, "kernel_initializer": {"class_name": "HeNormal", "config": {"seed": null}}, "bias_initializer": {"class_name": "Zeros", "config": {}}, "kernel_regularizer": null, "bias_regularizer": null, "activity_regularizer": null, "kernel_constraint": null, "bias_constraint": null}, "name": "conv2d_8", "inbound_nodes": [[["p_re_lu_12", 0, 0, {}]]]}, {"class_name": "Add", "config": {"name": "add_2", "trainable": true, "dtype": "float32"}, "name": "add_2", "inbound_nodes": [[["p_re_lu_9", 0, 0, {}], ["conv2d_8", 0, 0, {}]]]}, {"class_name": "PReLU", "config": {"name": "p_re_lu_13", "trainable": true, "dtype": "float32", "alpha_initializer": {"class_name": "Zeros", "config": {}}, "alpha_regularizer": null, "alpha_constraint": null, "shared_axes": [1, 2]}, "name": "p_re_lu_13", "inbound_nodes": [[["add_2", 0, 0, {}]]]}, {"class_name": "Conv2D", "config": {"name": "conv2d_9", "trainable": true, "dtype": "float32", "filters": 32, "kernel_size": [2, 2], "strides": [2, 2], "padding": "same", "data_format": "channels_last", "dilation_rate": [1, 1], "groups": 1, "activation": "linear", "use_bias": true, "kernel_initializer": {"class_name": "HeNormal", "config": {"seed": null}}, "bias_initializer": {"class_name": "Zeros", "config": {}}, "kernel_regularizer": null, "bias_regularizer": null, "activity_regularizer": null, "kernel_constraint": null, "bias_constraint": null}, "name": "conv2d_9", "inbound_nodes": [[["p_re_lu_13", 0, 0, {}]]]}, {"class_name": "PReLU", "config": {"name": "p_re_lu_14", "trainable": true, "dtype": "float32", "alpha_initializer": {"class_name": "Zeros", "config": {}}, "alpha_regularizer": null, "alpha_constraint": null, "shared_axes": [1, 2]}, "name": "p_re_lu_14", "inbound_nodes": [[["conv2d_9", 0, 0, {}]]]}, {"class_name": "SeparableConv2D", "config": {"name": "separable_conv2d_3", "trainable": true, "dtype": "float32", "filters": 32, "kernel_size": [3, 3], "strides": [1, 1], "padding": "same", "data_format": "channels_last", "dilation_rate": [1, 1], "groups": 1, "activation": "linear", "use_bias": true, "bias_initializer": {"class_name": "Zeros", "config": {}, "shared_object_id": 94}, "bias_regularizer": null, "activity_regularizer": null, "bias_constraint": null, "depth_multiplier": 1, "depthwise_initializer": {"class_name": "GlorotUniform", "config": {"seed": null}}, "pointwise_initializer": {"class_name": "GlorotUniform", "config": {"seed": null}}, "depthwise_regularizer": null, "pointwise_regularizer": null, "depthwise_constraint": null, "pointwise_constraint": null}, "name": "separable_conv2d_3", "inbound_nodes": [[["p_re_lu_14", 0, 0, {}]]]}, {"class_name": "PReLU", "config": {"name": "p_re_lu_15", "trainable": true, "dtype": "float32", "alpha_initializer": {"class_name": "Zeros", "config": {}}, "alpha_regularizer": null, "alpha_constraint": null, "shared_axes": [1, 2]}, "name": "p_re_lu_15", "inbound_nodes": [[["separable_conv2d_3", 0, 0, {}]]]}, {"class_name": "DepthwiseConv2D", "config": {"name": "depthwise_conv2d_3", "trainable": true, "dtype": "float32", "kernel_size": [3, 3], "strides": [1, 1], "padding": "same", "data_format": "channels_last", "dilation_rate": [1, 1], "groups": 1, "activation": "linear", "use_bias": true, "bias_initializer": {"class_name": "Zeros", "config": {}}, "bias_regularizer": null, "activity_regularizer": null, "bias_constraint": null, "depth_multiplier": 1, "depthwise_initializer": {"class_name": "GlorotUniform", "config": {"seed": null}}, "depthwise_regularizer": null, "depthwise_constraint": null}, "name": "depthwise_conv2d_3", "inbound_nodes": [[["p_re_lu_15", 0, 0, {}]]]}, {"class_name": "MaxPooling2D", "config": {"name": "max_pooling2d_1", "trainable": true, "dtype": "float32", "pool_size": [2, 2], "padding": "same", "strides": [2, 2], "data_format": "channels_last"}, "name": "max_pooling2d_1", "inbound_nodes": [[["p_re_lu_13", 0, 0, {}]]]}, {"class_name": "PReLU", "config": {"name": "p_re_lu_16", "trainable": true, "dtype": "float32", "alpha_initializer": {"class_name": "Zeros", "config": {}}, "alpha_regularizer": null, "alpha_constraint": null, "shared_axes": [1, 2]}, "name": "p_re_lu_16", "inbound_nodes": [[["depthwise_conv2d_3", 0, 0, {}]]]}, {"class_name": "Conv2D", "config": {"name": "conv2d_11", "trainable": true, "dtype": "float32", "filters": 128, "kernel_size": [1, 1], "strides": [1, 1], "padding": "same", "data_format": "channels_last", "dilation_rate": [1, 1], "groups": 1, "activation": "linear", "use_bias": true, "kernel_initializer": {"class_name": "HeNormal", "config": {"seed": null}}, "bias_initializer": {"class_name": "Zeros", "config": {}}, "kernel_regularizer": null, "bias_regularizer": null, "activity_regularizer": null, "kernel_constraint": null, "bias_constraint": null}, "name": "conv2d_11", "inbound_nodes": [[["max_pooling2d_1", 0, 0, {}]]]}, {"class_name": "Conv2D", "config": {"name": "conv2d_10", "trainable": true, "dtype": "float32", "filters": 128, "kernel_size": [1, 1], "strides": [1, 1], "padding": "same", "data_format": "channels_last", "dilation_rate": [1, 1], "groups": 1, "activation": "linear", "use_bias": true, "kernel_initializer": {"class_name": "HeNormal", "config": {"seed": null}}, "bias_initializer": {"class_name": "Zeros", "config": {}}, "kernel_regularizer": null, "bias_regularizer": null, "activity_regularizer": null, "kernel_constraint": null, "bias_constraint": null}, "name": "conv2d_10", "inbound_nodes": [[["p_re_lu_16", 0, 0, {}]]]}, {"class_name": "Add", "config": {"name": "add_3", "trainable": true, "dtype": "float32"}, "name": "add_3", "inbound_nodes": [[["conv2d_11", 0, 0, {}], ["conv2d_10", 0, 0, {}]]]}, {"class_name": "PReLU", "config": {"name": "p_re_lu_17", "trainable": true, "dtype": "float32", "alpha_initializer": {"class_name": "Zeros", "config": {}}, "alpha_regularizer": null, "alpha_constraint": null, "shared_axes": [1, 2]}, "name": "p_re_lu_17", "inbound_nodes": [[["add_3", 0, 0, {}]]]}, {"class_name": "Conv2D", "config": {"name": "conv2d_12", "trainable": true, "dtype": "float32", "filters": 16, "kernel_size": [1, 1], "strides": [1, 1], "padding": "same", "data_format": "channels_last", "dilation_rate": [1, 1], "groups": 1, "activation": "linear", "use_bias": true, "kernel_initializer": {"class_name": "HeNormal", "config": {"seed": null}}, "bias_initializer": {"class_name": "Zeros", "config": {}}, "kernel_regularizer": null, "bias_regularizer": null, "activity_regularizer": null, "kernel_constraint": null, "bias_constraint": null}, "name": "conv2d_12", "inbound_nodes": [[["p_re_lu_17", 0, 0, {}]]]}, {"class_name": "PReLU", "config": {"name": "p_re_lu_18", "trainable": true, "dtype": "float32", "alpha_initializer": {"class_name": "Zeros", "config": {}}, "alpha_regularizer": null, "alpha_constraint": null, "shared_axes": [1, 2]}, "name": "p_re_lu_18", "inbound_nodes": [[["conv2d_12", 0, 0, {}]]]}, {"class_name": "SeparableConv2D", "config": {"name": "separable_conv2d_4", "trainable": true, "dtype": "float32", "filters": 16, "kernel_size": [3, 3], "strides": [1, 1], "padding": "same", "data_format": "channels_last", "dilation_rate": [1, 1], "groups": 1, "activation": "linear", "use_bias": true, "bias_initializer": {"class_name": "Zeros", "config": {}, "shared_object_id": 122},  "bias_regularizer": null, "activity_regularizer": null, "bias_constraint": null, "depth_multiplier": 1, "depthwise_initializer": {"class_name": "GlorotUniform", "config": {"seed": null}}, "pointwise_initializer": {"class_name": "GlorotUniform", "config": {"seed": null}}, "depthwise_regularizer": null, "pointwise_regularizer": null, "depthwise_constraint": null, "pointwise_constraint": null}, "name": "separable_conv2d_4", "inbound_nodes": [[["p_re_lu_18", 0, 0, {}]]]}, {"class_name": "PReLU", "config": {"name": "p_re_lu_19", "trainable": true, "dtype": "float32", "alpha_initializer": {"class_name": "Zeros", "config": {}}, "alpha_regularizer": null, "alpha_constraint": null, "shared_axes": [1, 2]}, "name": "p_re_lu_19", "inbound_nodes": [[["separable_conv2d_4", 0, 0, {}]]]}, {"class_name": "DepthwiseConv2D", "config": {"name": "depthwise_conv2d_4", "trainable": true, "dtype": "float32", "kernel_size": [3, 3], "strides": [1, 1], "padding": "same", "data_format": "channels_last", "dilation_rate": [1, 1], "groups": 1, "activation": "linear", "use_bias": true, "bias_initializer": {"class_name": "Zeros", "config": {}}, "bias_regularizer": null, "activity_regularizer": null, "bias_constraint": null, "depth_multiplier": 1, "depthwise_initializer": {"class_name": "GlorotUniform", "config": {"seed": null}}, "depthwise_regularizer": null, "depthwise_constraint": null}, "name": "depthwise_conv2d_4", "inbound_nodes": [[["p_re_lu_19", 0, 0, {}]]]}, {"class_name": "PReLU", "config": {"name": "p_re_lu_20", "trainable": true, "dtype": "float32", "alpha_initializer": {"class_name": "Zeros", "config": {}}, "alpha_regularizer": null, "alpha_constraint": null, "shared_axes": [1, 2]}, "name": "p_re_lu_20", "inbound_nodes": [[["depthwise_conv2d_4", 0, 0, {}]]]}, {"class_name": "Conv2D", "config": {"name": "conv2d_13", "trainable": true, "dtype": "float32", "filters": 128, "kernel_size": [1, 1], "strides": [1, 1], "padding": "same", "data_format": "channels_last", "dilation_rate": [1, 1], "groups": 1, "activation": "linear", "use_bias": true, "kernel_initializer": {"class_name": "HeNormal", "config": {"seed": null}}, "bias_initializer": {"class_name": "Zeros", "config": {}}, "kernel_regularizer": null, "bias_regularizer": null, "activity_regularizer": null, "kernel_constraint": null, "bias_constraint": null}, "name": "conv2d_13", "inbound_nodes": [[["p_re_lu_20", 0, 0, {}]]]}, {"class_name": "Add", "config": {"name": "add_4", "trainable": true, "dtype": "float32"}, "name": "add_4", "inbound_nodes": [[["p_re_lu_17", 0, 0, {}], ["conv2d_13", 0, 0, {}]]]}, {"class_name": "PReLU", "config": {"name": "p_re_lu_21", "trainable": true, "dtype": "float32", "alpha_initializer": {"class_name": "Zeros", "config": {}}, "alpha_regularizer": null, "alpha_constraint": null, "shared_axes": [1, 2]}, "name": "p_re_lu_21", "inbound_nodes": [[["add_4", 0, 0, {}]]]}, {"class_name": "Conv2D", "config": {"name": "conv2d_14", "trainable": true, "dtype": "float32", "filters": 16, "kernel_size": [1, 1], "strides": [1, 1], "padding": "same", "data_format": "channels_last", "dilation_rate": [1, 1], "groups": 1, "activation": "linear", "use_bias": true, "kernel_initializer": {"class_name": "HeNormal", "config": {"seed": null}}, "bias_initializer": {"class_name": "Zeros", "config": {}}, "kernel_regularizer": null, "bias_regularizer": null, "activity_regularizer": null, "kernel_constraint": null, "bias_constraint": null}, "name": "conv2d_14", "inbound_nodes": [[["p_re_lu_21", 0, 0, {}]]]}, {"class_name": "PReLU", "config": {"name": "p_re_lu_22", "trainable": true, "dtype": "float32", "alpha_initializer": {"class_name": "Zeros", "config": {}}, "alpha_regularizer": null, "alpha_constraint": null, "shared_axes": [1, 2]}, "name": "p_re_lu_22", "inbound_nodes": [[["conv2d_14", 0, 0, {}]]]}, {"class_name": "SeparableConv2D", "config": {"name": "separable_conv2d_5", "trainable": true, "dtype": "float32", "filters": 16, "kernel_size": [3, 3], "strides": [1, 1], "padding": "same", "data_format": "channels_last", "dilation_rate": [1, 1], "groups": 1, "activation": "linear", "use_bias": true, "bias_initializer": {"class_name": "Zeros", "config": {}, "shared_object_id": 146}, "bias_regularizer": null, "activity_regularizer": null, "bias_constraint": null, "depth_multiplier": 1, "depthwise_initializer": {"class_name": "GlorotUniform", "config": {"seed": null}}, "pointwise_initializer": {"class_name": "GlorotUniform", "config": {"seed": null}}, "depthwise_regularizer": null, "pointwise_regularizer": null, "depthwise_constraint": null, "pointwise_constraint": null}, "name": "separable_conv2d_5", "inbound_nodes": [[["p_re_lu_22", 0, 0, {}]]]}, {"class_name": "PReLU", "config": {"name": "p_re_lu_23", "trainable": true, "dtype": "float32", "alpha_initializer": {"class_name": "Zeros", "config": {}}, "alpha_regularizer": null, "alpha_constraint": null, "shared_axes": [1, 2]}, "name": "p_re_lu_23", "inbound_nodes": [[["separable_conv2d_5", 0, 0, {}]]]}, {"class_name": "DepthwiseConv2D", "config": {"name": "depthwise_conv2d_5", "trainable": true, "dtype": "float32", "kernel_size": [3, 3], "strides": [1, 1], "padding": "same", "data_format": "channels_last", "dilation_rate": [1, 1], "groups": 1, "activation": "linear", "use_bias": true, "bias_initializer": {"class_name": "Zeros", "config": {}}, "bias_regularizer": null, "activity_regularizer": null, "bias_constraint": null, "depth_multiplier": 1, "depthwise_initializer": {"class_name": "GlorotUniform", "config": {"seed": null}}, "depthwise_regularizer": null, "depthwise_constraint": null}, "name": "depthwise_conv2d_5", "inbound_nodes": [[["p_re_lu_23", 0, 0, {}]]]}, {"class_name": "PReLU", "config": {"name": "p_re_lu_24", "trainable": true, "dtype": "float32", "alpha_initializer": {"class_name": "Zeros", "config": {}}, "alpha_regularizer": null, "alpha_constraint": null, "shared_axes": [1, 2]}, "name": "p_re_lu_24", "inbound_nodes": [[["depthwise_conv2d_5", 0, 0, {}]]]}, {"class_name": "Conv2D", "config": {"name": "conv2d_15", "trainable": true, "dtype": "float32", "filters": 128, "kernel_size": [1, 1], "strides": [1, 1], "padding": "same", "data_format": "channels_last", "dilation_rate": [1, 1], "groups": 1, "activation": "linear", "use_bias": true, "kernel_initializer": {"class_name": "HeNormal", "config": {"seed": null}}, "bias_initializer": {"class_name": "Zeros", "config": {}}, "kernel_regularizer": null, "bias_regularizer": null, "activity_regularizer": null, "kernel_constraint": null, "bias_constraint": null}, "name": "conv2d_15", "inbound_nodes": [[["p_re_lu_24", 0, 0, {}]]]}, {"class_name": "Add", "config": {"name": "add_5", "trainable": true, "dtype": "float32"}, "name": "add_5", "inbound_nodes": [[["p_re_lu_21", 0, 0, {}], ["conv2d_15", 0, 0, {}]]]}, {"class_name": "PReLU", "config": {"name": "p_re_lu_25", "trainable": true, "dtype": "float32", "alpha_initializer": {"class_name": "Zeros", "config": {}}, "alpha_regularizer": null, "alpha_constraint": null, "shared_axes": [1, 2]}, "name": "p_re_lu_25", "inbound_nodes": [[["add_5", 0, 0, {}]]]}, {"class_name": "Conv2D", "config": {"name": "conv2d_16", "trainable": true, "dtype": "float32", "filters": 16, "kernel_size": [1, 1], "strides": [1, 1], "padding": "same", "data_format": "channels_last", "dilation_rate": [1, 1], "groups": 1, "activation": "linear", "use_bias": true, "kernel_initializer": {"class_name": "HeNormal", "config": {"seed": null}}, "bias_initializer": {"class_name": "Zeros", "config": {}}, "kernel_regularizer": null, "bias_regularizer": null, "activity_regularizer": null, "kernel_constraint": null, "bias_constraint": null}, "name": "conv2d_16", "inbound_nodes": [[["p_re_lu_25", 0, 0, {}]]]}, {"class_name": "PReLU", "config": {"name": "p_re_lu_26", "trainable": true, "dtype": "float32", "alpha_initializer": {"class_name": "Zeros", "config": {}}, "alpha_regularizer": null, "alpha_constraint": null, "shared_axes": [1, 2]}, "name": "p_re_lu_26", "inbound_nodes": [[["conv2d_16", 0, 0, {}]]]}, {"class_name": "SeparableConv2D", "config": {"name": "separable_conv2d_6", "trainable": true, "dtype": "float32", "filters": 16, "kernel_size": [3, 3], "strides": [1, 1], "padding": "same", "data_format": "channels_last", "dilation_rate": [1, 1], "groups": 1, "activation": "linear", "use_bias": true, "bias_initializer": {"class_name": "Zeros", "config": {}, "shared_object_id": 170}, "bias_regularizer": null, "activity_regularizer": null, "bias_constraint": null, "depth_multiplier": 1, "depthwise_initializer": {"class_name": "GlorotUniform", "config": {"seed": null}}, "pointwise_initializer": {"class_name": "GlorotUniform", "config": {"seed": null}}, "depthwise_regularizer": null, "pointwise_regularizer": null, "depthwise_constraint": null, "pointwise_constraint": null}, "name": "separable_conv2d_6", "inbound_nodes": [[["p_re_lu_26", 0, 0, {}]]]}, {"class_name": "PReLU", "config": {"name": "p_re_lu_27", "trainable": true, "dtype": "float32", "alpha_initializer": {"class_name": "Zeros", "config": {}}, "alpha_regularizer": null, "alpha_constraint": null, "shared_axes": [1, 2]}, "name": "p_re_lu_27", "inbound_nodes": [[["separable_conv2d_6", 0, 0, {}]]]}, {"class_name": "DepthwiseConv2D", "config": {"name": "depthwise_conv2d_6", "trainable": true, "dtype": "float32", "kernel_size": [3, 3], "strides": [1, 1], "padding": "same", "data_format": "channels_last", "dilation_rate": [1, 1], "groups": 1, "activation": "linear", "use_bias": true, "bias_initializer": {"class_name": "Zeros", "config": {}}, "bias_regularizer": null, "activity_regularizer": null, "bias_constraint": null, "depth_multiplier": 1, "depthwise_initializer": {"class_name": "GlorotUniform", "config": {"seed": null}}, "depthwise_regularizer": null, "depthwise_constraint": null}, "name": "depthwise_conv2d_6", "inbound_nodes": [[["p_re_lu_27", 0, 0, {}]]]}, {"class_name": "PReLU", "config": {"name": "p_re_lu_28", "trainable": true, "dtype": "float32", "alpha_initializer": {"class_name": "Zeros", "config": {}}, "alpha_regularizer": null, "alpha_constraint": null, "shared_axes": [1, 2]}, "name": "p_re_lu_28", "inbound_nodes": [[["depthwise_conv2d_6", 0, 0, {}]]]}, {"class_name": "Conv2D", "config": {"name": "conv2d_17", "trainable": true, "dtype": "float32", "filters": 128, "kernel_size": [1, 1], "strides": [1, 1], "padding": "same", "data_format": "channels_last", "dilation_rate": [1, 1], "groups": 1, "activation": "linear", "use_bias": true, "kernel_initializer": {"class_name": "HeNormal", "config": {"seed": null}}, "bias_initializer": {"class_name": "Zeros", "config": {}}, "kernel_regularizer": null, "bias_regularizer": null, "activity_regularizer": null, "kernel_constraint": null, "bias_constraint": null}, "name": "conv2d_17", "inbound_nodes": [[["p_re_lu_28", 0, 0, {}]]]}, {"class_name": "Add", "config": {"name": "add_6", "trainable": true, "dtype": "float32"}, "name": "add_6", "inbound_nodes": [[["p_re_lu_25", 0, 0, {}], ["conv2d_17", 0, 0, {}]]]}, {"class_name": "PReLU", "config": {"name": "p_re_lu_29", "trainable": true, "dtype": "float32", "alpha_initializer": {"class_name": "Zeros", "config": {}}, "alpha_regularizer": null, "alpha_constraint": null, "shared_axes": [1, 2]}, "name": "p_re_lu_29", "inbound_nodes": [[["add_6", 0, 0, {}]]]}, {"class_name": "Conv2D", "config": {"name": "conv2d_18", "trainable": true, "dtype": "float32", "filters": 16, "kernel_size": [1, 1], "strides": [1, 1], "padding": "same", "data_format": "channels_last", "dilation_rate": [1, 1], "groups": 1, "activation": "linear", "use_bias": true, "kernel_initializer": {"class_name": "HeNormal", "config": {"seed": null}}, "bias_initializer": {"class_name": "Zeros", "config": {}}, "kernel_regularizer": null, "bias_regularizer": null, "activity_regularizer": null, "kernel_constraint": null, "bias_constraint": null}, "name": "conv2d_18", "inbound_nodes": [[["p_re_lu_29", 0, 0, {}]]]}, {"class_name": "PReLU", "config": {"name": "p_re_lu_30", "trainable": true, "dtype": "float32", "alpha_initializer": {"class_name": "Zeros", "config": {}}, "alpha_regularizer": null, "alpha_constraint": null, "shared_axes": [1, 2]}, "name": "p_re_lu_30", "inbound_nodes": [[["conv2d_18", 0, 0, {}]]]}, {"class_name": "SeparableConv2D", "config": {"name": "separable_conv2d_7", "trainable": true, "dtype": "float32", "filters": 16, "kernel_size": [3, 3], "strides": [1, 1], "padding": "same", "data_format": "channels_last", "dilation_rate": [1, 1], "groups": 1, "activation": "linear", "use_bias": true, "bias_initializer": {"class_name": "Zeros", "config": {}, "shared_object_id": 194}, "bias_regularizer": null, "activity_regularizer": null, "bias_constraint": null, "depth_multiplier": 1, "depthwise_initializer": {"class_name": "GlorotUniform", "config": {"seed": null}}, "pointwise_initializer": {"class_name": "GlorotUniform", "config": {"seed": null}}, "depthwise_regularizer": null, "pointwise_regularizer": null, "depthwise_constraint": null, "pointwise_constraint": null}, "name": "separable_conv2d_7", "inbound_nodes": [[["p_re_lu_30", 0, 0, {}]]]}, {"class_name": "PReLU", "config": {"name": "p_re_lu_31", "trainable": true, "dtype": "float32", "alpha_initializer": {"class_name": "Zeros", "config": {}}, "alpha_regularizer": null, "alpha_constraint": null, "shared_axes": [1, 2]}, "name": "p_re_lu_31", "inbound_nodes": [[["separable_conv2d_7", 0, 0, {}]]]}, {"class_name": "DepthwiseConv2D", "config": {"name": "depthwise_conv2d_7", "trainable": true, "dtype": "float32", "kernel_size": [3, 3], "strides": [1, 1], "padding": "same", "data_format": "channels_last", "dilation_rate": [1, 1], "groups": 1, "activation": "linear", "use_bias": true, "bias_initializer": {"class_name": "Zeros", "config": {}}, "bias_regularizer": null, "activity_regularizer": null, "bias_constraint": null, "depth_multiplier": 1, "depthwise_initializer": {"class_name": "GlorotUniform", "config": {"seed": null}}, "depthwise_regularizer": null, "depthwise_constraint": null}, "name": "depthwise_conv2d_7", "inbound_nodes": [[["p_re_lu_31", 0, 0, {}]]]}, {"class_name": "PReLU", "config": {"name": "p_re_lu_32", "trainable": true, "dtype": "float32", "alpha_initializer": {"class_name": "Zeros", "config": {}}, "alpha_regularizer": null, "alpha_constraint": null, "shared_axes": [1, 2]}, "name": "p_re_lu_32", "inbound_nodes": [[["depthwise_conv2d_7", 0, 0, {}]]]}, {"class_name": "Conv2D", "config": {"name": "conv2d_19", "trainable": true, "dtype": "float32", "filters": 128, "kernel_size": [1, 1], "strides": [1, 1], "padding": "same", "data_format": "channels_last", "dilation_rate": [1, 1], "groups": 1, "activation": "linear", "use_bias": true, "kernel_initializer": {"class_name": "HeNormal", "config": {"seed": null}}, "bias_initializer": {"class_name": "Zeros", "config": {}}, "kernel_regularizer": null, "bias_regularizer": null, "activity_regularizer": null, "kernel_constraint": null, "bias_constraint": null}, "name": "conv2d_19", "inbound_nodes": [[["p_re_lu_32", 0, 0, {}]]]}, {"class_name": "Add", "config": {"name": "add_7", "trainable": true, "dtype": "float32"}, "name": "add_7", "inbound_nodes": [[["p_re_lu_29", 0, 0, {}], ["conv2d_19", 0, 0, {}]]]}, {"class_name": "PReLU", "config": {"name": "p_re_lu_33", "trainable": true, "dtype": "float32", "alpha_initializer": {"class_name": "Zeros", "config": {}}, "alpha_regularizer": null, "alpha_constraint": null, "shared_axes": [1, 2]}, "name": "p_re_lu_33", "inbound_nodes": [[["add_7", 0, 0, {}]]]}, {"class_name": "Conv2D", "config": {"name": "conv2d_20", "trainable": true, "dtype": "float32", "filters": 16, "kernel_size": [2, 2], "strides": [2, 2], "padding": "same", "data_format": "channels_last", "dilation_rate": [1, 1], "groups": 1, "activation": "linear", "use_bias": true, "kernel_initializer": {"class_name": "HeNormal", "config": {"seed": null}}, "bias_initializer": {"class_name": "Zeros", "config": {}}, "kernel_regularizer": null, "bias_regularizer": null, "activity_regularizer": null, "kernel_constraint": null, "bias_constraint": null}, "name": "conv2d_20", "inbound_nodes": [[["p_re_lu_33", 0, 0, {}]]]}, {"class_name": "PReLU", "config": {"name": "p_re_lu_34", "trainable": true, "dtype": "float32", "alpha_initializer": {"class_name": "Zeros", "config": {}}, "alpha_regularizer": null, "alpha_constraint": null, "shared_axes": [1, 2]}, "name": "p_re_lu_34", "inbound_nodes": [[["conv2d_20", 0, 0, {}]]]}, {"class_name": "SeparableConv2D", "config": {"name": "separable_conv2d_8", "trainable": true, "dtype": "float32", "filters": 16, "kernel_size": [3, 3], "strides": [1, 1], "padding": "same", "data_format": "channels_last", "dilation_rate": [1, 1], "groups": 1, "activation": "linear", "use_bias": true, "bias_initializer": {"class_name": "Zeros", "config": {}, "shared_object_id": 218}, "bias_regularizer": null, "activity_regularizer": null, "bias_constraint": null, "depth_multiplier": 1, "depthwise_initializer": {"class_name": "GlorotUniform", "config": {"seed": null}}, "pointwise_initializer": {"class_name": "GlorotUniform", "config": {"seed": null}}, "depthwise_regularizer": null, "pointwise_regularizer": null, "depthwise_constraint": null, "pointwise_constraint": null}, "name": "separable_conv2d_8", "inbound_nodes": [[["p_re_lu_34", 0, 0, {}]]]}, {"class_name": "PReLU", "config": {"name": "p_re_lu_35", "trainable": true, "dtype": "float32", "alpha_initializer": {"class_name": "Zeros", "config": {}}, "alpha_regularizer": null, "alpha_constraint": null, "shared_axes": [1, 2]}, "name": "p_re_lu_35", "inbound_nodes": [[["separable_conv2d_8", 0, 0, {}]]]}, {"class_name": "DepthwiseConv2D", "config": {"name": "depthwise_conv2d_8", "trainable": true, "dtype": "float32", "kernel_size": [3, 3], "strides": [1, 1], "padding": "same", "data_format": "channels_last", "dilation_rate": [1, 1], "groups": 1, "activation": "linear", "use_bias": true, "bias_initializer": {"class_name": "Zeros", "config": {}}, "bias_regularizer": null, "activity_regularizer": null, "bias_constraint": null, "depth_multiplier": 1, "depthwise_initializer": {"class_name": "GlorotUniform", "config": {"seed": null}}, "depthwise_regularizer": null, "depthwise_constraint": null}, "name": "depthwise_conv2d_8", "inbound_nodes": [[["p_re_lu_35", 0, 0, {}]]]}, {"class_name": "PReLU", "config": {"name": "p_re_lu_36", "trainable": true, "dtype": "float32", "alpha_initializer": {"class_name": "Zeros", "config": {}}, "alpha_regularizer": null, "alpha_constraint": null, "shared_axes": [1, 2]}, "name": "p_re_lu_36", "inbound_nodes": [[["depthwise_conv2d_8", 0, 0, {}]]]}, {"class_name": "MaxPooling2D", "config": {"name": "max_pooling2d_2", "trainable": true, "dtype": "float32", "pool_size": [2, 2], "padding": "same", "strides": [2, 2], "data_format": "channels_last"}, "name": "max_pooling2d_2", "inbound_nodes": [[["p_re_lu_33", 0, 0, {}]]]}, {"class_name": "Conv2D", "config": {"name": "conv2d_21", "trainable": true, "dtype": "float32", "filters": 128, "kernel_size": [1, 1], "strides": [1, 1], "padding": "same", "data_format": "channels_last", "dilation_rate": [1, 1], "groups": 1, "activation": "linear", "use_bias": true, "kernel_initializer": {"class_name": "HeNormal", "config": {"seed": null}}, "bias_initializer": {"class_name": "Zeros", "config": {}}, "kernel_regularizer": null, "bias_regularizer": null, "activity_regularizer": null, "kernel_constraint": null, "bias_constraint": null}, "name": "conv2d_21", "inbound_nodes": [[["p_re_lu_36", 0, 0, {}]]]}, {"class_name": "Add", "config": {"name": "add_8", "trainable": true, "dtype": "float32"}, "name": "add_8", "inbound_nodes": [[["max_pooling2d_2", 0, 0, {}], ["conv2d_21", 0, 0, {}]]]}, {"class_name": "PReLU", "config": {"name": "p_re_lu_37", "trainable": true, "dtype": "float32", "alpha_initializer": {"class_name": "Zeros", "config": {}}, "alpha_regularizer": null, "alpha_constraint": null, "shared_axes": [1, 2]}, "name": "p_re_lu_37", "inbound_nodes": [[["add_8", 0, 0, {}]]]}, {"class_name": "Conv2D", "config": {"name": "conv2d_22", "trainable": true, "dtype": "float32", "filters": 8, "kernel_size": [1, 1], "strides": [1, 1], "padding": "same", "data_format": "channels_last", "dilation_rate": [1, 1], "groups": 1, "activation": "linear", "use_bias": true, "kernel_initializer": {"class_name": "HeNormal", "config": {"seed": null}}, "bias_initializer": {"class_name": "Zeros", "config": {}}, "kernel_regularizer": null, "bias_regularizer": null, "activity_regularizer": null, "kernel_constraint": null, "bias_constraint": null}, "name": "conv2d_22", "inbound_nodes": [[["p_re_lu_37", 0, 0, {}]]]}, {"class_name": "PReLU", "config": {"name": "p_re_lu_38", "trainable": true, "dtype": "float32", "alpha_initializer": {"class_name": "Zeros", "config": {}}, "alpha_regularizer": null, "alpha_constraint": null, "shared_axes": [1, 2]}, "name": "p_re_lu_38", "inbound_nodes": [[["conv2d_22", 0, 0, {}]]]}, {"class_name": "SeparableConv2D", "config": {"name": "separable_conv2d_9", "trainable": true, "dtype": "float32", "filters": 8, "kernel_size": [3, 3], "strides": [1, 1], "padding": "same", "data_format": "channels_last", "dilation_rate": [1, 1], "groups": 1, "activation": "linear", "use_bias": true, "bias_initializer": {"class_name": "Zeros", "config": {}, "shared_object_id": 243}, "bias_regularizer": null, "activity_regularizer": null, "bias_constraint": null, "depth_multiplier": 1, "depthwise_initializer": {"class_name": "GlorotUniform", "config": {"seed": null}}, "pointwise_initializer": {"class_name": "GlorotUniform", "config": {"seed": null}}, "depthwise_regularizer": null, "pointwise_regularizer": null, "depthwise_constraint": null, "pointwise_constraint": null}, "name": "separable_conv2d_9", "inbound_nodes": [[["p_re_lu_38", 0, 0, {}]]]}, {"class_name": "PReLU", "config": {"name": "p_re_lu_39", "trainable": true, "dtype": "float32", "alpha_initializer": {"class_name": "Zeros", "config": {}}, "alpha_regularizer": null, "alpha_constraint": null, "shared_axes": [1, 2]}, "name": "p_re_lu_39", "inbound_nodes": [[["separable_conv2d_9", 0, 0, {}]]]}, {"class_name": "DepthwiseConv2D", "config": {"name": "depthwise_conv2d_9", "trainable": true, "dtype": "float32", "kernel_size": [3, 3], "strides": [1, 1], "padding": "same", "data_format": "channels_last", "dilation_rate": [1, 1], "groups": 1, "activation": "linear", "use_bias": true, "bias_initializer": {"class_name": "Zeros", "config": {}}, "bias_regularizer": null, "activity_regularizer": null, "bias_constraint": null, "depth_multiplier": 1, "depthwise_initializer": {"class_name": "GlorotUniform", "config": {"seed": null}}, "depthwise_regularizer": null, "depthwise_constraint": null}, "name": "depthwise_conv2d_9", "inbound_nodes": [[["p_re_lu_39", 0, 0, {}]]]}, {"class_name": "PReLU", "config": {"name": "p_re_lu_40", "trainable": true, "dtype": "float32", "alpha_initializer": {"class_name": "Zeros", "config": {}}, "alpha_regularizer": null, "alpha_constraint": null, "shared_axes": [1, 2]}, "name": "p_re_lu_40", "inbound_nodes": [[["depthwise_conv2d_9", 0, 0, {}]]]}, {"class_name": "Conv2D", "config": {"name": "conv2d_23", "trainable": true, "dtype": "float32", "filters": 128, "kernel_size": [1, 1], "strides": [1, 1], "padding": "same", "data_format": "channels_last", "dilation_rate": [1, 1], "groups": 1, "activation": "linear", "use_bias": true, "kernel_initializer": {"class_name": "HeNormal", "config": {"seed": null}}, "bias_initializer": {"class_name": "Zeros", "config": {}}, "kernel_regularizer": null, "bias_regularizer": null, "activity_regularizer": null, "kernel_constraint": null, "bias_constraint": null}, "name": "conv2d_23", "inbound_nodes": [[["p_re_lu_40", 0, 0, {}]]]}, {"class_name": "Add", "config": {"name": "add_9", "trainable": true, "dtype": "float32"}, "name": "add_9", "inbound_nodes": [[["p_re_lu_37", 0, 0, {}], ["conv2d_23", 0, 0, {}]]]}, {"class_name": "PReLU", "config": {"name": "p_re_lu_41", "trainable": true, "dtype": "float32", "alpha_initializer": {"class_name": "Zeros", "config": {}}, "alpha_regularizer": null, "alpha_constraint": null, "shared_axes": [1, 2]}, "name": "p_re_lu_41", "inbound_nodes": [[["add_9", 0, 0, {}]]]}, {"class_name": "Conv2D", "config": {"name": "conv2d_24", "trainable": true, "dtype": "float32", "filters": 8, "kernel_size": [1, 1], "strides": [1, 1], "padding": "same", "data_format": "channels_last", "dilation_rate": [1, 1], "groups": 1, "activation": "linear", "use_bias": true, "kernel_initializer": {"class_name": "HeNormal", "config": {"seed": null}}, "bias_initializer": {"class_name": "Zeros", "config": {}}, "kernel_regularizer": null, "bias_regularizer": null, "activity_regularizer": null, "kernel_constraint": null, "bias_constraint": null}, "name": "conv2d_24", "inbound_nodes": [[["p_re_lu_41", 0, 0, {}]]]}, {"class_name": "PReLU", "config": {"name": "p_re_lu_42", "trainable": true, "dtype": "float32", "alpha_initializer": {"class_name": "Zeros", "config": {}}, "alpha_regularizer": null, "alpha_constraint": null, "shared_axes": [1, 2]}, "name": "p_re_lu_42", "inbound_nodes": [[["conv2d_24", 0, 0, {}]]]}, {"class_name": "Conv2D", "config": {"name": "conv2d_25", "trainable": true, "dtype": "float32", "filters": 128, "kernel_size": [3, 3], "strides": [1, 1], "padding": "same", "data_format": "channels_last", "dilation_rate": [2, 2], "groups": 1, "activation": "linear", "use_bias": true, "kernel_initializer": {"class_name": "HeNormal", "config": {"seed": null}}, "bias_initializer": {"class_name": "Zeros", "config": {}}, "kernel_regularizer": null, "bias_regularizer": null, "activity_regularizer": null, "kernel_constraint": null, "bias_constraint": null}, "name": "conv2d_25", "inbound_nodes": [[["p_re_lu_42", 0, 0, {}]]]}, {"class_name": "PReLU", "config": {"name": "p_re_lu_43", "trainable": true, "dtype": "float32", "alpha_initializer": {"class_name": "Zeros", "config": {}}, "alpha_regularizer": null, "alpha_constraint": null, "shared_axes": [1, 2]}, "name": "p_re_lu_43", "inbound_nodes": [[["conv2d_25", 0, 0, {}]]]}, {"class_name": "Conv2D", "config": {"name": "conv2d_26", "trainable": true, "dtype": "float32", "filters": 128, "kernel_size": [1, 1], "strides": [1, 1], "padding": "same", "data_format": "channels_last", "dilation_rate": [1, 1], "groups": 1, "activation": "linear", "use_bias": true, "kernel_initializer": {"class_name": "HeNormal", "config": {"seed": null}}, "bias_initializer": {"class_name": "Zeros", "config": {}}, "kernel_regularizer": null, "bias_regularizer": null, "activity_regularizer": null, "kernel_constraint": null, "bias_constraint": null}, "name": "conv2d_26", "inbound_nodes": [[["p_re_lu_43", 0, 0, {}]]]}, {"class_name": "Add", "config": {"name": "add_10", "trainable": true, "dtype": "float32"}, "name": "add_10", "inbound_nodes": [[["p_re_lu_41", 0, 0, {}], ["conv2d_26", 0, 0, {}]]]}, {"class_name": "PReLU", "config": {"name": "p_re_lu_44", "trainable": true, "dtype": "float32", "alpha_initializer": {"class_name": "Zeros", "config": {}}, "alpha_regularizer": null, "alpha_constraint": null, "shared_axes": [1, 2]}, "name": "p_re_lu_44", "inbound_nodes": [[["add_10", 0, 0, {}]]]}, {"class_name": "Conv2D", "config": {"name": "conv2d_27", "trainable": true, "dtype": "float32", "filters": 8, "kernel_size": [1, 1], "strides": [1, 1], "padding": "same", "data_format": "channels_last", "dilation_rate": [1, 1], "groups": 1, "activation": "linear", "use_bias": true, "kernel_initializer": {"class_name": "HeNormal", "config": {"seed": null}}, "bias_initializer": {"class_name": "Zeros", "config": {}}, "kernel_regularizer": null, "bias_regularizer": null, "activity_regularizer": null, "kernel_constraint": null, "bias_constraint": null}, "name": "conv2d_27", "inbound_nodes": [[["p_re_lu_44", 0, 0, {}]]]}, {"class_name": "PReLU", "config": {"name": "p_re_lu_45", "trainable": true, "dtype": "float32", "alpha_initializer": {"class_name": "Zeros", "config": {}}, "alpha_regularizer": null, "alpha_constraint": null, "shared_axes": [1, 2]}, "name": "p_re_lu_45", "inbound_nodes": [[["conv2d_27", 0, 0, {}]]]}, {"class_name": "SeparableConv2D", "config": {"name": "separable_conv2d_10", "trainable": true, "dtype": "float32", "filters": 8, "kernel_size": [5, 5], "strides": [1, 1], "padding": "same", "data_format": "channels_last", "dilation_rate": [1, 1], "groups": 1, "activation": "linear", "use_bias": true, "bias_initializer": {"class_name": "Zeros", "config": {}, "shared_object_id": 283}, "bias_regularizer": null, "activity_regularizer": null, "bias_constraint": null, "depth_multiplier": 1, "depthwise_initializer": {"class_name": "GlorotUniform", "config": {"seed": null}}, "pointwise_initializer": {"class_name": "GlorotUniform", "config": {"seed": null}}, "depthwise_regularizer": null, "pointwise_regularizer": null, "depthwise_constraint": null, "pointwise_constraint": null}, "name": "separable_conv2d_10", "inbound_nodes": [[["p_re_lu_45", 0, 0, {}]]]}, {"class_name": "PReLU", "config": {"name": "p_re_lu_46", "trainable": true, "dtype": "float32", "alpha_initializer": {"class_name": "Zeros", "config": {}}, "alpha_regularizer": null, "alpha_constraint": null, "shared_axes": [1, 2]}, "name": "p_re_lu_46", "inbound_nodes": [[["separable_conv2d_10", 0, 0, {}]]]}, {"class_name": "Conv2D", "config": {"name": "conv2d_28", "trainable": true, "dtype": "float32", "filters": 128, "kernel_size": [1, 1], "strides": [1, 1], "padding": "same", "data_format": "channels_last", "dilation_rate": [1, 1], "groups": 1, "activation": "linear", "use_bias": true, "kernel_initializer": {"class_name": "HeNormal", "config": {"seed": null}}, "bias_initializer": {"class_name": "Zeros", "config": {}}, "kernel_regularizer": null, "bias_regularizer": null, "activity_regularizer": null, "kernel_constraint": null, "bias_constraint": null}, "name": "conv2d_28", "inbound_nodes": [[["p_re_lu_46", 0, 0, {}]]]}, {"class_name": "Add", "config": {"name": "add_11", "trainable": true, "dtype": "float32"}, "name": "add_11", "inbound_nodes": [[["p_re_lu_44", 0, 0, {}], ["conv2d_28", 0, 0, {}]]]}, {"class_name": "PReLU", "config": {"name": "p_re_lu_47", "trainable": true, "dtype": "float32", "alpha_initializer": {"class_name": "Zeros", "config": {}}, "alpha_regularizer": null, "alpha_constraint": null, "shared_axes": [1, 2]}, "name": "p_re_lu_47", "inbound_nodes": [[["add_11", 0, 0, {}]]]}, {"class_name": "Conv2D", "config": {"name": "conv2d_29", "trainable": true, "dtype": "float32", "filters": 8, "kernel_size": [1, 1], "strides": [1, 1], "padding": "same", "data_format": "channels_last", "dilation_rate": [1, 1], "groups": 1, "activation": "linear", "use_bias": true, "kernel_initializer": {"class_name": "HeNormal", "config": {"seed": null}}, "bias_initializer": {"class_name": "Zeros", "config": {}}, "kernel_regularizer": null, "bias_regularizer": null, "activity_regularizer": null, "kernel_constraint": null, "bias_constraint": null}, "name": "conv2d_29", "inbound_nodes": [[["p_re_lu_47", 0, 0, {}]]]}, {"class_name": "PReLU", "config": {"name": "p_re_lu_48", "trainable": true, "dtype": "float32", "alpha_initializer": {"class_name": "Zeros", "config": {}}, "alpha_regularizer": null, "alpha_constraint": null, "shared_axes": [1, 2]}, "name": "p_re_lu_48", "inbound_nodes": [[["conv2d_29", 0, 0, {}]]]}, {"class_name": "Conv2D", "config": {"name": "conv2d_30", "trainable": true, "dtype": "float32", "filters": 128, "kernel_size": [3, 3], "strides": [1, 1], "padding": "same", "data_format": "channels_last", "dilation_rate": [4, 4], "groups": 1, "activation": "linear", "use_bias": true, "kernel_initializer": {"class_name": "HeNormal", "config": {"seed": null}}, "bias_initializer": {"class_name": "Zeros", "config": {}}, "kernel_regularizer": null, "bias_regularizer": null, "activity_regularizer": null, "kernel_constraint": null, "bias_constraint": null}, "name": "conv2d_30", "inbound_nodes": [[["p_re_lu_48", 0, 0, {}]]]}, {"class_name": "PReLU", "config": {"name": "p_re_lu_49", "trainable": true, "dtype": "float32", "alpha_initializer": {"class_name": "Zeros", "config": {}}, "alpha_regularizer": null, "alpha_constraint": null, "shared_axes": [1, 2]}, "name": "p_re_lu_49", "inbound_nodes": [[["conv2d_30", 0, 0, {}]]]}, {"class_name": "Conv2D", "config": {"name": "conv2d_31", "trainable": true, "dtype": "float32", "filters": 128, "kernel_size": [1, 1], "strides": [1, 1], "padding": "same", "data_format": "channels_last", "dilation_rate": [1, 1], "groups": 1, "activation": "linear", "use_bias": true, "kernel_initializer": {"class_name": "HeNormal", "config": {"seed": null}}, "bias_initializer": {"class_name": "Zeros", "config": {}}, "kernel_regularizer": null, "bias_regularizer": null, "activity_regularizer": null, "kernel_constraint": null, "bias_constraint": null}, "name": "conv2d_31", "inbound_nodes": [[["p_re_lu_49", 0, 0, {}]]]}, {"class_name": "Add", "config": {"name": "add_12", "trainable": true, "dtype": "float32"}, "name": "add_12", "inbound_nodes": [[["p_re_lu_47", 0, 0, {}], ["conv2d_31", 0, 0, {}]]]}, {"class_name": "PReLU", "config": {"name": "p_re_lu_50", "trainable": true, "dtype": "float32", "alpha_initializer": {"class_name": "Zeros", "config": {}}, "alpha_regularizer": null, "alpha_constraint": null, "shared_axes": [1, 2]}, "name": "p_re_lu_50", "inbound_nodes": [[["add_12", 0, 0, {}]]]}, {"class_name": "Conv2D", "config": {"name": "conv2d_32", "trainable": true, "dtype": "float32", "filters": 8, "kernel_size": [1, 1], "strides": [1, 1], "padding": "same", "data_format": "channels_last", "dilation_rate": [1, 1], "groups": 1, "activation": "linear", "use_bias": true, "kernel_initializer": {"class_name": "HeNormal", "config": {"seed": null}}, "bias_initializer": {"class_name": "Zeros", "config": {}}, "kernel_regularizer": null, "bias_regularizer": null, "activity_regularizer": null, "kernel_constraint": null, "bias_constraint": null}, "name": "conv2d_32", "inbound_nodes": [[["p_re_lu_50", 0, 0, {}]]]}, {"class_name": "PReLU", "config": {"name": "p_re_lu_51", "trainable": true, "dtype": "float32", "alpha_initializer": {"class_name": "Zeros", "config": {}}, "alpha_regularizer": null, "alpha_constraint": null, "shared_axes": [1, 2]}, "name": "p_re_lu_51", "inbound_nodes": [[["conv2d_32", 0, 0, {}]]]}, {"class_name": "SeparableConv2D", "config": {"name": "separable_conv2d_11", "trainable": true, "dtype": "float32", "filters": 8, "kernel_size": [3, 3], "strides": [1, 1], "padding": "same", "data_format": "channels_last", "dilation_rate": [1, 1], "groups": 1, "activation": "linear", "use_bias": true, "bias_initializer": {"class_name": "Zeros", "config": {}, "shared_object_id": 317},  "bias_regularizer": null, "activity_regularizer": null,  "bias_constraint": null, "depth_multiplier": 1, "depthwise_initializer": {"class_name": "GlorotUniform", "config": {"seed": null}}, "pointwise_initializer": {"class_name": "GlorotUniform", "config": {"seed": null}}, "depthwise_regularizer": null, "pointwise_regularizer": null, "depthwise_constraint": null, "pointwise_constraint": null}, "name": "separable_conv2d_11", "inbound_nodes": [[["p_re_lu_51", 0, 0, {}]]]}, {"class_name": "PReLU", "config": {"name": "p_re_lu_52", "trainable": true, "dtype": "float32", "alpha_initializer": {"class_name": "Zeros", "config": {}}, "alpha_regularizer": null, "alpha_constraint": null, "shared_axes": [1, 2]}, "name": "p_re_lu_52", "inbound_nodes": [[["separable_conv2d_11", 0, 0, {}]]]}, {"class_name": "DepthwiseConv2D", "config": {"name": "depthwise_conv2d_10", "trainable": true, "dtype": "float32", "kernel_size": [3, 3], "strides": [1, 1], "padding": "same", "data_format": "channels_last", "dilation_rate": [1, 1], "groups": 1, "activation": "linear", "use_bias": true, "bias_initializer": {"class_name": "Zeros", "config": {}}, "bias_regularizer": null, "activity_regularizer": null, "bias_constraint": null, "depth_multiplier": 1, "depthwise_initializer": {"class_name": "GlorotUniform", "config": {"seed": null}}, "depthwise_regularizer": null, "depthwise_constraint": null}, "name": "depthwise_conv2d_10", "inbound_nodes": [[["p_re_lu_52", 0, 0, {}]]]}, {"class_name": "PReLU", "config": {"name": "p_re_lu_53", "trainable": true, "dtype": "float32", "alpha_initializer": {"class_name": "Zeros", "config": {}}, "alpha_regularizer": null, "alpha_constraint": null, "shared_axes": [1, 2]}, "name": "p_re_lu_53", "inbound_nodes": [[["depthwise_conv2d_10", 0, 0, {}]]]}, {"class_name": "Conv2D", "config": {"name": "conv2d_33", "trainable": true, "dtype": "float32", "filters": 128, "kernel_size": [1, 1], "strides": [1, 1], "padding": "same", "data_format": "channels_last", "dilation_rate": [1, 1], "groups": 1, "activation": "linear", "use_bias": true, "kernel_initializer": {"class_name": "HeNormal", "config": {"seed": null}}, "bias_initializer": {"class_name": "Zeros", "config": {}}, "kernel_regularizer": null, "bias_regularizer": null, "activity_regularizer": null, "kernel_constraint": null, "bias_constraint": null}, "name": "conv2d_33", "inbound_nodes": [[["p_re_lu_53", 0, 0, {}]]]}, {"class_name": "Add", "config": {"name": "add_13", "trainable": true, "dtype": "float32"}, "name": "add_13", "inbound_nodes": [[["p_re_lu_50", 0, 0, {}], ["conv2d_33", 0, 0, {}]]]}, {"class_name": "PReLU", "config": {"name": "p_re_lu_54", "trainable": true, "dtype": "float32", "alpha_initializer": {"class_name": "Zeros", "config": {}}, "alpha_regularizer": null, "alpha_constraint": null, "shared_axes": [1, 2]}, "name": "p_re_lu_54", "inbound_nodes": [[["add_13", 0, 0, {}]]]}, {"class_name": "Conv2D", "config": {"name": "conv2d_34", "trainable": true, "dtype": "float32", "filters": 8, "kernel_size": [1, 1], "strides": [1, 1], "padding": "same", "data_format": "channels_last", "dilation_rate": [1, 1], "groups": 1, "activation": "linear", "use_bias": true, "kernel_initializer": {"class_name": "HeNormal", "config": {"seed": null}}, "bias_initializer": {"class_name": "Zeros", "config": {}}, "kernel_regularizer": null, "bias_regularizer": null, "activity_regularizer": null, "kernel_constraint": null, "bias_constraint": null}, "name": "conv2d_34", "inbound_nodes": [[["p_re_lu_54", 0, 0, {}]]]}, {"class_name": "PReLU", "config": {"name": "p_re_lu_55", "trainable": true, "dtype": "float32", "alpha_initializer": {"class_name": "Zeros", "config": {}}, "alpha_regularizer": null, "alpha_constraint": null, "shared_axes": [1, 2]}, "name": "p_re_lu_55", "inbound_nodes": [[["conv2d_34", 0, 0, {}]]]}, {"class_name": "Conv2D", "config": {"name": "conv2d_35", "trainable": true, "dtype": "float32", "filters": 128, "kernel_size": [3, 3], "strides": [1, 1], "padding": "same", "data_format": "channels_last", "dilation_rate": [8, 8], "groups": 1, "activation": "linear", "use_bias": true, "kernel_initializer": {"class_name": "HeNormal", "config": {"seed": null}}, "bias_initializer": {"class_name": "Zeros", "config": {}}, "kernel_regularizer": null, "bias_regularizer": null, "activity_regularizer": null, "kernel_constraint": null, "bias_constraint": null}, "name": "conv2d_35", "inbound_nodes": [[["p_re_lu_55", 0, 0, {}]]]}, {"class_name": "PReLU", "config": {"name": "p_re_lu_56", "trainable": true, "dtype": "float32", "alpha_initializer": {"class_name": "Zeros", "config": {}}, "alpha_regularizer": null, "alpha_constraint": null, "shared_axes": [1, 2]}, "name": "p_re_lu_56", "inbound_nodes": [[["conv2d_35", 0, 0, {}]]]}, {"class_name": "Conv2D", "config": {"name": "conv2d_36", "trainable": true, "dtype": "float32", "filters": 128, "kernel_size": [1, 1], "strides": [1, 1], "padding": "same", "data_format": "channels_last", "dilation_rate": [1, 1], "groups": 1, "activation": "linear", "use_bias": true, "kernel_initializer": {"class_name": "HeNormal", "config": {"seed": null}}, "bias_initializer": {"class_name": "Zeros", "config": {}}, "kernel_regularizer": null, "bias_regularizer": null, "activity_regularizer": null, "kernel_constraint": null, "bias_constraint": null}, "name": "conv2d_36", "inbound_nodes": [[["p_re_lu_56", 0, 0, {}]]]}, {"class_name": "Add", "config": {"name": "add_14", "trainable": true, "dtype": "float32"}, "name": "add_14", "inbound_nodes": [[["p_re_lu_54", 0, 0, {}], ["conv2d_36", 0, 0, {}]]]}, {"class_name": "PReLU", "config": {"name": "p_re_lu_57", "trainable": true, "dtype": "float32", "alpha_initializer": {"class_name": "Zeros", "config": {}}, "alpha_regularizer": null, "alpha_constraint": null, "shared_axes": [1, 2]}, "name": "p_re_lu_57", "inbound_nodes": [[["add_14", 0, 0, {}]]]}, {"class_name": "Conv2D", "config": {"name": "conv2d_37", "trainable": true, "dtype": "float32", "filters": 8, "kernel_size": [1, 1], "strides": [1, 1], "padding": "same", "data_format": "channels_last", "dilation_rate": [1, 1], "groups": 1, "activation": "linear", "use_bias": true, "kernel_initializer": {"class_name": "HeNormal", "config": {"seed": null}}, "bias_initializer": {"class_name": "Zeros", "config": {}}, "kernel_regularizer": null, "bias_regularizer": null, "activity_regularizer": null, "kernel_constraint": null, "bias_constraint": null}, "name": "conv2d_37", "inbound_nodes": [[["p_re_lu_57", 0, 0, {}]]]}, {"class_name": "PReLU", "config": {"name": "p_re_lu_58", "trainable": true, "dtype": "float32", "alpha_initializer": {"class_name": "Zeros", "config": {}}, "alpha_regularizer": null, "alpha_constraint": null, "shared_axes": [1, 2]}, "name": "p_re_lu_58", "inbound_nodes": [[["conv2d_37", 0, 0, {}]]]}, {"class_name": "SeparableConv2D", "config": {"name": "separable_conv2d_12", "trainable": true, "dtype": "float32", "filters": 8, "kernel_size": [3, 3], "strides": [1, 1], "padding": "same", "data_format": "channels_last", "dilation_rate": [1, 1], "groups": 1, "activation": "linear", "use_bias": true, "bias_initializer": {"class_name": "Zeros", "config": {}, "shared_object_id": 357}, "bias_regularizer": null, "activity_regularizer": null, "bias_constraint": null, "depth_multiplier": 1, "depthwise_initializer": {"class_name": "GlorotUniform", "config": {"seed": null}}, "pointwise_initializer": {"class_name": "GlorotUniform", "config": {"seed": null}}, "depthwise_regularizer": null, "pointwise_regularizer": null, "depthwise_constraint": null, "pointwise_constraint": null}, "name": "separable_conv2d_12", "inbound_nodes": [[["p_re_lu_58", 0, 0, {}]]]}, {"class_name": "PReLU", "config": {"name": "p_re_lu_59", "trainable": true, "dtype": "float32", "alpha_initializer": {"class_name": "Zeros", "config": {}}, "alpha_regularizer": null, "alpha_constraint": null, "shared_axes": [1, 2]}, "name": "p_re_lu_59", "inbound_nodes": [[["separable_conv2d_12", 0, 0, {}]]]}, {"class_name": "DepthwiseConv2D", "config": {"name": "depthwise_conv2d_11", "trainable": true, "dtype": "float32", "kernel_size": [3, 3], "strides": [1, 1], "padding": "same", "data_format": "channels_last", "dilation_rate": [1, 1], "groups": 1, "activation": "linear", "use_bias": true, "bias_initializer": {"class_name": "Zeros", "config": {}}, "bias_regularizer": null, "activity_regularizer": null, "bias_constraint": null, "depth_multiplier": 1, "depthwise_initializer": {"class_name": "GlorotUniform", "config": {"seed": null}}, "depthwise_regularizer": null, "depthwise_constraint": null}, "name": "depthwise_conv2d_11", "inbound_nodes": [[["p_re_lu_59", 0, 0, {}]]]}, {"class_name": "PReLU", "config": {"name": "p_re_lu_60", "trainable": true, "dtype": "float32", "alpha_initializer": {"class_name": "Zeros", "config": {}}, "alpha_regularizer": null, "alpha_constraint": null, "shared_axes": [1, 2]}, "name": "p_re_lu_60", "inbound_nodes": [[["depthwise_conv2d_11", 0, 0, {}]]]}, {"class_name": "Conv2D", "config": {"name": "conv2d_38", "trainable": true, "dtype": "float32", "filters": 128, "kernel_size": [1, 1], "strides": [1, 1], "padding": "same", "data_format": "channels_last", "dilation_rate": [1, 1], "groups": 1, "activation": "linear", "use_bias": true, "kernel_initializer": {"class_name": "HeNormal", "config": {"seed": null}}, "bias_initializer": {"class_name": "Zeros", "config": {}}, "kernel_regularizer": null, "bias_regularizer": null, "activity_regularizer": null, "kernel_constraint": null, "bias_constraint": null}, "name": "conv2d_38", "inbound_nodes": [[["p_re_lu_60", 0, 0, {}]]]}, {"class_name": "Add", "config": {"name": "add_15", "trainable": true, "dtype": "float32"}, "name": "add_15", "inbound_nodes": [[["p_re_lu_57", 0, 0, {}], ["conv2d_38", 0, 0, {}]]]}, {"class_name": "PReLU", "config": {"name": "p_re_lu_61", "trainable": true, "dtype": "float32", "alpha_initializer": {"class_name": "Zeros", "config": {}}, "alpha_regularizer": null, "alpha_constraint": null, "shared_axes": [1, 2]}, "name": "p_re_lu_61", "inbound_nodes": [[["add_15", 0, 0, {}]]]}, {"class_name": "Conv2D", "config": {"name": "conv2d_39", "trainable": true, "dtype": "float32", "filters": 8, "kernel_size": [1, 1], "strides": [1, 1], "padding": "same", "data_format": "channels_last", "dilation_rate": [1, 1], "groups": 1, "activation": "linear", "use_bias": true, "kernel_initializer": {"class_name": "HeNormal", "config": {"seed": null}}, "bias_initializer": {"class_name": "Zeros", "config": {}}, "kernel_regularizer": null, "bias_regularizer": null, "activity_regularizer": null, "kernel_constraint": null, "bias_constraint": null}, "name": "conv2d_39", "inbound_nodes": [[["p_re_lu_61", 0, 0, {}]]]}, {"class_name": "PReLU", "config": {"name": "p_re_lu_62", "trainable": true, "dtype": "float32", "alpha_initializer": {"class_name": "Zeros", "config": {}}, "alpha_regularizer": null, "alpha_constraint": null, "shared_axes": [1, 2]}, "name": "p_re_lu_62", "inbound_nodes": [[["conv2d_39", 0, 0, {}]]]}, {"class_name": "Conv2D", "config": {"name": "conv2d_40", "trainable": true, "dtype": "float32", "filters": 128, "kernel_size": [3, 3], "strides": [1, 1], "padding": "same", "data_format": "channels_last", "dilation_rate": [2, 2], "groups": 1, "activation": "linear", "use_bias": true, "kernel_initializer": {"class_name": "HeNormal", "config": {"seed": null}}, "bias_initializer": {"class_name": "Zeros", "config": {}}, "kernel_regularizer": null, "bias_regularizer": null, "activity_regularizer": null, "kernel_constraint": null, "bias_constraint": null}, "name": "conv2d_40", "inbound_nodes": [[["p_re_lu_62", 0, 0, {}]]]}, {"class_name": "PReLU", "config": {"name": "p_re_lu_63", "trainable": true, "dtype": "float32", "alpha_initializer": {"class_name": "Zeros", "config": {}}, "alpha_regularizer": null, "alpha_constraint": null, "shared_axes": [1, 2]}, "name": "p_re_lu_63", "inbound_nodes": [[["conv2d_40", 0, 0, {}]]]}, {"class_name": "Conv2D", "config": {"name": "conv2d_41", "trainable": true, "dtype": "float32", "filters": 128, "kernel_size": [1, 1], "strides": [1, 1], "padding": "same", "data_format": "channels_last", "dilation_rate": [1, 1], "groups": 1, "activation": "linear", "use_bias": true, "kernel_initializer": {"class_name": "HeNormal", "config": {"seed": null}}, "bias_initializer": {"class_name": "Zeros", "config": {}}, "kernel_regularizer": null, "bias_regularizer": null, "activity_regularizer": null, "kernel_constraint": null, "bias_constraint": null}, "name": "conv2d_41", "inbound_nodes": [[["p_re_lu_63", 0, 0, {}]]]}, {"class_name": "Add", "config": {"name": "add_16", "trainable": true, "dtype": "float32"}, "name": "add_16", "inbound_nodes": [[["p_re_lu_61", 0, 0, {}], ["conv2d_41", 0, 0, {}]]]}, {"class_name": "PReLU", "config": {"name": "p_re_lu_64", "trainable": true, "dtype": "float32", "alpha_initializer": {"class_name": "Zeros", "config": {}}, "alpha_regularizer": null, "alpha_constraint": null, "shared_axes": [1, 2]}, "name": "p_re_lu_64", "inbound_nodes": [[["add_16", 0, 0, {}]]]}, {"class_name": "Conv2D", "config": {"name": "conv2d_42", "trainable": true, "dtype": "float32", "filters": 8, "kernel_size": [1, 1], "strides": [1, 1], "padding": "same", "data_format": "channels_last", "dilation_rate": [1, 1], "groups": 1, "activation": "linear", "use_bias": true, "kernel_initializer": {"class_name": "HeNormal", "config": {"seed": null}}, "bias_initializer": {"class_name": "Zeros", "config": {}}, "kernel_regularizer": null, "bias_regularizer": null, "activity_regularizer": null, "kernel_constraint": null, "bias_constraint": null}, "name": "conv2d_42", "inbound_nodes": [[["p_re_lu_64", 0, 0, {}]]]}, {"class_name": "PReLU", "config": {"name": "p_re_lu_65", "trainable": true, "dtype": "float32", "alpha_initializer": {"class_name": "Zeros", "config": {}}, "alpha_regularizer": null, "alpha_constraint": null, "shared_axes": [1, 2]}, "name": "p_re_lu_65", "inbound_nodes": [[["conv2d_42", 0, 0, {}]]]}, {"class_name": "SeparableConv2D", "config": {"name": "separable_conv2d_13", "trainable": true, "dtype": "float32", "filters": 8, "kernel_size": [5, 5], "strides": [1, 1], "padding": "same", "data_format": "channels_last", "dilation_rate": [1, 1], "groups": 1, "activation": "linear", "use_bias": true, "bias_initializer": {"class_name": "Zeros", "config": {}, "shared_object_id": 397}, "bias_regularizer": null, "activity_regularizer": null, "bias_constraint": null, "depth_multiplier": 1, "depthwise_initializer": {"class_name": "GlorotUniform", "config": {"seed": null}}, "pointwise_initializer": {"class_name": "GlorotUniform", "config": {"seed": null}}, "depthwise_regularizer": null, "pointwise_regularizer": null, "depthwise_constraint": null, "pointwise_constraint": null}, "name": "separable_conv2d_13", "inbound_nodes": [[["p_re_lu_65", 0, 0, {}]]]}, {"class_name": "PReLU", "config": {"name": "p_re_lu_66", "trainable": true, "dtype": "float32", "alpha_initializer": {"class_name": "Zeros", "config": {}}, "alpha_regularizer": null, "alpha_constraint": null, "shared_axes": [1, 2]}, "name": "p_re_lu_66", "inbound_nodes": [[["separable_conv2d_13", 0, 0, {}]]]}, {"class_name": "Conv2D", "config": {"name": "conv2d_43", "trainable": true, "dtype": "float32", "filters": 128, "kernel_size": [1, 1], "strides": [1, 1], "padding": "same", "data_format": "channels_last", "dilation_rate": [1, 1], "groups": 1, "activation": "linear", "use_bias": true, "kernel_initializer": {"class_name": "HeNormal", "config": {"seed": null}}, "bias_initializer": {"class_name": "Zeros", "config": {}}, "kernel_regularizer": null, "bias_regularizer": null, "activity_regularizer": null, "kernel_constraint": null, "bias_constraint": null}, "name": "conv2d_43", "inbound_nodes": [[["p_re_lu_66", 0, 0, {}]]]}, {"class_name": "Add", "config": {"name": "add_17", "trainable": true, "dtype": "float32"}, "name": "add_17", "inbound_nodes": [[["p_re_lu_64", 0, 0, {}], ["conv2d_43", 0, 0, {}]]]}, {"class_name": "PReLU", "config": {"name": "p_re_lu_67", "trainable": true, "dtype": "float32", "alpha_initializer": {"class_name": "Zeros", "config": {}}, "alpha_regularizer": null, "alpha_constraint": null, "shared_axes": [1, 2]}, "name": "p_re_lu_67", "inbound_nodes": [[["add_17", 0, 0, {}]]]}, {"class_name": "Conv2D", "config": {"name": "conv2d_44", "trainable": true, "dtype": "float32", "filters": 8, "kernel_size": [1, 1], "strides": [1, 1], "padding": "same", "data_format": "channels_last", "dilation_rate": [1, 1], "groups": 1, "activation": "linear", "use_bias": true, "kernel_initializer": {"class_name": "HeNormal", "config": {"seed": null}}, "bias_initializer": {"class_name": "Zeros", "config": {}}, "kernel_regularizer": null, "bias_regularizer": null, "activity_regularizer": null, "kernel_constraint": null, "bias_constraint": null}, "name": "conv2d_44", "inbound_nodes": [[["p_re_lu_67", 0, 0, {}]]]}, {"class_name": "PReLU", "config": {"name": "p_re_lu_68", "trainable": true, "dtype": "float32", "alpha_initializer": {"class_name": "Zeros", "config": {}}, "alpha_regularizer": null, "alpha_constraint": null, "shared_axes": [1, 2]}, "name": "p_re_lu_68", "inbound_nodes": [[["conv2d_44", 0, 0, {}]]]}, {"class_name": "Conv2D", "config": {"name": "conv2d_45", "trainable": true, "dtype": "float32", "filters": 128, "kernel_size": [3, 3], "strides": [1, 1], "padding": "same", "data_format": "channels_last", "dilation_rate": [4, 4], "groups": 1, "activation": "linear", "use_bias": true, "kernel_initializer": {"class_name": "HeNormal", "config": {"seed": null}}, "bias_initializer": {"class_name": "Zeros", "config": {}}, "kernel_regularizer": null, "bias_regularizer": null, "activity_regularizer": null, "kernel_constraint": null, "bias_constraint": null}, "name": "conv2d_45", "inbound_nodes": [[["p_re_lu_68", 0, 0, {}]]]}, {"class_name": "PReLU", "config": {"name": "p_re_lu_69", "trainable": true, "dtype": "float32", "alpha_initializer": {"class_name": "Zeros", "config": {}}, "alpha_regularizer": null, "alpha_constraint": null, "shared_axes": [1, 2]}, "name": "p_re_lu_69", "inbound_nodes": [[["conv2d_45", 0, 0, {}]]]}, {"class_name": "Conv2D", "config": {"name": "conv2d_46", "trainable": true, "dtype": "float32", "filters": 128, "kernel_size": [1, 1], "strides": [1, 1], "padding": "same", "data_format": "channels_last", "dilation_rate": [1, 1], "groups": 1, "activation": "linear", "use_bias": true, "kernel_initializer": {"class_name": "HeNormal", "config": {"seed": null}}, "bias_initializer": {"class_name": "Zeros", "config": {}}, "kernel_regularizer": null, "bias_regularizer": null, "activity_regularizer": null, "kernel_constraint": null, "bias_constraint": null}, "name": "conv2d_46", "inbound_nodes": [[["p_re_lu_69", 0, 0, {}]]]}, {"class_name": "Add", "config": {"name": "add_18", "trainable": true, "dtype": "float32"}, "name": "add_18", "inbound_nodes": [[["p_re_lu_67", 0, 0, {}], ["conv2d_46", 0, 0, {}]]]}, {"class_name": "PReLU", "config": {"name": "p_re_lu_70", "trainable": true, "dtype": "float32", "alpha_initializer": {"class_name": "Zeros", "config": {}}, "alpha_regularizer": null, "alpha_constraint": null, "shared_axes": [1, 2]}, "name": "p_re_lu_70", "inbound_nodes": [[["add_18", 0, 0, {}]]]}, {"class_name": "Conv2D", "config": {"name": "conv2d_47", "trainable": true, "dtype": "float32", "filters": 8, "kernel_size": [1, 1], "strides": [1, 1], "padding": "same", "data_format": "channels_last", "dilation_rate": [1, 1], "groups": 1, "activation": "linear", "use_bias": true, "kernel_initializer": {"class_name": "HeNormal", "config": {"seed": null}}, "bias_initializer": {"class_name": "Zeros", "config": {}}, "kernel_regularizer": null, "bias_regularizer": null, "activity_regularizer": null, "kernel_constraint": null, "bias_constraint": null}, "name": "conv2d_47", "inbound_nodes": [[["p_re_lu_70", 0, 0, {}]]]}, {"class_name": "PReLU", "config": {"name": "p_re_lu_71", "trainable": true, "dtype": "float32", "alpha_initializer": {"class_name": "Zeros", "config": {}}, "alpha_regularizer": null, "alpha_constraint": null, "shared_axes": [1, 2]}, "name": "p_re_lu_71", "inbound_nodes": [[["conv2d_47", 0, 0, {}]]]}, {"class_name": "SeparableConv2D", "config": {"name": "separable_conv2d_14", "trainable": true, "dtype": "float32", "filters": 8, "kernel_size": [3, 3], "strides": [1, 1], "padding": "same", "data_format": "channels_last", "dilation_rate": [1, 1], "groups": 1, "activation": "linear", "use_bias": true, "bias_initializer": {"class_name": "Zeros", "config": {}, "shared_object_id": 431}, "bias_regularizer": null, "activity_regularizer": null, "bias_constraint": null, "depth_multiplier": 1, "depthwise_initializer": {"class_name": "GlorotUniform", "config": {"seed": null}}, "pointwise_initializer": {"class_name": "GlorotUniform", "config": {"seed": null}}, "depthwise_regularizer": null, "pointwise_regularizer": null, "depthwise_constraint": null, "pointwise_constraint": null}, "name": "separable_conv2d_14", "inbound_nodes": [[["p_re_lu_71", 0, 0, {}]]]}, {"class_name": "PReLU", "config": {"name": "p_re_lu_72", "trainable": true, "dtype": "float32", "alpha_initializer": {"class_name": "Zeros", "config": {}}, "alpha_regularizer": null, "alpha_constraint": null, "shared_axes": [1, 2]}, "name": "p_re_lu_72", "inbound_nodes": [[["separable_conv2d_14", 0, 0, {}]]]}, {"class_name": "DepthwiseConv2D", "config": {"name": "depthwise_conv2d_12", "trainable": true, "dtype": "float32", "kernel_size": [3, 3], "strides": [1, 1], "padding": "same", "data_format": "channels_last", "dilation_rate": [1, 1], "groups": 1, "activation": "linear", "use_bias": true, "bias_initializer": {"class_name": "Zeros", "config": {}}, "bias_regularizer": null, "activity_regularizer": null, "bias_constraint": null, "depth_multiplier": 1, "depthwise_initializer": {"class_name": "GlorotUniform", "config": {"seed": null}}, "depthwise_regularizer": null, "depthwise_constraint": null}, "name": "depthwise_conv2d_12", "inbound_nodes": [[["p_re_lu_72", 0, 0, {}]]]}, {"class_name": "PReLU", "config": {"name": "p_re_lu_73", "trainable": true, "dtype": "float32", "alpha_initializer": {"class_name": "Zeros", "config": {}}, "alpha_regularizer": null, "alpha_constraint": null, "shared_axes": [1, 2]}, "name": "p_re_lu_73", "inbound_nodes": [[["depthwise_conv2d_12", 0, 0, {}]]]}, {"class_name": "Conv2D", "config": {"name": "conv2d_48", "trainable": true, "dtype": "float32", "filters": 128, "kernel_size": [1, 1], "strides": [1, 1], "padding": "same", "data_format": "channels_last", "dilation_rate": [1, 1], "groups": 1, "activation": "linear", "use_bias": true, "kernel_initializer": {"class_name": "HeNormal", "config": {"seed": null}}, "bias_initializer": {"class_name": "Zeros", "config": {}}, "kernel_regularizer": null, "bias_regularizer": null, "activity_regularizer": null, "kernel_constraint": null, "bias_constraint": null}, "name": "conv2d_48", "inbound_nodes": [[["p_re_lu_73", 0, 0, {}]]]}, {"class_name": "Add", "config": {"name": "add_19", "trainable": true, "dtype": "float32"}, "name": "add_19", "inbound_nodes": [[["p_re_lu_70", 0, 0, {}], ["conv2d_48", 0, 0, {}]]]}, {"class_name": "PReLU", "config": {"name": "p_re_lu_74", "trainable": true, "dtype": "float32", "alpha_initializer": {"class_name": "Zeros", "config": {}}, "alpha_regularizer": null, "alpha_constraint": null, "shared_axes": [1, 2]}, "name": "p_re_lu_74", "inbound_nodes": [[["add_19", 0, 0, {}]]]}, {"class_name": "Conv2D", "config": {"name": "conv2d_49", "trainable": true, "dtype": "float32", "filters": 8, "kernel_size": [1, 1], "strides": [1, 1], "padding": "same", "data_format": "channels_last", "dilation_rate": [1, 1], "groups": 1, "activation": "linear", "use_bias": true, "kernel_initializer": {"class_name": "HeNormal", "config": {"seed": null}}, "bias_initializer": {"class_name": "Zeros", "config": {}}, "kernel_regularizer": null, "bias_regularizer": null, "activity_regularizer": null, "kernel_constraint": null, "bias_constraint": null}, "name": "conv2d_49", "inbound_nodes": [[["p_re_lu_74", 0, 0, {}]]]}, {"class_name": "PReLU", "config": {"name": "p_re_lu_75", "trainable": true, "dtype": "float32", "alpha_initializer": {"class_name": "Zeros", "config": {}}, "alpha_regularizer": null, "alpha_constraint": null, "shared_axes": [1, 2]}, "name": "p_re_lu_75", "inbound_nodes": [[["conv2d_49", 0, 0, {}]]]}, {"class_name": "Conv2D", "config": {"name": "conv2d_50", "trainable": true, "dtype": "float32", "filters": 128, "kernel_size": [3, 3], "strides": [1, 1], "padding": "same", "data_format": "channels_last", "dilation_rate": [8, 8], "groups": 1, "activation": "linear", "use_bias": true, "kernel_initializer": {"class_name": "HeNormal", "config": {"seed": null}}, "bias_initializer": {"class_name": "Zeros", "config": {}}, "kernel_regularizer": null, "bias_regularizer": null, "activity_regularizer": null, "kernel_constraint": null, "bias_constraint": null}, "name": "conv2d_50", "inbound_nodes": [[["p_re_lu_75", 0, 0, {}]]]}, {"class_name": "PReLU", "config": {"name": "p_re_lu_76", "trainable": true, "dtype": "float32", "alpha_initializer": {"class_name": "Zeros", "config": {}}, "alpha_regularizer": null, "alpha_constraint": null, "shared_axes": [1, 2]}, "name": "p_re_lu_76", "inbound_nodes": [[["conv2d_50", 0, 0, {}]]]}, {"class_name": "Conv2D", "config": {"name": "conv2d_51", "trainable": true, "dtype": "float32", "filters": 128, "kernel_size": [1, 1], "strides": [1, 1], "padding": "same", "data_format": "channels_last", "dilation_rate": [1, 1], "groups": 1, "activation": "linear", "use_bias": true, "kernel_initializer": {"class_name": "HeNormal", "config": {"seed": null}}, "bias_initializer": {"class_name": "Zeros", "config": {}}, "kernel_regularizer": null, "bias_regularizer": null, "activity_regularizer": null, "kernel_constraint": null, "bias_constraint": null}, "name": "conv2d_51", "inbound_nodes": [[["p_re_lu_76", 0, 0, {}]]]}, {"class_name": "Add", "config": {"name": "add_20", "trainable": true, "dtype": "float32"}, "name": "add_20", "inbound_nodes": [[["p_re_lu_74", 0, 0, {}], ["conv2d_51", 0, 0, {}]]]}, {"class_name": "PReLU", "config": {"name": "p_re_lu_77", "trainable": true, "dtype": "float32", "alpha_initializer": {"class_name": "Zeros", "config": {}}, "alpha_regularizer": null, "alpha_constraint": null, "shared_axes": [1, 2]}, "name": "p_re_lu_77", "inbound_nodes": [[["add_20", 0, 0, {}]]]}, {"class_name": "Conv2D", "config": {"name": "conv2d_52", "trainable": true, "dtype": "float32", "filters": 4, "kernel_size": [1, 1], "strides": [1, 1], "padding": "same", "data_format": "channels_last", "dilation_rate": [1, 1], "groups": 1, "activation": "linear", "use_bias": true, "kernel_initializer": {"class_name": "HeNormal", "config": {"seed": null}}, "bias_initializer": {"class_name": "Zeros", "config": {}}, "kernel_regularizer": null, "bias_regularizer": null, "activity_regularizer": null, "kernel_constraint": null, "bias_constraint": null}, "name": "conv2d_52", "inbound_nodes": [[["p_re_lu_77", 0, 0, {}]]]}, {"class_name": "PReLU", "config": {"name": "p_re_lu_78", "trainable": true, "dtype": "float32", "alpha_initializer": {"class_name": "Zeros", "config": {}}, "alpha_regularizer": null, "alpha_constraint": null, "shared_axes": [1, 2]}, "name": "p_re_lu_78", "inbound_nodes": [[["conv2d_52", 0, 0, {}]]]}, {"class_name": "Conv2D", "config": {"name": "conv2d_53", "trainable": true, "dtype": "float32", "filters": 128, "kernel_size": [3, 3], "strides": [1, 1], "padding": "same", "data_format": "channels_last", "dilation_rate": [1, 1], "groups": 1, "activation": "linear", "use_bias": true, "kernel_initializer": {"class_name": "HeNormal", "config": {"seed": null}}, "bias_initializer": {"class_name": "Zeros", "config": {}}, "kernel_regularizer": null, "bias_regularizer": null, "activity_regularizer": null, "kernel_constraint": null, "bias_constraint": null}, "name": "conv2d_53", "inbound_nodes": [[["p_re_lu_78", 0, 0, {}]]]}, {"class_name": "PReLU", "config": {"name": "p_re_lu_79", "trainable": true, "dtype": "float32", "alpha_initializer": {"class_name": "Zeros", "config": {}}, "alpha_regularizer": null, "alpha_constraint": null, "shared_axes": [1, 2]}, "name": "p_re_lu_79", "inbound_nodes": [[["conv2d_53", 0, 0, {}]]]}, {"class_name": "Conv2D", "config": {"name": "conv2d_54", "trainable": true, "dtype": "float32", "filters": 128, "kernel_size": [1, 1], "strides": [1, 1], "padding": "same", "data_format": "channels_last", "dilation_rate": [1, 1], "groups": 1, "activation": "linear", "use_bias": true, "kernel_initializer": {"class_name": "HeNormal", "config": {"seed": null}}, "bias_initializer": {"class_name": "Zeros", "config": {}}, "kernel_regularizer": null, "bias_regularizer": null, "activity_regularizer": null, "kernel_constraint": null, "bias_constraint": null}, "name": "conv2d_54", "inbound_nodes": [[["p_re_lu_79", 0, 0, {}]]]}, {"class_name": "Add", "config": {"name": "add_21", "trainable": true, "dtype": "float32"}, "name": "add_21", "inbound_nodes": [[["p_re_lu_77", 0, 0, {}], ["conv2d_54", 0, 0, {}]]]}, {"class_name": "PReLU", "config": {"name": "p_re_lu_80", "trainable": true, "dtype": "float32", "alpha_initializer": {"class_name": "Zeros", "config": {}}, "alpha_regularizer": null, "alpha_constraint": null, "shared_axes": [1, 2]}, "name": "p_re_lu_80", "inbound_nodes": [[["add_21", 0, 0, {}]]]}, {"class_name": "Conv2D", "config": {"name": "conv2d_55", "trainable": true, "dtype": "float32", "filters": 8, "kernel_size": [1, 1], "strides": [1, 1], "padding": "same", "data_format": "channels_last", "dilation_rate": [1, 1], "groups": 1, "activation": "linear", "use_bias": true, "kernel_initializer": {"class_name": "HeNormal", "config": {"seed": null}}, "bias_initializer": {"class_name": "Zeros", "config": {}}, "kernel_regularizer": null, "bias_regularizer": null, "activity_regularizer": null, "kernel_constraint": null, "bias_constraint": null}, "name": "conv2d_55", "inbound_nodes": [[["p_re_lu_80", 0, 0, {}]]]}, {"class_name": "PReLU", "config": {"name": "p_re_lu_81", "trainable": true, "dtype": "float32", "alpha_initializer": {"class_name": "Zeros", "config": {}}, "alpha_regularizer": null, "alpha_constraint": null, "shared_axes": [1, 2]}, "name": "p_re_lu_81", "inbound_nodes": [[["conv2d_55", 0, 0, {}]]]}, {"class_name": "Conv2D", "config": {"name": "conv2d_57", "trainable": true, "dtype": "float32", "filters": 128, "kernel_size": [1, 1], "strides": [1, 1], "padding": "same", "data_format": "channels_last", "dilation_rate": [1, 1], "groups": 1, "activation": "linear", "use_bias": true, "kernel_initializer": {"class_name": "HeNormal", "config": {"seed": null}}, "bias_initializer": {"class_name": "Zeros", "config": {}}, "kernel_regularizer": null, "bias_regularizer": null, "activity_regularizer": null, "kernel_constraint": null, "bias_constraint": null}, "name": "conv2d_57", "inbound_nodes": [[["p_re_lu_80", 0, 0, {}]]]}, {"class_name": "Conv2DTranspose", "config": {"name": "conv2d_transpose", "trainable": true, "dtype": "float32", "filters": 8, "kernel_size": [3, 3], "strides": [2, 2], "padding": "same", "data_format": "channels_last", "dilation_rate": [1, 1], "groups": 1, "activation": "linear", "use_bias": true, "kernel_initializer": {"class_name": "HeNormal", "config": {"seed": null}}, "bias_initializer": {"class_name": "Zeros", "config": {}}, "kernel_regularizer": null, "bias_regularizer": null, "activity_regularizer": null, "kernel_constraint": null, "bias_constraint": null, "output_padding": null}, "name": "conv2d_transpose", "inbound_nodes": [[["p_re_lu_81", 0, 0, {}]]]}, {"class_name": "Add", "config": {"name": "add_22", "trainable": true, "dtype": "float32"}, "name": "add_22", "inbound_nodes": [[["conv2d_57", 0, 0, {}], ["max_pooling2d_2", 0, 0, {}]]]}, {"class_name": "PReLU", "config": {"name": "p_re_lu_82", "trainable": true, "dtype": "float32", "alpha_initializer": {"class_name": "Zeros", "config": {}}, "alpha_regularizer": null, "alpha_constraint": null, "shared_axes": [1, 2]}, "name": "p_re_lu_82", "inbound_nodes": [[["conv2d_transpose", 0, 0, {}]]]}, {"class_name": "UpSampling2D", "config": {"name": "up_sampling2d", "trainable": true, "dtype": "float32", "size": [2, 2], "data_format": "channels_last", "interpolation": "bilinear"}, "name": "up_sampling2d", "inbound_nodes": [[["add_22", 0, 0, {}]]]}, {"class_name": "Conv2D", "config": {"name": "conv2d_56", "trainable": true, "dtype": "float32", "filters": 128, "kernel_size": [1, 1], "strides": [1, 1], "padding": "same", "data_format": "channels_last", "dilation_rate": [1, 1], "groups": 1, "activation": "linear", "use_bias": true, "kernel_initializer": {"class_name": "HeNormal", "config": {"seed": null}}, "bias_initializer": {"class_name": "Zeros", "config": {}}, "kernel_regularizer": null, "bias_regularizer": null, "activity_regularizer": null, "kernel_constraint": null, "bias_constraint": null}, "name": "conv2d_56", "inbound_nodes": [[["p_re_lu_82", 0, 0, {}]]]}, {"class_name": "Add", "config": {"name": "add_23", "trainable": true, "dtype": "float32"}, "name": "add_23", "inbound_nodes": [[["up_sampling2d", 0, 0, {}], ["conv2d_56", 0, 0, {}]]]}, {"class_name": "PReLU", "config": {"name": "p_re_lu_83", "trainable": true, "dtype": "float32", "alpha_initializer": {"class_name": "Zeros", "config": {}}, "alpha_regularizer": null, "alpha_constraint": null, "shared_axes": [1, 2]}, "name": "p_re_lu_83", "inbound_nodes": [[["add_23", 0, 0, {}]]]}, {"class_name": "Concatenate", "config": {"name": "concatenate", "trainable": true, "dtype": "float32", "axis": -1}, "name": "concatenate", "inbound_nodes": [[["p_re_lu_83", 0, 0, {}], ["p_re_lu_17", 0, 0, {}]]]}, {"class_name": "Conv2D", "config": {"name": "conv2d_58", "trainable": true, "dtype": "float32", "filters": 8, "kernel_size": [1, 1], "strides": [1, 1], "padding": "same", "data_format": "channels_last", "dilation_rate": [1, 1], "groups": 1, "activation": "linear", "use_bias": true, "kernel_initializer": {"class_name": "HeNormal", "config": {"seed": null}}, "bias_initializer": {"class_name": "Zeros", "config": {}}, "kernel_regularizer": null, "bias_regularizer": null, "activity_regularizer": null, "kernel_constraint": null, "bias_constraint": null}, "name": "conv2d_58", "inbound_nodes": [[["concatenate", 0, 0, {}]]]}, {"class_name": "PReLU", "config": {"name": "p_re_lu_84", "trainable": true, "dtype": "float32", "alpha_initializer": {"class_name": "Zeros", "config": {}}, "alpha_regularizer": null, "alpha_constraint": null, "shared_axes": [1, 2]}, "name": "p_re_lu_84", "inbound_nodes": [[["conv2d_58", 0, 0, {}]]]}, {"class_name": "Conv2D", "config": {"name": "conv2d_59", "trainable": true, "dtype": "float32", "filters": 8, "kernel_size": [3, 3], "strides": [1, 1], "padding": "same", "data_format": "channels_last", "dilation_rate": [1, 1], "groups": 1, "activation": "linear", "use_bias": true, "kernel_initializer": {"class_name": "HeNormal", "config": {"seed": null}}, "bias_initializer": {"class_name": "Zeros", "config": {}}, "kernel_regularizer": null, "bias_regularizer": null, "activity_regularizer": null, "kernel_constraint": null, "bias_constraint": null}, "name": "conv2d_59", "inbound_nodes": [[["p_re_lu_84", 0, 0, {}]]]}, {"class_name": "PReLU", "config": {"name": "p_re_lu_85", "trainable": true, "dtype": "float32", "alpha_initializer": {"class_name": "Zeros", "config": {}}, "alpha_regularizer": null, "alpha_constraint": null, "shared_axes": [1, 2]}, "name": "p_re_lu_85", "inbound_nodes": [[["conv2d_59", 0, 0, {}]]]}, {"class_name": "Conv2D", "config": {"name": "conv2d_61", "trainable": true, "dtype": "float32", "filters": 128, "kernel_size": [1, 1], "strides": [1, 1], "padding": "same", "data_format": "channels_last", "dilation_rate": [1, 1], "groups": 1, "activation": "linear", "use_bias": true, "kernel_initializer": {"class_name": "HeNormal", "config": {"seed": null}}, "bias_initializer": {"class_name": "Zeros", "config": {}}, "kernel_regularizer": null, "bias_regularizer": null, "activity_regularizer": null, "kernel_constraint": null, "bias_constraint": null}, "name": "conv2d_61", "inbound_nodes": [[["concatenate", 0, 0, {}]]]}, {"class_name": "Conv2D", "config": {"name": "conv2d_60", "trainable": true, "dtype": "float32", "filters": 128, "kernel_size": [1, 1], "strides": [1, 1], "padding": "same", "data_format": "channels_last", "dilation_rate": [1, 1], "groups": 1, "activation": "linear", "use_bias": true, "kernel_initializer": {"class_name": "HeNormal", "config": {"seed": null}}, "bias_initializer": {"class_name": "Zeros", "config": {}}, "kernel_regularizer": null, "bias_regularizer": null, "activity_regularizer": null, "kernel_constraint": null, "bias_constraint": null}, "name": "conv2d_60", "inbound_nodes": [[["p_re_lu_85", 0, 0, {}]]]}, {"class_name": "Add", "config": {"name": "add_24", "trainable": true, "dtype": "float32"}, "name": "add_24", "inbound_nodes": [[["conv2d_61", 0, 0, {}], ["conv2d_60", 0, 0, {}]]]}, {"class_name": "PReLU", "config": {"name": "p_re_lu_86", "trainable": true, "dtype": "float32", "alpha_initializer": {"class_name": "Zeros", "config": {}}, "alpha_regularizer": null, "alpha_constraint": null, "shared_axes": [1, 2]}, "name": "p_re_lu_86", "inbound_nodes": [[["add_24", 0, 0, {}]]]}, {"class_name": "Conv2D", "config": {"name": "conv2d_62", "trainable": true, "dtype": "float32", "filters": 8, "kernel_size": [1, 1], "strides": [1, 1], "padding": "same", "data_format": "channels_last", "dilation_rate": [1, 1], "groups": 1, "activation": "linear", "use_bias": true, "kernel_initializer": {"class_name": "HeNormal", "config": {"seed": null}}, "bias_initializer": {"class_name": "Zeros", "config": {}}, "kernel_regularizer": null, "bias_regularizer": null, "activity_regularizer": null, "kernel_constraint": null, "bias_constraint": null}, "name": "conv2d_62", "inbound_nodes": [[["p_re_lu_86", 0, 0, {}]]]}, {"class_name": "PReLU", "config": {"name": "p_re_lu_87", "trainable": true, "dtype": "float32", "alpha_initializer": {"class_name": "Zeros", "config": {}}, "alpha_regularizer": null, "alpha_constraint": null, "shared_axes": [1, 2]}, "name": "p_re_lu_87", "inbound_nodes": [[["conv2d_62", 0, 0, {}]]]}, {"class_name": "Conv2D", "config": {"name": "conv2d_64", "trainable": true, "dtype": "float32", "filters": 64, "kernel_size": [1, 1], "strides": [1, 1], "padding": "same", "data_format": "channels_last", "dilation_rate": [1, 1], "groups": 1, "activation": "linear", "use_bias": true, "kernel_initializer": {"class_name": "HeNormal", "config": {"seed": null}}, "bias_initializer": {"class_name": "Zeros", "config": {}}, "kernel_regularizer": null, "bias_regularizer": null, "activity_regularizer": null, "kernel_constraint": null, "bias_constraint": null}, "name": "conv2d_64", "inbound_nodes": [[["p_re_lu_86", 0, 0, {}]]]}, {"class_name": "Conv2DTranspose", "config": {"name": "conv2d_transpose_1", "trainable": true, "dtype": "float32", "filters": 8, "kernel_size": [3, 3], "strides": [2, 2], "padding": "same", "data_format": "channels_last", "dilation_rate": [1, 1], "groups": 1, "activation": "linear", "use_bias": true, "kernel_initializer": {"class_name": "HeNormal", "config": {"seed": null}}, "bias_initializer": {"class_name": "Zeros", "config": {}}, "kernel_regularizer": null, "bias_regularizer": null, "activity_regularizer": null, "kernel_constraint": null, "bias_constraint": null, "output_padding": null}, "name": "conv2d_transpose_1", "inbound_nodes": [[["p_re_lu_87", 0, 0, {}]]]}, {"class_name": "Add", "config": {"name": "add_25", "trainable": true, "dtype": "float32"}, "name": "add_25", "inbound_nodes": [[["conv2d_64", 0, 0, {}], ["max_pooling2d_1", 0, 0, {}]]]}, {"class_name": "PReLU", "config": {"name": "p_re_lu_88", "trainable": true, "dtype": "float32", "alpha_initializer": {"class_name": "Zeros", "config": {}}, "alpha_regularizer": null, "alpha_constraint": null, "shared_axes": [1, 2]}, "name": "p_re_lu_88", "inbound_nodes": [[["conv2d_transpose_1", 0, 0, {}]]]}, {"class_name": "UpSampling2D", "config": {"name": "up_sampling2d_1", "trainable": true, "dtype": "float32", "size": [2, 2], "data_format": "channels_last", "interpolation": "bilinear"}, "name": "up_sampling2d_1", "inbound_nodes": [[["add_25", 0, 0, {}]]]}, {"class_name": "Conv2D", "config": {"name": "conv2d_63", "trainable": true, "dtype": "float32", "filters": 64, "kernel_size": [1, 1], "strides": [1, 1], "padding": "same", "data_format": "channels_last", "dilation_rate": [1, 1], "groups": 1, "activation": "linear", "use_bias": true, "kernel_initializer": {"class_name": "HeNormal", "config": {"seed": null}}, "bias_initializer": {"class_name": "Zeros", "config": {}}, "kernel_regularizer": null, "bias_regularizer": null, "activity_regularizer": null, "kernel_constraint": null, "bias_constraint": null}, "name": "conv2d_63", "inbound_nodes": [[["p_re_lu_88", 0, 0, {}]]]}, {"class_name": "Add", "config": {"name": "add_26", "trainable": true, "dtype": "float32"}, "name": "add_26", "inbound_nodes": [[["up_sampling2d_1", 0, 0, {}], ["conv2d_63", 0, 0, {}]]]}, {"class_name": "PReLU", "config": {"name": "p_re_lu_89", "trainable": true, "dtype": "float32", "alpha_initializer": {"class_name": "Zeros", "config": {}}, "alpha_regularizer": null, "alpha_constraint": null, "shared_axes": [1, 2]}, "name": "p_re_lu_89", "inbound_nodes": [[["add_26", 0, 0, {}]]]}, {"class_name": "Concatenate", "config": {"name": "concatenate_1", "trainable": true, "dtype": "float32", "axis": -1}, "name": "concatenate_1", "inbound_nodes": [[["p_re_lu_89", 0, 0, {}], ["p_re_lu_5", 0, 0, {}]]]}, {"class_name": "Conv2D", "config": {"name": "conv2d_65", "trainable": true, "dtype": "float32", "filters": 4, "kernel_size": [1, 1], "strides": [1, 1], "padding": "same", "data_format": "channels_last", "dilation_rate": [1, 1], "groups": 1, "activation": "linear", "use_bias": true, "kernel_initializer": {"class_name": "HeNormal", "config": {"seed": null}}, "bias_initializer": {"class_name": "Zeros", "config": {}}, "kernel_regularizer": null, "bias_regularizer": null, "activity_regularizer": null, "kernel_constraint": null, "bias_constraint": null}, "name": "conv2d_65", "inbound_nodes": [[["concatenate_1", 0, 0, {}]]]}, {"class_name": "PReLU", "config": {"name": "p_re_lu_90", "trainable": true, "dtype": "float32", "alpha_initializer": {"class_name": "Zeros", "config": {}}, "alpha_regularizer": null, "alpha_constraint": null, "shared_axes": [1, 2]}, "name": "p_re_lu_90", "inbound_nodes": [[["conv2d_65", 0, 0, {}]]]}, {"class_name": "Conv2D", "config": {"name": "conv2d_66", "trainable": true, "dtype": "float32", "filters": 4, "kernel_size": [3, 3], "strides": [1, 1], "padding": "same", "data_format": "channels_last", "dilation_rate": [1, 1], "groups": 1, "activation": "linear", "use_bias": true, "kernel_initializer": {"class_name": "HeNormal", "config": {"seed": null}}, "bias_initializer": {"class_name": "Zeros", "config": {}}, "kernel_regularizer": null, "bias_regularizer": null, "activity_regularizer": null, "kernel_constraint": null, "bias_constraint": null}, "name": "conv2d_66", "inbound_nodes": [[["p_re_lu_90", 0, 0, {}]]]}, {"class_name": "PReLU", "config": {"name": "p_re_lu_91", "trainable": true, "dtype": "float32", "alpha_initializer": {"class_name": "Zeros", "config": {}}, "alpha_regularizer": null, "alpha_constraint": null, "shared_axes": [1, 2]}, "name": "p_re_lu_91", "inbound_nodes": [[["conv2d_66", 0, 0, {}]]]}, {"class_name": "Conv2D", "config": {"name": "conv2d_68", "trainable": true, "dtype": "float32", "filters": 64, "kernel_size": [1, 1], "strides": [1, 1], "padding": "same", "data_format": "channels_last", "dilation_rate": [1, 1], "groups": 1, "activation": "linear", "use_bias": true, "kernel_initializer": {"class_name": "HeNormal", "config": {"seed": null}}, "bias_initializer": {"class_name": "Zeros", "config": {}}, "kernel_regularizer": null, "bias_regularizer": null, "activity_regularizer": null, "kernel_constraint": null, "bias_constraint": null}, "name": "conv2d_68", "inbound_nodes": [[["concatenate_1", 0, 0, {}]]]}, {"class_name": "Conv2D", "config": {"name": "conv2d_67", "trainable": true, "dtype": "float32", "filters": 64, "kernel_size": [1, 1], "strides": [1, 1], "padding": "same", "data_format": "channels_last", "dilation_rate": [1, 1], "groups": 1, "activation": "linear", "use_bias": true, "kernel_initializer": {"class_name": "HeNormal", "config": {"seed": null}}, "bias_initializer": {"class_name": "Zeros", "config": {}}, "kernel_regularizer": null, "bias_regularizer": null, "activity_regularizer": null, "kernel_constraint": null, "bias_constraint": null}, "name": "conv2d_67", "inbound_nodes": [[["p_re_lu_91", 0, 0, {}]]]}, {"class_name": "Add", "config": {"name": "add_27", "trainable": true, "dtype": "float32"}, "name": "add_27", "inbound_nodes": [[["conv2d_68", 0, 0, {}], ["conv2d_67", 0, 0, {}]]]}, {"class_name": "PReLU", "config": {"name": "p_re_lu_92", "trainable": true, "dtype": "float32", "alpha_initializer": {"class_name": "Zeros", "config": {}}, "alpha_regularizer": null, "alpha_constraint": null, "shared_axes": [1, 2]}, "name": "p_re_lu_92", "inbound_nodes": [[["add_27", 0, 0, {}]]]}, {"class_name": "Conv2D", "config": {"name": "conv2d_69", "trainable": true, "dtype": "float32", "filters": 4, "kernel_size": [1, 1], "strides": [1, 1], "padding": "same", "data_format": "channels_last", "dilation_rate": [1, 1], "groups": 1, "activation": "linear", "use_bias": true, "kernel_initializer": {"class_name": "HeNormal", "config": {"seed": null}}, "bias_initializer": {"class_name": "Zeros", "config": {}}, "kernel_regularizer": null, "bias_regularizer": null, "activity_regularizer": null, "kernel_constraint": null, "bias_constraint": null}, "name": "conv2d_69", "inbound_nodes": [[["p_re_lu_92", 0, 0, {}]]]}, {"class_name": "PReLU", "config": {"name": "p_re_lu_93", "trainable": true, "dtype": "float32", "alpha_initializer": {"class_name": "Zeros", "config": {}}, "alpha_regularizer": null, "alpha_constraint": null, "shared_axes": [1, 2]}, "name": "p_re_lu_93", "inbound_nodes": [[["conv2d_69", 0, 0, {}]]]}, {"class_name": "Conv2D", "config": {"name": "conv2d_71", "trainable": true, "dtype": "float32", "filters": 32, "kernel_size": [1, 1], "strides": [1, 1], "padding": "same", "data_format": "channels_last", "dilation_rate": [1, 1], "groups": 1, "activation": "linear", "use_bias": true, "kernel_initializer": {"class_name": "HeNormal", "config": {"seed": null}}, "bias_initializer": {"class_name": "Zeros", "config": {}}, "kernel_regularizer": null, "bias_regularizer": null, "activity_regularizer": null, "kernel_constraint": null, "bias_constraint": null}, "name": "conv2d_71", "inbound_nodes": [[["p_re_lu_92", 0, 0, {}]]]}, {"class_name": "Conv2DTranspose", "config": {"name": "conv2d_transpose_2", "trainable": true, "dtype": "float32", "filters": 8, "kernel_size": [3, 3], "strides": [2, 2], "padding": "same", "data_format": "channels_last", "dilation_rate": [1, 1], "groups": 1, "activation": "linear", "use_bias": true, "kernel_initializer": {"class_name": "HeNormal", "config": {"seed": null}}, "bias_initializer": {"class_name": "Zeros", "config": {}}, "kernel_regularizer": null, "bias_regularizer": null, "activity_regularizer": null, "kernel_constraint": null, "bias_constraint": null, "output_padding": null}, "name": "conv2d_transpose_2", "inbound_nodes": [[["p_re_lu_93", 0, 0, {}]]]}, {"class_name": "Add", "config": {"name": "add_28", "trainable": true, "dtype": "float32"}, "name": "add_28", "inbound_nodes": [[["conv2d_71", 0, 0, {}], ["max_pooling2d", 0, 0, {}]]]}, {"class_name": "PReLU", "config": {"name": "p_re_lu_94", "trainable": true, "dtype": "float32", "alpha_initializer": {"class_name": "Zeros", "config": {}}, "alpha_regularizer": null, "alpha_constraint": null, "shared_axes": [1, 2]}, "name": "p_re_lu_94", "inbound_nodes": [[["conv2d_transpose_2", 0, 0, {}]]]}, {"class_name": "UpSampling2D", "config": {"name": "up_sampling2d_2", "trainable": true, "dtype": "float32", "size": [2, 2], "data_format": "channels_last", "interpolation": "bilinear"}, "name": "up_sampling2d_2", "inbound_nodes": [[["add_28", 0, 0, {}]]]}, {"class_name": "Conv2D", "config": {"name": "conv2d_70", "trainable": true, "dtype": "float32", "filters": 32, "kernel_size": [1, 1], "strides": [1, 1], "padding": "same", "data_format": "channels_last", "dilation_rate": [1, 1], "groups": 1, "activation": "linear", "use_bias": true, "kernel_initializer": {"class_name": "HeNormal", "config": {"seed": null}}, "bias_initializer": {"class_name": "Zeros", "config": {}}, "kernel_regularizer": null, "bias_regularizer": null, "activity_regularizer": null, "kernel_constraint": null, "bias_constraint": null}, "name": "conv2d_70", "inbound_nodes": [[["p_re_lu_94", 0, 0, {}]]]}, {"class_name": "Add", "config": {"name": "add_29", "trainable": true, "dtype": "float32"}, "name": "add_29", "inbound_nodes": [[["up_sampling2d_2", 0, 0, {}], ["conv2d_70", 0, 0, {}]]]}, {"class_name": "PReLU", "config": {"name": "p_re_lu_95", "trainable": true, "dtype": "float32", "alpha_initializer": {"class_name": "Zeros", "config": {}}, "alpha_regularizer": null, "alpha_constraint": null, "shared_axes": [1, 2]}, "name": "p_re_lu_95", "inbound_nodes": [[["add_29", 0, 0, {}]]]}, {"class_name": "Conv2D", "config": {"name": "conv2d_72", "trainable": true, "dtype": "float32", "filters": 4, "kernel_size": [1, 1], "strides": [1, 1], "padding": "same", "data_format": "channels_last", "dilation_rate": [1, 1], "groups": 1, "activation": "linear", "use_bias": true, "kernel_initializer": {"class_name": "HeNormal", "config": {"seed": null}}, "bias_initializer": {"class_name": "Zeros", "config": {}}, "kernel_regularizer": null, "bias_regularizer": null, "activity_regularizer": null, "kernel_constraint": null, "bias_constraint": null}, "name": "conv2d_72", "inbound_nodes": [[["p_re_lu_95", 0, 0, {}]]]}, {"class_name": "PReLU", "config": {"name": "p_re_lu_96", "trainable": true, "dtype": "float32", "alpha_initializer": {"class_name": "Zeros", "config": {}}, "alpha_regularizer": null, "alpha_constraint": null, "shared_axes": [1, 2]}, "name": "p_re_lu_96", "inbound_nodes": [[["conv2d_72", 0, 0, {}]]]}, {"class_name": "Conv2D", "config": {"name": "conv2d_73", "trainable": true, "dtype": "float32", "filters": 4, "kernel_size": [3, 3], "strides": [1, 1], "padding": "same", "data_format": "channels_last", "dilation_rate": [1, 1], "groups": 1, "activation": "linear", "use_bias": true, "kernel_initializer": {"class_name": "HeNormal", "config": {"seed": null}}, "bias_initializer": {"class_name": "Zeros", "config": {}}, "kernel_regularizer": null, "bias_regularizer": null, "activity_regularizer": null, "kernel_constraint": null, "bias_constraint": null}, "name": "conv2d_73", "inbound_nodes": [[["p_re_lu_96", 0, 0, {}]]]}, {"class_name": "PReLU", "config": {"name": "p_re_lu_97", "trainable": true, "dtype": "float32", "alpha_initializer": {"class_name": "Zeros", "config": {}}, "alpha_regularizer": null, "alpha_constraint": null, "shared_axes": [1, 2]}, "name": "p_re_lu_97", "inbound_nodes": [[["conv2d_73", 0, 0, {}]]]}, {"class_name": "Conv2D", "config": {"name": "conv2d_74", "trainable": true, "dtype": "float32", "filters": 32, "kernel_size": [1, 1], "strides": [1, 1], "padding": "same", "data_format": "channels_last", "dilation_rate": [1, 1], "groups": 1, "activation": "linear", "use_bias": true, "kernel_initializer": {"class_name": "HeNormal", "config": {"seed": null}}, "bias_initializer": {"class_name": "Zeros", "config": {}}, "kernel_regularizer": null, "bias_regularizer": null, "activity_regularizer": null, "kernel_constraint": null, "bias_constraint": null}, "name": "conv2d_74", "inbound_nodes": [[["p_re_lu_97", 0, 0, {}]]]}, {"class_name": "Add", "config": {"name": "add_30", "trainable": true, "dtype": "float32"}, "name": "add_30", "inbound_nodes": [[["p_re_lu_95", 0, 0, {}], ["conv2d_74", 0, 0, {}]]]}, {"class_name": "PReLU", "config": {"name": "p_re_lu_98", "trainable": true, "dtype": "float32", "alpha_initializer": {"class_name": "Zeros", "config": {}}, "alpha_regularizer": null, "alpha_constraint": null, "shared_axes": [1, 2]}, "name": "p_re_lu_98", "inbound_nodes": [[["add_30", 0, 0, {}]]]}, {"class_name": "Conv2DTranspose", "config": {"name": "conv2d_transpose_3", "trainable": true, "dtype": "float32", "filters": 8, "kernel_size": [2, 2], "strides": [2, 2], "padding": "same", "data_format": "channels_last", "dilation_rate": [1, 1], "groups": 1, "activation": "linear", "use_bias": true, "kernel_initializer": {"class_name": "HeNormal", "config": {"seed": null}}, "bias_initializer": {"class_name": "Zeros", "config": {}}, "kernel_regularizer": null, "bias_regularizer": null, "activity_regularizer": null, "kernel_constraint": null, "bias_constraint": null, "output_padding": null}, "name": "conv2d_transpose_3", "inbound_nodes": [[["p_re_lu_98", 0, 0, {}]]]}, {"class_name": "Conv2DTranspose", "config": {"name": "conv2d_transpose_4", "trainable": true, "dtype": "float32", "filters": 1, "kernel_size": [2, 2], "strides": [2, 2], "padding": "same", "data_format": "channels_last", "dilation_rate": [1, 1], "groups": 1, "activation": "linear", "use_bias": true, "kernel_initializer": {"class_name": "HeNormal", "config": {"seed": null}}, "bias_initializer": {"class_name": "Zeros", "config": {}}, "kernel_regularizer": null, "bias_regularizer": null, "activity_regularizer": null, "kernel_constraint": null, "bias_constraint": null, "output_padding": null}, "name": "conv2d_transpose_4", "inbound_nodes": [[["conv2d_transpose_3", 0, 0, {}]]]}, {"class_name": "Activation", "config": {"name": "activation", "trainable": true, "dtype": "float32", "activation": "sigmoid"}, "name": "activation", "inbound_nodes": [[["conv2d_transpose_4", 0, 0, {}]]]}], "input_layers": [["ip", 0, 0]], "output_layers": [["activation", 0, 0]]}}}, "weightsManifest": [{"paths": ["group1-shard1of1.bin"], "weights": [{"name": "conv2d/kernel", "shape": [2, 2, 3, 8], "dtype": "float32"}, {"name": "conv2d/bias", "shape": [8], "dtype": "float32"}, {"name": "conv2d_1/kernel", "shape": [2, 2, 8, 32], "dtype": "float32"}, {"name": "conv2d_1/bias", "shape": [32], "dtype": "float32"}, {"name": "conv2d_10/kernel", "shape": [1, 1, 32, 128], "dtype": "float32"}, {"name": "conv2d_10/bias", "shape": [128], "dtype": "float32"}, {"name": "conv2d_11/kernel", "shape": [1, 1, 64, 128], "dtype": "float32"}, {"name": "conv2d_11/bias", "shape": [128], "dtype": "float32"}, {"name": "conv2d_12/kernel", "shape": [1, 1, 128, 16], "dtype": "float32"}, {"name": "conv2d_12/bias", "shape": [16], "dtype": "float32"}, {"name": "conv2d_13/kernel", "shape": [1, 1, 16, 128], "dtype": "float32"}, {"name": "conv2d_13/bias", "shape": [128], "dtype": "float32"}, {"name": "conv2d_14/kernel", "shape": [1, 1, 128, 16], "dtype": "float32"}, {"name": "conv2d_14/bias", "shape": [16], "dtype": "float32"}, {"name": "conv2d_15/kernel", "shape": [1, 1, 16, 128], "dtype": "float32"}, {"name": "conv2d_15/bias", "shape": [128], "dtype": "float32"}, {"name": "conv2d_16/kernel", "shape": [1, 1, 128, 16], "dtype": "float32"}, {"name": "conv2d_16/bias", "shape": [16], "dtype": "float32"}, {"name": "conv2d_17/kernel", "shape": [1, 1, 16, 128], "dtype": "float32"}, {"name": "conv2d_17/bias", "shape": [128], "dtype": "float32"}, {"name": "conv2d_18/kernel", "shape": [1, 1, 128, 16], "dtype": "float32"}, {"name": "conv2d_18/bias", "shape": [16], "dtype": "float32"}, {"name": "conv2d_19/kernel", "shape": [1, 1, 16, 128], "dtype": "float32"}, {"name": "conv2d_19/bias", "shape": [128], "dtype": "float32"}, {"name": "conv2d_2/kernel", "shape": [2, 2, 32, 16], "dtype": "float32"}, {"name": "conv2d_2/bias", "shape": [16], "dtype": "float32"}, {"name": "conv2d_20/kernel", "shape": [2, 2, 128, 16], "dtype": "float32"}, {"name": "conv2d_20/bias", "shape": [16], "dtype": "float32"}, {"name": "conv2d_21/kernel", "shape": [1, 1, 16, 128], "dtype": "float32"}, {"name": "conv2d_21/bias", "shape": [128], "dtype": "float32"}, {"name": "conv2d_22/kernel", "shape": [1, 1, 128, 8], "dtype": "float32"}, {"name": "conv2d_22/bias", "shape": [8], "dtype": "float32"}, {"name": "conv2d_23/kernel", "shape": [1, 1, 8, 128], "dtype": "float32"}, {"name": "conv2d_23/bias", "shape": [128], "dtype": "float32"}, {"name": "conv2d_24/kernel", "shape": [1, 1, 128, 8], "dtype": "float32"}, {"name": "conv2d_24/bias", "shape": [8], "dtype": "float32"}, {"name": "conv2d_25/kernel", "shape": [3, 3, 8, 128], "dtype": "float32"}, {"name": "conv2d_25/bias", "shape": [128], "dtype": "float32"}, {"name": "conv2d_26/kernel", "shape": [1, 1, 128, 128], "dtype": "float32"}, {"name": "conv2d_26/bias", "shape": [128], "dtype": "float32"}, {"name": "conv2d_27/kernel", "shape": [1, 1, 128, 8], "dtype": "float32"}, {"name": "conv2d_27/bias", "shape": [8], "dtype": "float32"}, {"name": "conv2d_28/kernel", "shape": [1, 1, 8, 128], "dtype": "float32"}, {"name": "conv2d_28/bias", "shape": [128], "dtype": "float32"}, {"name": "conv2d_29/kernel", "shape": [1, 1, 128, 8], "dtype": "float32"}, {"name": "conv2d_29/bias", "shape": [8], "dtype": "float32"}, {"name": "conv2d_3/kernel", "shape": [1, 1, 16, 64], "dtype": "float32"}, {"name": "conv2d_3/bias", "shape": [64], "dtype": "float32"}, {"name": "conv2d_30/kernel", "shape": [3, 3, 8, 128], "dtype": "float32"}, {"name": "conv2d_30/bias", "shape": [128], "dtype": "float32"}, {"name": "conv2d_31/kernel", "shape": [1, 1, 128, 128], "dtype": "float32"}, {"name": "conv2d_31/bias", "shape": [128], "dtype": "float32"}, {"name": "conv2d_32/kernel", "shape": [1, 1, 128, 8], "dtype": "float32"}, {"name": "conv2d_32/bias", "shape": [8], "dtype": "float32"}, {"name": "conv2d_33/kernel", "shape": [1, 1, 8, 128], "dtype": "float32"}, {"name": "conv2d_33/bias", "shape": [128], "dtype": "float32"}, {"name": "conv2d_34/kernel", "shape": [1, 1, 128, 8], "dtype": "float32"}, {"name": "conv2d_34/bias", "shape": [8], "dtype": "float32"}, {"name": "conv2d_35/kernel", "shape": [3, 3, 8, 128], "dtype": "float32"}, {"name": "conv2d_35/bias", "shape": [128], "dtype": "float32"}, {"name": "conv2d_36/kernel", "shape": [1, 1, 128, 128], "dtype": "float32"}, {"name": "conv2d_36/bias", "shape": [128], "dtype": "float32"}, {"name": "conv2d_37/kernel", "shape": [1, 1, 128, 8], "dtype": "float32"}, {"name": "conv2d_37/bias", "shape": [8], "dtype": "float32"}, {"name": "conv2d_38/kernel", "shape": [1, 1, 8, 128], "dtype": "float32"}, {"name": "conv2d_38/bias", "shape": [128], "dtype": "float32"}, {"name": "conv2d_39/kernel", "shape": [1, 1, 128, 8], "dtype": "float32"}, {"name": "conv2d_39/bias", "shape": [8], "dtype": "float32"}, {"name": "conv2d_4/kernel", "shape": [1, 1, 32, 64], "dtype": "float32"}, {"name": "conv2d_4/bias", "shape": [64], "dtype": "float32"}, {"name": "conv2d_40/kernel", "shape": [3, 3, 8, 128], "dtype": "float32"}, {"name": "conv2d_40/bias", "shape": [128], "dtype": "float32"}, {"name": "conv2d_41/kernel", "shape": [1, 1, 128, 128], "dtype": "float32"}, {"name": "conv2d_41/bias", "shape": [128], "dtype": "float32"}, {"name": "conv2d_42/kernel", "shape": [1, 1, 128, 8], "dtype": "float32"}, {"name": "conv2d_42/bias", "shape": [8], "dtype": "float32"}, {"name": "conv2d_43/kernel", "shape": [1, 1, 8, 128], "dtype": "float32"}, {"name": "conv2d_43/bias", "shape": [128], "dtype": "float32"}, {"name": "conv2d_44/kernel", "shape": [1, 1, 128, 8], "dtype": "float32"}, {"name": "conv2d_44/bias", "shape": [8], "dtype": "float32"}, {"name": "conv2d_45/kernel", "shape": [3, 3, 8, 128], "dtype": "float32"}, {"name": "conv2d_45/bias", "shape": [128], "dtype": "float32"}, {"name": "conv2d_46/kernel", "shape": [1, 1, 128, 128], "dtype": "float32"}, {"name": "conv2d_46/bias", "shape": [128], "dtype": "float32"}, {"name": "conv2d_47/kernel", "shape": [1, 1, 128, 8], "dtype": "float32"}, {"name": "conv2d_47/bias", "shape": [8], "dtype": "float32"}, {"name": "conv2d_48/kernel", "shape": [1, 1, 8, 128], "dtype": "float32"}, {"name": "conv2d_48/bias", "shape": [128], "dtype": "float32"}, {"name": "conv2d_49/kernel", "shape": [1, 1, 128, 8], "dtype": "float32"}, {"name": "conv2d_49/bias", "shape": [8], "dtype": "float32"}, {"name": "conv2d_5/kernel", "shape": [1, 1, 64, 16], "dtype": "float32"}, {"name": "conv2d_5/bias", "shape": [16], "dtype": "float32"}, {"name": "conv2d_50/kernel", "shape": [3, 3, 8, 128], "dtype": "float32"}, {"name": "conv2d_50/bias", "shape": [128], "dtype": "float32"}, {"name": "conv2d_51/kernel", "shape": [1, 1, 128, 128], "dtype": "float32"}, {"name": "conv2d_51/bias", "shape": [128], "dtype": "float32"}, {"name": "conv2d_52/kernel", "shape": [1, 1, 128, 4], "dtype": "float32"}, {"name": "conv2d_52/bias", "shape": [4], "dtype": "float32"}, {"name": "conv2d_53/kernel", "shape": [3, 3, 4, 128], "dtype": "float32"}, {"name": "conv2d_53/bias", "shape": [128], "dtype": "float32"}, {"name": "conv2d_54/kernel", "shape": [1, 1, 128, 128], "dtype": "float32"}, {"name": "conv2d_54/bias", "shape": [128], "dtype": "float32"}, {"name": "conv2d_55/kernel", "shape": [1, 1, 128, 8], "dtype": "float32"}, {"name": "conv2d_55/bias", "shape": [8], "dtype": "float32"}, {"name": "conv2d_56/kernel", "shape": [1, 1, 8, 128], "dtype": "float32"}, {"name": "conv2d_56/bias", "shape": [128], "dtype": "float32"}, {"name": "conv2d_57/kernel", "shape": [1, 1, 128, 128], "dtype": "float32"}, {"name": "conv2d_57/bias", "shape": [128], "dtype": "float32"}, {"name": "conv2d_58/kernel", "shape": [1, 1, 256, 8], "dtype": "float32"}, {"name": "conv2d_58/bias", "shape": [8], "dtype": "float32"}, {"name": "conv2d_59/kernel", "shape": [3, 3, 8, 8], "dtype": "float32"}, {"name": "conv2d_59/bias", "shape": [8], "dtype": "float32"}, {"name": "conv2d_6/kernel", "shape": [1, 1, 16, 64], "dtype": "float32"}, {"name": "conv2d_6/bias", "shape": [64], "dtype": "float32"}, {"name": "conv2d_60/kernel", "shape": [1, 1, 8, 128], "dtype": "float32"}, {"name": "conv2d_60/bias", "shape": [128], "dtype": "float32"}, {"name": "conv2d_61/kernel", "shape": [1, 1, 256, 128], "dtype": "float32"}, {"name": "conv2d_61/bias", "shape": [128], "dtype": "float32"}, {"name": "conv2d_62/kernel", "shape": [1, 1, 128, 8], "dtype": "float32"}, {"name": "conv2d_62/bias", "shape": [8], "dtype": "float32"}, {"name": "conv2d_63/kernel", "shape": [1, 1, 8, 64], "dtype": "float32"}, {"name": "conv2d_63/bias", "shape": [64], "dtype": "float32"}, {"name": "conv2d_64/kernel", "shape": [1, 1, 128, 64], "dtype": "float32"}, {"name": "conv2d_64/bias", "shape": [64], "dtype": "float32"}, {"name": "conv2d_65/kernel", "shape": [1, 1, 128, 4], "dtype": "float32"}, {"name": "conv2d_65/bias", "shape": [4], "dtype": "float32"}, {"name": "conv2d_66/kernel", "shape": [3, 3, 4, 4], "dtype": "float32"}, {"name": "conv2d_66/bias", "shape": [4], "dtype": "float32"}, {"name": "conv2d_67/kernel", "shape": [1, 1, 4, 64], "dtype": "float32"}, {"name": "conv2d_67/bias", "shape": [64], "dtype": "float32"}, {"name": "conv2d_68/kernel", "shape": [1, 1, 128, 64], "dtype": "float32"}, {"name": "conv2d_68/bias", "shape": [64], "dtype": "float32"}, {"name": "conv2d_69/kernel", "shape": [1, 1, 64, 4], "dtype": "float32"}, {"name": "conv2d_69/bias", "shape": [4], "dtype": "float32"}, {"name": "conv2d_7/kernel", "shape": [1, 1, 64, 16], "dtype": "float32"}, {"name": "conv2d_7/bias", "shape": [16], "dtype": "float32"}, {"name": "conv2d_70/kernel", "shape": [1, 1, 8, 32], "dtype": "float32"}, {"name": "conv2d_70/bias", "shape": [32], "dtype": "float32"}, {"name": "conv2d_71/kernel", "shape": [1, 1, 64, 32], "dtype": "float32"}, {"name": "conv2d_71/bias", "shape": [32], "dtype": "float32"}, {"name": "conv2d_72/kernel", "shape": [1, 1, 32, 4], "dtype": "float32"}, {"name": "conv2d_72/bias", "shape": [4], "dtype": "float32"}, {"name": "conv2d_73/kernel", "shape": [3, 3, 4, 4], "dtype": "float32"}, {"name": "conv2d_73/bias", "shape": [4], "dtype": "float32"}, {"name": "conv2d_74/kernel", "shape": [1, 1, 4, 32], "dtype": "float32"}, {"name": "conv2d_74/bias", "shape": [32], "dtype": "float32"}, {"name": "conv2d_8/kernel", "shape": [1, 1, 16, 64], "dtype": "float32"}, {"name": "conv2d_8/bias", "shape": [64], "dtype": "float32"}, {"name": "conv2d_9/kernel", "shape": [2, 2, 64, 32], "dtype": "float32"}, {"name": "conv2d_9/bias", "shape": [32], "dtype": "float32"}, {"name": "conv2d_transpose/kernel", "shape": [3, 3, 8, 8], "dtype": "float32"}, {"name": "conv2d_transpose/bias", "shape": [8], "dtype": "float32"}, {"name": "conv2d_transpose_1/kernel", "shape": [3, 3, 8, 8], "dtype": "float32"}, {"name": "conv2d_transpose_1/bias", "shape": [8], "dtype": "float32"}, {"name": "conv2d_transpose_2/kernel", "shape": [3, 3, 8, 4], "dtype": "float32"}, {"name": "conv2d_transpose_2/bias", "shape": [8], "dtype": "float32"}, {"name": "conv2d_transpose_3/kernel", "shape": [2, 2, 8, 32], "dtype": "float32"}, {"name": "conv2d_transpose_3/bias", "shape": [8], "dtype": "float32"}, {"name": "conv2d_transpose_4/kernel", "shape": [2, 2, 1, 8], "dtype": "float32"}, {"name": "conv2d_transpose_4/bias", "shape": [1], "dtype": "float32"}, {"name": "depthwise_conv2d/depthwise_kernel", "shape": [3, 3, 16, 1], "dtype": "float32"}, {"name": "depthwise_conv2d/bias", "shape": [16], "dtype": "float32"}, {"name": "depthwise_conv2d_1/depthwise_kernel", "shape": [3, 3, 16, 1], "dtype": "float32"}, {"name": "depthwise_conv2d_1/bias", "shape": [16], "dtype": "float32"}, {"name": "depthwise_conv2d_10/depthwise_kernel", "shape": [3, 3, 8, 1], "dtype": "float32"}, {"name": "depthwise_conv2d_10/bias", "shape": [8], "dtype": "float32"}, {"name": "depthwise_conv2d_11/depthwise_kernel", "shape": [3, 3, 8, 1], "dtype": "float32"}, {"name": "depthwise_conv2d_11/bias", "shape": [8], "dtype": "float32"}, {"name": "depthwise_conv2d_12/depthwise_kernel", "shape": [3, 3, 8, 1], "dtype": "float32"}, {"name": "depthwise_conv2d_12/bias", "shape": [8], "dtype": "float32"}, {"name": "depthwise_conv2d_2/depthwise_kernel", "shape": [3, 3, 16, 1], "dtype": "float32"}, {"name": "depthwise_conv2d_2/bias", "shape": [16], "dtype": "float32"}, {"name": "depthwise_conv2d_3/depthwise_kernel", "shape": [3, 3, 32, 1], "dtype": "float32"}, {"name": "depthwise_conv2d_3/bias", "shape": [32], "dtype": "float32"}, {"name": "depthwise_conv2d_4/depthwise_kernel", "shape": [3, 3, 16, 1], "dtype": "float32"}, {"name": "depthwise_conv2d_4/bias", "shape": [16], "dtype": "float32"}, {"name": "depthwise_conv2d_5/depthwise_kernel", "shape": [3, 3, 16, 1], "dtype": "float32"}, {"name": "depthwise_conv2d_5/bias", "shape": [16], "dtype": "float32"}, {"name": "depthwise_conv2d_6/depthwise_kernel", "shape": [3, 3, 16, 1], "dtype": "float32"}, {"name": "depthwise_conv2d_6/bias", "shape": [16], "dtype": "float32"}, {"name": "depthwise_conv2d_7/depthwise_kernel", "shape": [3, 3, 16, 1], "dtype": "float32"}, {"name": "depthwise_conv2d_7/bias", "shape": [16], "dtype": "float32"}, {"name": "depthwise_conv2d_8/depthwise_kernel", "shape": [3, 3, 16, 1], "dtype": "float32"}, {"name": "depthwise_conv2d_8/bias", "shape": [16], "dtype": "float32"}, {"name": "depthwise_conv2d_9/depthwise_kernel", "shape": [3, 3, 8, 1], "dtype": "float32"}, {"name": "depthwise_conv2d_9/bias", "shape": [8], "dtype": "float32"}, {"name": "p_re_lu/alpha", "shape": [1, 1, 8], "dtype": "float32"}, {"name": "p_re_lu_1/alpha", "shape": [1, 1, 32], "dtype": "float32"}, {"name": "p_re_lu_10/alpha", "shape": [1, 1, 16], "dtype": "float32"}, {"name": "p_re_lu_11/alpha", "shape": [1, 1, 16], "dtype": "float32"}, {"name": "p_re_lu_12/alpha", "shape": [1, 1, 16], "dtype": "float32"}, {"name": "p_re_lu_13/alpha", "shape": [1, 1, 64], "dtype": "float32"}, {"name": "p_re_lu_14/alpha", "shape": [1, 1, 32], "dtype": "float32"}, {"name": "p_re_lu_15/alpha", "shape": [1, 1, 32], "dtype": "float32"}, {"name": "p_re_lu_16/alpha", "shape": [1, 1, 32], "dtype": "float32"}, {"name": "p_re_lu_17/alpha", "shape": [1, 1, 128], "dtype": "float32"}, {"name": "p_re_lu_18/alpha", "shape": [1, 1, 16], "dtype": "float32"}, {"name": "p_re_lu_19/alpha", "shape": [1, 1, 16], "dtype": "float32"}, {"name": "p_re_lu_2/alpha", "shape": [1, 1, 16], "dtype": "float32"}, {"name": "p_re_lu_20/alpha", "shape": [1, 1, 16], "dtype": "float32"}, {"name": "p_re_lu_21/alpha", "shape": [1, 1, 128], "dtype": "float32"}, {"name": "p_re_lu_22/alpha", "shape": [1, 1, 16], "dtype": "float32"}, {"name": "p_re_lu_23/alpha", "shape": [1, 1, 16], "dtype": "float32"}, {"name": "p_re_lu_24/alpha", "shape": [1, 1, 16], "dtype": "float32"}, {"name": "p_re_lu_25/alpha", "shape": [1, 1, 128], "dtype": "float32"}, {"name": "p_re_lu_26/alpha", "shape": [1, 1, 16], "dtype": "float32"}, {"name": "p_re_lu_27/alpha", "shape": [1, 1, 16], "dtype": "float32"}, {"name": "p_re_lu_28/alpha", "shape": [1, 1, 16], "dtype": "float32"}, {"name": "p_re_lu_29/alpha", "shape": [1, 1, 128], "dtype": "float32"}, {"name": "p_re_lu_3/alpha", "shape": [1, 1, 16], "dtype": "float32"}, {"name": "p_re_lu_30/alpha", "shape": [1, 1, 16], "dtype": "float32"}, {"name": "p_re_lu_31/alpha", "shape": [1, 1, 16], "dtype": "float32"}, {"name": "p_re_lu_32/alpha", "shape": [1, 1, 16], "dtype": "float32"}, {"name": "p_re_lu_33/alpha", "shape": [1, 1, 128], "dtype": "float32"}, {"name": "p_re_lu_34/alpha", "shape": [1, 1, 16], "dtype": "float32"}, {"name": "p_re_lu_35/alpha", "shape": [1, 1, 16], "dtype": "float32"}, {"name": "p_re_lu_36/alpha", "shape": [1, 1, 16], "dtype": "float32"}, {"name": "p_re_lu_37/alpha", "shape": [1, 1, 128], "dtype": "float32"}, {"name": "p_re_lu_38/alpha", "shape": [1, 1, 8], "dtype": "float32"}, {"name": "p_re_lu_39/alpha", "shape": [1, 1, 8], "dtype": "float32"}, {"name": "p_re_lu_4/alpha", "shape": [1, 1, 16], "dtype": "float32"}, {"name": "p_re_lu_40/alpha", "shape": [1, 1, 8], "dtype": "float32"}, {"name": "p_re_lu_41/alpha", "shape": [1, 1, 128], "dtype": "float32"}, {"name": "p_re_lu_42/alpha", "shape": [1, 1, 8], "dtype": "float32"}, {"name": "p_re_lu_43/alpha", "shape": [1, 1, 128], "dtype": "float32"}, {"name": "p_re_lu_44/alpha", "shape": [1, 1, 128], "dtype": "float32"}, {"name": "p_re_lu_45/alpha", "shape": [1, 1, 8], "dtype": "float32"}, {"name": "p_re_lu_46/alpha", "shape": [1, 1, 8], "dtype": "float32"}, {"name": "p_re_lu_47/alpha", "shape": [1, 1, 128], "dtype": "float32"}, {"name": "p_re_lu_48/alpha", "shape": [1, 1, 8], "dtype": "float32"}, {"name": "p_re_lu_49/alpha", "shape": [1, 1, 128], "dtype": "float32"}, {"name": "p_re_lu_5/alpha", "shape": [1, 1, 64], "dtype": "float32"}, {"name": "p_re_lu_50/alpha", "shape": [1, 1, 128], "dtype": "float32"}, {"name": "p_re_lu_51/alpha", "shape": [1, 1, 8], "dtype": "float32"}, {"name": "p_re_lu_52/alpha", "shape": [1, 1, 8], "dtype": "float32"}, {"name": "p_re_lu_53/alpha", "shape": [1, 1, 8], "dtype": "float32"}, {"name": "p_re_lu_54/alpha", "shape": [1, 1, 128], "dtype": "float32"}, {"name": "p_re_lu_55/alpha", "shape": [1, 1, 8], "dtype": "float32"}, {"name": "p_re_lu_56/alpha", "shape": [1, 1, 128], "dtype": "float32"}, {"name": "p_re_lu_57/alpha", "shape": [1, 1, 128], "dtype": "float32"}, {"name": "p_re_lu_58/alpha", "shape": [1, 1, 8], "dtype": "float32"}, {"name": "p_re_lu_59/alpha", "shape": [1, 1, 8], "dtype": "float32"}, {"name": "p_re_lu_6/alpha", "shape": [1, 1, 16], "dtype": "float32"}, {"name": "p_re_lu_60/alpha", "shape": [1, 1, 8], "dtype": "float32"}, {"name": "p_re_lu_61/alpha", "shape": [1, 1, 128], "dtype": "float32"}, {"name": "p_re_lu_62/alpha", "shape": [1, 1, 8], "dtype": "float32"}, {"name": "p_re_lu_63/alpha", "shape": [1, 1, 128], "dtype": "float32"}, {"name": "p_re_lu_64/alpha", "shape": [1, 1, 128], "dtype": "float32"}, {"name": "p_re_lu_65/alpha", "shape": [1, 1, 8], "dtype": "float32"}, {"name": "p_re_lu_66/alpha", "shape": [1, 1, 8], "dtype": "float32"}, {"name": "p_re_lu_67/alpha", "shape": [1, 1, 128], "dtype": "float32"}, {"name": "p_re_lu_68/alpha", "shape": [1, 1, 8], "dtype": "float32"}, {"name": "p_re_lu_69/alpha", "shape": [1, 1, 128], "dtype": "float32"}, {"name": "p_re_lu_7/alpha", "shape": [1, 1, 16], "dtype": "float32"}, {"name": "p_re_lu_70/alpha", "shape": [1, 1, 128], "dtype": "float32"}, {"name": "p_re_lu_71/alpha", "shape": [1, 1, 8], "dtype": "float32"}, {"name": "p_re_lu_72/alpha", "shape": [1, 1, 8], "dtype": "float32"}, {"name": "p_re_lu_73/alpha", "shape": [1, 1, 8], "dtype": "float32"}, {"name": "p_re_lu_74/alpha", "shape": [1, 1, 128], "dtype": "float32"}, {"name": "p_re_lu_75/alpha", "shape": [1, 1, 8], "dtype": "float32"}, {"name": "p_re_lu_76/alpha", "shape": [1, 1, 128], "dtype": "float32"}, {"name": "p_re_lu_77/alpha", "shape": [1, 1, 128], "dtype": "float32"}, {"name": "p_re_lu_78/alpha", "shape": [1, 1, 4], "dtype": "float32"}, {"name": "p_re_lu_79/alpha", "shape": [1, 1, 128], "dtype": "float32"}, {"name": "p_re_lu_8/alpha", "shape": [1, 1, 16], "dtype": "float32"}, {"name": "p_re_lu_80/alpha", "shape": [1, 1, 128], "dtype": "float32"}, {"name": "p_re_lu_81/alpha", "shape": [1, 1, 8], "dtype": "float32"}, {"name": "p_re_lu_82/alpha", "shape": [1, 1, 8], "dtype": "float32"}, {"name": "p_re_lu_83/alpha", "shape": [1, 1, 128], "dtype": "float32"}, {"name": "p_re_lu_84/alpha", "shape": [1, 1, 8], "dtype": "float32"}, {"name": "p_re_lu_85/alpha", "shape": [1, 1, 8], "dtype": "float32"}, {"name": "p_re_lu_86/alpha", "shape": [1, 1, 128], "dtype": "float32"}, {"name": "p_re_lu_87/alpha", "shape": [1, 1, 8], "dtype": "float32"}, {"name": "p_re_lu_88/alpha", "shape": [1, 1, 8], "dtype": "float32"}, {"name": "p_re_lu_89/alpha", "shape": [1, 1, 64], "dtype": "float32"}, {"name": "p_re_lu_9/alpha", "shape": [1, 1, 64], "dtype": "float32"}, {"name": "p_re_lu_90/alpha", "shape": [1, 1, 4], "dtype": "float32"}, {"name": "p_re_lu_91/alpha", "shape": [1, 1, 4], "dtype": "float32"}, {"name": "p_re_lu_92/alpha", "shape": [1, 1, 64], "dtype": "float32"}, {"name": "p_re_lu_93/alpha", "shape": [1, 1, 4], "dtype": "float32"}, {"name": "p_re_lu_94/alpha", "shape": [1, 1, 8], "dtype": "float32"}, {"name": "p_re_lu_95/alpha", "shape": [1, 1, 32], "dtype": "float32"}, {"name": "p_re_lu_96/alpha", "shape": [1, 1, 4], "dtype": "float32"}, {"name": "p_re_lu_97/alpha", "shape": [1, 1, 4], "dtype": "float32"}, {"name": "p_re_lu_98/alpha", "shape": [1, 1, 32], "dtype": "float32"}, {"name": "separable_conv2d/depthwise_kernel", "shape": [3, 3, 16, 1], "dtype": "float32"}, {"name": "separable_conv2d/pointwise_kernel", "shape": [1, 1, 16, 16], "dtype": "float32"}, {"name": "separable_conv2d/bias", "shape": [16], "dtype": "float32"}, {"name": "separable_conv2d_1/depthwise_kernel", "shape": [3, 3, 16, 1], "dtype": "float32"}, {"name": "separable_conv2d_1/pointwise_kernel", "shape": [1, 1, 16, 16], "dtype": "float32"}, {"name": "separable_conv2d_1/bias", "shape": [16], "dtype": "float32"}, {"name": "separable_conv2d_10/depthwise_kernel", "shape": [5, 5, 8, 1], "dtype": "float32"}, {"name": "separable_conv2d_10/pointwise_kernel", "shape": [1, 1, 8, 8], "dtype": "float32"}, {"name": "separable_conv2d_10/bias", "shape": [8], "dtype": "float32"}, {"name": "separable_conv2d_11/depthwise_kernel", "shape": [3, 3, 8, 1], "dtype": "float32"}, {"name": "separable_conv2d_11/pointwise_kernel", "shape": [1, 1, 8, 8], "dtype": "float32"}, {"name": "separable_conv2d_11/bias", "shape": [8], "dtype": "float32"}, {"name": "separable_conv2d_12/depthwise_kernel", "shape": [3, 3, 8, 1], "dtype": "float32"}, {"name": "separable_conv2d_12/pointwise_kernel", "shape": [1, 1, 8, 8], "dtype": "float32"}, {"name": "separable_conv2d_12/bias", "shape": [8], "dtype": "float32"}, {"name": "separable_conv2d_13/depthwise_kernel", "shape": [5, 5, 8, 1], "dtype": "float32"}, {"name": "separable_conv2d_13/pointwise_kernel", "shape": [1, 1, 8, 8], "dtype": "float32"}, {"name": "separable_conv2d_13/bias", "shape": [8], "dtype": "float32"}, {"name": "separable_conv2d_14/depthwise_kernel", "shape": [3, 3, 8, 1], "dtype": "float32"}, {"name": "separable_conv2d_14/pointwise_kernel", "shape": [1, 1, 8, 8], "dtype": "float32"}, {"name": "separable_conv2d_14/bias", "shape": [8], "dtype": "float32"}, {"name": "separable_conv2d_2/depthwise_kernel", "shape": [3, 3, 16, 1], "dtype": "float32"}, {"name": "separable_conv2d_2/pointwise_kernel", "shape": [1, 1, 16, 16], "dtype": "float32"}, {"name": "separable_conv2d_2/bias", "shape": [16], "dtype": "float32"}, {"name": "separable_conv2d_3/depthwise_kernel", "shape": [3, 3, 32, 1], "dtype": "float32"}, {"name": "separable_conv2d_3/pointwise_kernel", "shape": [1, 1, 32, 32], "dtype": "float32"}, {"name": "separable_conv2d_3/bias", "shape": [32], "dtype": "float32"}, {"name": "separable_conv2d_4/depthwise_kernel", "shape": [3, 3, 16, 1], "dtype": "float32"}, {"name": "separable_conv2d_4/pointwise_kernel", "shape": [1, 1, 16, 16], "dtype": "float32"}, {"name": "separable_conv2d_4/bias", "shape": [16], "dtype": "float32"}, {"name": "separable_conv2d_5/depthwise_kernel", "shape": [3, 3, 16, 1], "dtype": "float32"}, {"name": "separable_conv2d_5/pointwise_kernel", "shape": [1, 1, 16, 16], "dtype": "float32"}, {"name": "separable_conv2d_5/bias", "shape": [16], "dtype": "float32"}, {"name": "separable_conv2d_6/depthwise_kernel", "shape": [3, 3, 16, 1], "dtype": "float32"}, {"name": "separable_conv2d_6/pointwise_kernel", "shape": [1, 1, 16, 16], "dtype": "float32"}, {"name": "separable_conv2d_6/bias", "shape": [16], "dtype": "float32"}, {"name": "separable_conv2d_7/depthwise_kernel", "shape": [3, 3, 16, 1], "dtype": "float32"}, {"name": "separable_conv2d_7/pointwise_kernel", "shape": [1, 1, 16, 16], "dtype": "float32"}, {"name": "separable_conv2d_7/bias", "shape": [16], "dtype": "float32"}, {"name": "separable_conv2d_8/depthwise_kernel", "shape": [3, 3, 16, 1], "dtype": "float32"}, {"name": "separable_conv2d_8/pointwise_kernel", "shape": [1, 1, 16, 16], "dtype": "float32"}, {"name": "separable_conv2d_8/bias", "shape": [16], "dtype": "float32"}, {"name": "separable_conv2d_9/depthwise_kernel", "shape": [3, 3, 8, 1], "dtype": "float32"}, {"name": "separable_conv2d_9/pointwise_kernel", "shape": [1, 1, 8, 8], "dtype": "float32"}, {"name": "separable_conv2d_9/bias", "shape": [8], "dtype": "float32"}]}]}