{"format": "graph-model", "generatedBy": "2.5.0-dev20210209", "convertedBy": "TensorFlow.js Converter v2.8.4", "signature": {"inputs": {"inputs:0": {"name": "inputs:0", "dtype": "DT_FLOAT", "tensorShape": {"dim": [{"size": "-1"}, {"size": "224"}, {"size": "224"}, {"size": "3"}]}}}, "outputs": {"Identity:0": {"name": "Identity:0", "dtype": "DT_FLOAT", "tensorShape": {"dim": [{"size": "-1"}, {"size": "224"}, {"size": "224"}, {"size": "1"}]}}}}, "modelTopology": {"node": [{"name": "StatefulPartitionedCall/SINet/si_net_1/conv2d_66/normalization_71/p_re_lu_54/p_re_lu_55/Neg", "op": "Const", "attr": {"dtype": {"type": "DT_FLOAT"}, "value": {"tensor": {"dtype": "DT_FLOAT", "tensorShape": {"dim": [{"size": "1"}, {"size": "1"}, {"size": "1"}]}}}}}, {"name": "StatefulPartitionedCall/SINet/si_net_1/conv2d_66/conv2d_66/Conv2D/merged_input", "op": "Const", "attr": {"value": {"tensor": {"dtype": "DT_FLOAT", "tensorShape": {"dim": [{"size": "1"}, {"size": "1"}, {"size": "48"}, {"size": "1"}]}}}, "dtype": {"type": "DT_FLOAT"}}}, {"name": "StatefulPartitionedCall/SINet/si_net_1/conv2d_66/normalization_71/sync_batch_normalization_71/batchnorm/sub", "op": "Const", "attr": {"dtype": {"type": "DT_FLOAT"}, "value": {"tensor": {"dtype": "DT_FLOAT", "tensorShape": {"dim": [{"size": "1"}]}}}}}, {"name": "StatefulPartitionedCall/SINet/si_net_1/sub/x", "op": "Const", "attr": {"value": {"tensor": {"dtype": "DT_FLOAT", "tensorShape": {}}}, "dtype": {"type": "DT_FLOAT"}}}, {"name": "StatefulPartitionedCall/SINet/si_net_1/Max/reduction_indices", "op": "Const", "attr": {"dtype": {"type": "DT_INT32"}, "value": {"tensor": {"dtype": "DT_INT32", "tensorShape": {}}}}}, {"name": "StatefulPartitionedCall/SINet/si_net_1/normalization_68/p_re_lu_52/p_re_lu_53/Neg", "op": "Const", "attr": {"dtype": {"type": "DT_FLOAT"}, "value": {"tensor": {"dtype": "DT_FLOAT", "tensorShape": {"dim": [{"size": "1"}, {"size": "1"}, {"size": "144"}]}}}}}, {"name": "StatefulPartitionedCall/SINet/si_net_1/s2_module_19/normalization_67/p_re_lu_50/p_re_lu_51/Neg", "op": "Const", "attr": {"value": {"tensor": {"dtype": "DT_FLOAT", "tensorShape": {"dim": [{"size": "1"}, {"size": "1"}, {"size": "96"}]}}}, "dtype": {"type": "DT_FLOAT"}}}, {"name": "StatefulPartitionedCall/SINet/si_net_1/s2_module_19/s2_block_39/conv2d_61/normalization_20/p_re_lu_46/p_re_lu_47/Neg", "op": "Const", "attr": {"dtype": {"type": "DT_FLOAT"}, "value": {"tensor": {"dtype": "DT_FLOAT", "tensorShape": {"dim": [{"size": "1"}, {"size": "1"}, {"size": "48"}]}}}}}, {"name": "StatefulPartitionedCall/SINet/si_net_1/s2_module_19/s2_block_39/conv2d_61/depthwise_conv2d_18/depthwise/ReadVariableOp", "op": "Const", "attr": {"dtype": {"type": "DT_FLOAT"}, "value": {"tensor": {"dtype": "DT_FLOAT", "tensorShape": {"dim": [{"size": "3"}, {"size": "3"}, {"size": "48"}, {"size": "1"}]}}}}}, {"name": "StatefulPartitionedCall/SINet/si_net_1/s2_module_19/s2_block_39/conv2d_61/normalization_20/sync_batch_normalization_20/batchnorm/mul", "op": "Const", "attr": {"dtype": {"type": "DT_FLOAT"}, "value": {"tensor": {"dtype": "DT_FLOAT", "tensorShape": {"dim": [{"size": "48"}]}}}}}, {"name": "StatefulPartitionedCall/SINet/si_net_1/s2_module_19/s2_block_39/conv2d_61/normalization_20/sync_batch_normalization_20/batchnorm/sub", "op": "Const", "attr": {"dtype": {"type": "DT_FLOAT"}, "value": {"tensor": {"dtype": "DT_FLOAT", "tensorShape": {"dim": [{"size": "48"}]}}}}}, {"name": "StatefulPartitionedCall/SINet/si_net_1/s2_module_19/s2_block_39/conv2d_64/conv2d_62/Conv2D/merged_input", "op": "Const", "attr": {"dtype": {"type": "DT_FLOAT"}, "value": {"tensor": {"dtype": "DT_FLOAT", "tensorShape": {"dim": [{"size": "1"}, {"size": "1"}, {"size": "48"}, {"size": "48"}]}}}}}, {"name": "StatefulPartitionedCall/SINet/si_net_1/s2_module_19/s2_block_39/normalization_66/sync_batch_normalization_66/batchnorm/sub", "op": "Const", "attr": {"dtype": {"type": "DT_FLOAT"}, "value": {"tensor": {"dtype": "DT_FLOAT", "tensorShape": {"dim": [{"size": "48"}]}}}}}, {"name": "StatefulPartitionedCall/SINet/si_net_1/s2_module_19/s2_block_38/conv2d_63/normalization_21/p_re_lu_48/p_re_lu_49/Neg", "op": "Const", "attr": {"dtype": {"type": "DT_FLOAT"}, "value": {"tensor": {"dtype": "DT_FLOAT", "tensorShape": {"dim": [{"size": "1"}, {"size": "1"}, {"size": "48"}]}}}}}, {"name": "StatefulPartitionedCall/SINet/si_net_1/s2_module_19/conv2d_62/grouped_0/conv2d_59/Conv2D/ReadVariableOp", "op": "Const", "attr": {"value": {"tensor": {"dtype": "DT_FLOAT", "tensorShape": {"dim": [{"size": "1"}, {"size": "1"}, {"size": "48"}, {"size": "24"}]}}}, "dtype": {"type": "DT_FLOAT"}}}, {"name": "StatefulPartitionedCall/SINet/si_net_1/s2_module_18/normalization_64/p_re_lu_48/p_re_lu_49/Neg", "op": "Const", "attr": {"dtype": {"type": "DT_FLOAT"}, "value": {"tensor": {"dtype": "DT_FLOAT", "tensorShape": {"dim": [{"size": "1"}, {"size": "1"}, {"size": "96"}]}}}}}, {"name": "StatefulPartitionedCall/SINet/si_net_1/s2_module_18/s2_block_37/conv2d_55/normalization_18/p_re_lu_42/p_re_lu_43/Neg", "op": "Const", "attr": {"value": {"tensor": {"dtype": "DT_FLOAT", "tensorShape": {"dim": [{"size": "1"}, {"size": "1"}, {"size": "48"}]}}}, "dtype": {"type": "DT_FLOAT"}}}, {"name": "StatefulPartitionedCall/SINet/si_net_1/s2_module_18/s2_block_37/conv2d_55/depthwise_conv2d_16/depthwise/ReadVariableOp", "op": "Const", "attr": {"value": {"tensor": {"dtype": "DT_FLOAT", "tensorShape": {"dim": [{"size": "3"}, {"size": "3"}, {"size": "48"}, {"size": "1"}]}}}, "dtype": {"type": "DT_FLOAT"}}}, {"name": "StatefulPartitionedCall/SINet/si_net_1/s2_module_18/s2_block_37/conv2d_55/normalization_18/sync_batch_normalization_18/batchnorm/mul", "op": "Const", "attr": {"dtype": {"type": "DT_FLOAT"}, "value": {"tensor": {"dtype": "DT_FLOAT", "tensorShape": {"dim": [{"size": "48"}]}}}}}, {"name": "StatefulPartitionedCall/SINet/si_net_1/s2_module_18/s2_block_37/conv2d_55/normalization_18/sync_batch_normalization_18/batchnorm/sub", "op": "Const", "attr": {"dtype": {"type": "DT_FLOAT"}, "value": {"tensor": {"dtype": "DT_FLOAT", "tensorShape": {"dim": [{"size": "48"}]}}}}}, {"name": "StatefulPartitionedCall/SINet/si_net_1/s2_module_18/s2_block_37/conv2d_61/conv2d_56/Conv2D/ReadVariableOp", "op": "Const", "attr": {"value": {"tensor": {"dtype": "DT_FLOAT", "tensorShape": {"dim": [{"size": "1"}, {"size": "1"}, {"size": "48"}, {"size": "48"}]}}}, "dtype": {"type": "DT_FLOAT"}}}, {"name": "StatefulPartitionedCall/SINet/si_net_1/s2_module_18/s2_block_37/upsampling_bilinear2d_10/resize/size", "op": "Const", "attr": {"value": {"tensor": {"dtype": "DT_INT32", "tensorShape": {"dim": [{"size": "2"}]}}}, "dtype": {"type": "DT_INT32"}}}, {"name": "StatefulPartitionedCall/SINet/si_net_1/s2_module_18/s2_block_37/normalization_63/sync_batch_normalization_63/batchnorm/mul", "op": "Const", "attr": {"dtype": {"type": "DT_FLOAT"}, "value": {"tensor": {"dtype": "DT_FLOAT", "tensorShape": {"dim": [{"size": "48"}]}}}}}, {"name": "StatefulPartitionedCall/SINet/si_net_1/s2_module_18/s2_block_37/normalization_63/sync_batch_normalization_63/batchnorm/sub", "op": "Const", "attr": {"dtype": {"type": "DT_FLOAT"}, "value": {"tensor": {"dtype": "DT_FLOAT", "tensorShape": {"dim": [{"size": "48"}]}}}}}, {"name": "StatefulPartitionedCall/SINet/si_net_1/s2_module_18/s2_block_36/conv2d_57/normalization_19/p_re_lu_44/p_re_lu_45/Neg", "op": "Const", "attr": {"dtype": {"type": "DT_FLOAT"}, "value": {"tensor": {"dtype": "DT_FLOAT", "tensorShape": {"dim": [{"size": "1"}, {"size": "1"}, {"size": "48"}]}}}}}, {"name": "StatefulPartitionedCall/SINet/si_net_1/s2_module_18/conv2d_59/grouped_0/conv2d_53/Conv2D/ReadVariableOp", "op": "Const", "attr": {"dtype": {"type": "DT_FLOAT"}, "value": {"tensor": {"dtype": "DT_FLOAT", "tensorShape": {"dim": [{"size": "1"}, {"size": "1"}, {"size": "48"}, {"size": "24"}]}}}}}, {"name": "StatefulPartitionedCall/SINet/si_net_1/s2_module_17/normalization_61/p_re_lu_46/p_re_lu_47/Neg", "op": "Const", "attr": {"dtype": {"type": "DT_FLOAT"}, "value": {"tensor": {"dtype": "DT_FLOAT", "tensorShape": {"dim": [{"size": "1"}, {"size": "1"}, {"size": "96"}]}}}}}, {"name": "StatefulPartitionedCall/SINet/si_net_1/s2_module_17/s2_block_35/conv2d_49/normalization_16/p_re_lu_38/p_re_lu_39/Neg", "op": "Const", "attr": {"dtype": {"type": "DT_FLOAT"}, "value": {"tensor": {"dtype": "DT_FLOAT", "tensorShape": {"dim": [{"size": "1"}, {"size": "1"}, {"size": "48"}]}}}}}, {"name": "StatefulPartitionedCall/SINet/si_net_1/s2_module_17/s2_block_35/conv2d_49/depthwise_conv2d_14/depthwise/ReadVariableOp", "op": "Const", "attr": {"dtype": {"type": "DT_FLOAT"}, "value": {"tensor": {"dtype": "DT_FLOAT", "tensorShape": {"dim": [{"size": "5"}, {"size": "5"}, {"size": "48"}, {"size": "1"}]}}}}}, {"name": "StatefulPartitionedCall/SINet/si_net_1/s2_module_17/s2_block_35/conv2d_49/normalization_16/sync_batch_normalization_16/batchnorm/mul", "op": "Const", "attr": {"dtype": {"type": "DT_FLOAT"}, "value": {"tensor": {"dtype": "DT_FLOAT", "tensorShape": {"dim": [{"size": "48"}]}}}}}, {"name": "StatefulPartitionedCall/SINet/si_net_1/s2_module_17/s2_block_35/conv2d_49/normalization_16/sync_batch_normalization_16/batchnorm/sub", "op": "Const", "attr": {"value": {"tensor": {"dtype": "DT_FLOAT", "tensorShape": {"dim": [{"size": "48"}]}}}, "dtype": {"type": "DT_FLOAT"}}}, {"name": "StatefulPartitionedCall/SINet/si_net_1/s2_module_17/s2_block_35/conv2d_58/conv2d_50/Conv2D/merged_input", "op": "Const", "attr": {"value": {"tensor": {"dtype": "DT_FLOAT", "tensorShape": {"dim": [{"size": "1"}, {"size": "1"}, {"size": "48"}, {"size": "48"}]}}}, "dtype": {"type": "DT_FLOAT"}}}, {"name": "StatefulPartitionedCall/SINet/si_net_1/s2_module_17/s2_block_35/normalization_60/sync_batch_normalization_60/batchnorm/sub", "op": "Const", "attr": {"dtype": {"type": "DT_FLOAT"}, "value": {"tensor": {"dtype": "DT_FLOAT", "tensorShape": {"dim": [{"size": "48"}]}}}}}, {"name": "StatefulPartitionedCall/SINet/si_net_1/s2_module_17/s2_block_34/conv2d_51/normalization_17/p_re_lu_40/p_re_lu_41/Neg", "op": "Const", "attr": {"value": {"tensor": {"dtype": "DT_FLOAT", "tensorShape": {"dim": [{"size": "1"}, {"size": "1"}, {"size": "48"}]}}}, "dtype": {"type": "DT_FLOAT"}}}, {"name": "StatefulPartitionedCall/SINet/si_net_1/s2_module_17/conv2d_56/grouped_0/conv2d_47/Conv2D/ReadVariableOp", "op": "Const", "attr": {"dtype": {"type": "DT_FLOAT"}, "value": {"tensor": {"dtype": "DT_FLOAT", "tensorShape": {"dim": [{"size": "1"}, {"size": "1"}, {"size": "48"}, {"size": "24"}]}}}}}, {"name": "StatefulPartitionedCall/SINet/si_net_1/s2_module_16/normalization_58/p_re_lu_44/p_re_lu_45/Neg", "op": "Const", "attr": {"dtype": {"type": "DT_FLOAT"}, "value": {"tensor": {"dtype": "DT_FLOAT", "tensorShape": {"dim": [{"size": "1"}, {"size": "1"}, {"size": "96"}]}}}}}, {"name": "StatefulPartitionedCall/SINet/si_net_1/s2_module_16/s2_block_33/conv2d_43/normalization_14/p_re_lu_34/p_re_lu_35/Neg", "op": "Const", "attr": {"dtype": {"type": "DT_FLOAT"}, "value": {"tensor": {"dtype": "DT_FLOAT", "tensorShape": {"dim": [{"size": "1"}, {"size": "1"}, {"size": "48"}]}}}}}, {"name": "StatefulPartitionedCall/SINet/si_net_1/s2_module_16/s2_block_33/conv2d_43/depthwise_conv2d_12/depthwise/ReadVariableOp", "op": "Const", "attr": {"value": {"tensor": {"dtype": "DT_FLOAT", "tensorShape": {"dim": [{"size": "3"}, {"size": "3"}, {"size": "48"}, {"size": "1"}]}}}, "dtype": {"type": "DT_FLOAT"}}}, {"name": "StatefulPartitionedCall/SINet/si_net_1/s2_module_16/s2_block_33/conv2d_43/normalization_14/sync_batch_normalization_14/batchnorm/mul", "op": "Const", "attr": {"dtype": {"type": "DT_FLOAT"}, "value": {"tensor": {"dtype": "DT_FLOAT", "tensorShape": {"dim": [{"size": "48"}]}}}}}, {"name": "StatefulPartitionedCall/SINet/si_net_1/s2_module_16/s2_block_33/conv2d_43/normalization_14/sync_batch_normalization_14/batchnorm/sub", "op": "Const", "attr": {"value": {"tensor": {"dtype": "DT_FLOAT", "tensorShape": {"dim": [{"size": "48"}]}}}, "dtype": {"type": "DT_FLOAT"}}}, {"name": "StatefulPartitionedCall/SINet/si_net_1/s2_module_16/s2_block_33/conv2d_55/conv2d_44/Conv2D/merged_input", "op": "Const", "attr": {"dtype": {"type": "DT_FLOAT"}, "value": {"tensor": {"dtype": "DT_FLOAT", "tensorShape": {"dim": [{"size": "1"}, {"size": "1"}, {"size": "48"}, {"size": "48"}]}}}}}, {"name": "StatefulPartitionedCall/SINet/si_net_1/s2_module_16/s2_block_33/normalization_57/sync_batch_normalization_57/batchnorm/sub", "op": "Const", "attr": {"dtype": {"type": "DT_FLOAT"}, "value": {"tensor": {"dtype": "DT_FLOAT", "tensorShape": {"dim": [{"size": "48"}]}}}}}, {"name": "StatefulPartitionedCall/SINet/si_net_1/s2_module_16/s2_block_32/conv2d_45/normalization_15/p_re_lu_36/p_re_lu_37/Neg", "op": "Const", "attr": {"dtype": {"type": "DT_FLOAT"}, "value": {"tensor": {"dtype": "DT_FLOAT", "tensorShape": {"dim": [{"size": "1"}, {"size": "1"}, {"size": "48"}]}}}}}, {"name": "StatefulPartitionedCall/SINet/si_net_1/s2_module_16/conv2d_53/grouped_0/conv2d_41/Conv2D/ReadVariableOp", "op": "Const", "attr": {"value": {"tensor": {"dtype": "DT_FLOAT", "tensorShape": {"dim": [{"size": "1"}, {"size": "1"}, {"size": "48"}, {"size": "24"}]}}}, "dtype": {"type": "DT_FLOAT"}}}, {"name": "StatefulPartitionedCall/SINet/si_net_1/s2_module_15/normalization_55/p_re_lu_42/p_re_lu_43/Neg", "op": "Const", "attr": {"value": {"tensor": {"dtype": "DT_FLOAT", "tensorShape": {"dim": [{"size": "1"}, {"size": "1"}, {"size": "96"}]}}}, "dtype": {"type": "DT_FLOAT"}}}, {"name": "StatefulPartitionedCall/SINet/si_net_1/s2_module_15/s2_block_31/conv2d_37/normalization_12/p_re_lu_30/p_re_lu_31/Neg", "op": "Const", "attr": {"dtype": {"type": "DT_FLOAT"}, "value": {"tensor": {"dtype": "DT_FLOAT", "tensorShape": {"dim": [{"size": "1"}, {"size": "1"}, {"size": "48"}]}}}}}, {"name": "StatefulPartitionedCall/SINet/si_net_1/s2_module_15/s2_block_31/conv2d_37/depthwise_conv2d_10/depthwise/ReadVariableOp", "op": "Const", "attr": {"value": {"tensor": {"dtype": "DT_FLOAT", "tensorShape": {"dim": [{"size": "5"}, {"size": "5"}, {"size": "48"}, {"size": "1"}]}}}, "dtype": {"type": "DT_FLOAT"}}}, {"name": "StatefulPartitionedCall/SINet/si_net_1/s2_module_15/s2_block_31/conv2d_37/normalization_12/sync_batch_normalization_12/batchnorm/mul", "op": "Const", "attr": {"dtype": {"type": "DT_FLOAT"}, "value": {"tensor": {"dtype": "DT_FLOAT", "tensorShape": {"dim": [{"size": "48"}]}}}}}, {"name": "StatefulPartitionedCall/SINet/si_net_1/s2_module_15/s2_block_31/conv2d_37/normalization_12/sync_batch_normalization_12/batchnorm/sub", "op": "Const", "attr": {"dtype": {"type": "DT_FLOAT"}, "value": {"tensor": {"dtype": "DT_FLOAT", "tensorShape": {"dim": [{"size": "48"}]}}}}}, {"name": "StatefulPartitionedCall/SINet/si_net_1/s2_module_15/s2_block_31/conv2d_52/conv2d_38/Conv2D/ReadVariableOp", "op": "Const", "attr": {"value": {"tensor": {"dtype": "DT_FLOAT", "tensorShape": {"dim": [{"size": "1"}, {"size": "1"}, {"size": "48"}, {"size": "48"}]}}}, "dtype": {"type": "DT_FLOAT"}}}, {"name": "StatefulPartitionedCall/SINet/si_net_1/s2_module_15/s2_block_31/upsampling_bilinear2d_8/resize/size", "op": "Const", "attr": {"value": {"tensor": {"dtype": "DT_INT32", "tensorShape": {"dim": [{"size": "2"}]}}}, "dtype": {"type": "DT_INT32"}}}, {"name": "StatefulPartitionedCall/SINet/si_net_1/s2_module_15/s2_block_31/normalization_54/sync_batch_normalization_54/batchnorm/mul", "op": "Const", "attr": {"value": {"tensor": {"dtype": "DT_FLOAT", "tensorShape": {"dim": [{"size": "48"}]}}}, "dtype": {"type": "DT_FLOAT"}}}, {"name": "StatefulPartitionedCall/SINet/si_net_1/s2_module_15/s2_block_31/normalization_54/sync_batch_normalization_54/batchnorm/sub", "op": "Const", "attr": {"value": {"tensor": {"dtype": "DT_FLOAT", "tensorShape": {"dim": [{"size": "48"}]}}}, "dtype": {"type": "DT_FLOAT"}}}, {"name": "StatefulPartitionedCall/SINet/si_net_1/s2_module_15/s2_block_30/conv2d_39/normalization_13/p_re_lu_32/p_re_lu_33/Neg", "op": "Const", "attr": {"value": {"tensor": {"dtype": "DT_FLOAT", "tensorShape": {"dim": [{"size": "1"}, {"size": "1"}, {"size": "48"}]}}}, "dtype": {"type": "DT_FLOAT"}}}, {"name": "StatefulPartitionedCall/SINet/si_net_1/s2_module_15/conv2d_50/grouped_0/conv2d_35/Conv2D/ReadVariableOp", "op": "Const", "attr": {"value": {"tensor": {"dtype": "DT_FLOAT", "tensorShape": {"dim": [{"size": "1"}, {"size": "1"}, {"size": "48"}, {"size": "24"}]}}}, "dtype": {"type": "DT_FLOAT"}}}, {"name": "StatefulPartitionedCall/SINet/si_net_1/s2_module_14/normalization_52/p_re_lu_40/p_re_lu_41/Neg", "op": "Const", "attr": {"dtype": {"type": "DT_FLOAT"}, "value": {"tensor": {"dtype": "DT_FLOAT", "tensorShape": {"dim": [{"size": "1"}, {"size": "1"}, {"size": "96"}]}}}}}, {"name": "StatefulPartitionedCall/SINet/si_net_1/s2_module_14/s2_block_29/conv2d_31/normalization_10/p_re_lu_26/p_re_lu_27/Neg", "op": "Const", "attr": {"dtype": {"type": "DT_FLOAT"}, "value": {"tensor": {"dtype": "DT_FLOAT", "tensorShape": {"dim": [{"size": "1"}, {"size": "1"}, {"size": "48"}]}}}}}, {"name": "StatefulPartitionedCall/SINet/si_net_1/s2_module_14/s2_block_29/conv2d_31/depthwise_conv2d_8/depthwise/ReadVariableOp", "op": "Const", "attr": {"value": {"tensor": {"dtype": "DT_FLOAT", "tensorShape": {"dim": [{"size": "5"}, {"size": "5"}, {"size": "48"}, {"size": "1"}]}}}, "dtype": {"type": "DT_FLOAT"}}}, {"name": "StatefulPartitionedCall/SINet/si_net_1/s2_module_14/s2_block_29/conv2d_31/normalization_10/sync_batch_normalization_10/batchnorm/mul", "op": "Const", "attr": {"value": {"tensor": {"dtype": "DT_FLOAT", "tensorShape": {"dim": [{"size": "48"}]}}}, "dtype": {"type": "DT_FLOAT"}}}, {"name": "StatefulPartitionedCall/SINet/si_net_1/s2_module_14/s2_block_29/conv2d_31/normalization_10/sync_batch_normalization_10/batchnorm/sub", "op": "Const", "attr": {"value": {"tensor": {"dtype": "DT_FLOAT", "tensorShape": {"dim": [{"size": "48"}]}}}, "dtype": {"type": "DT_FLOAT"}}}, {"name": "StatefulPartitionedCall/SINet/si_net_1/s2_module_14/s2_block_29/conv2d_49/conv2d_32/Conv2D/merged_input", "op": "Const", "attr": {"dtype": {"type": "DT_FLOAT"}, "value": {"tensor": {"dtype": "DT_FLOAT", "tensorShape": {"dim": [{"size": "1"}, {"size": "1"}, {"size": "48"}, {"size": "48"}]}}}}}, {"name": "StatefulPartitionedCall/SINet/si_net_1/s2_module_14/s2_block_29/normalization_51/sync_batch_normalization_51/batchnorm/sub", "op": "Const", "attr": {"dtype": {"type": "DT_FLOAT"}, "value": {"tensor": {"dtype": "DT_FLOAT", "tensorShape": {"dim": [{"size": "48"}]}}}}}, {"name": "StatefulPartitionedCall/SINet/si_net_1/s2_module_14/s2_block_28/conv2d_33/normalization_11/p_re_lu_28/p_re_lu_29/Neg", "op": "Const", "attr": {"value": {"tensor": {"dtype": "DT_FLOAT", "tensorShape": {"dim": [{"size": "1"}, {"size": "1"}, {"size": "48"}]}}}, "dtype": {"type": "DT_FLOAT"}}}, {"name": "StatefulPartitionedCall/SINet/si_net_1/s2_module_14/conv2d_47/grouped_0/conv2d_29/Conv2D/ReadVariableOp", "op": "Const", "attr": {"value": {"tensor": {"dtype": "DT_FLOAT", "tensorShape": {"dim": [{"size": "1"}, {"size": "1"}, {"size": "48"}, {"size": "24"}]}}}, "dtype": {"type": "DT_FLOAT"}}}, {"name": "StatefulPartitionedCall/SINet/si_net_1/s2_module_13/normalization_49/p_re_lu_38/p_re_lu_39/Neg", "op": "Const", "attr": {"dtype": {"type": "DT_FLOAT"}, "value": {"tensor": {"dtype": "DT_FLOAT", "tensorShape": {"dim": [{"size": "1"}, {"size": "1"}, {"size": "96"}]}}}}}, {"name": "StatefulPartitionedCall/SINet/si_net_1/s2_module_13/s2_block_27/conv2d_25/normalization_8/p_re_lu_22/p_re_lu_23/Neg", "op": "Const", "attr": {"dtype": {"type": "DT_FLOAT"}, "value": {"tensor": {"dtype": "DT_FLOAT", "tensorShape": {"dim": [{"size": "1"}, {"size": "1"}, {"size": "48"}]}}}}}, {"name": "StatefulPartitionedCall/SINet/si_net_1/s2_module_13/s2_block_27/conv2d_25/depthwise_conv2d_6/depthwise/ReadVariableOp", "op": "Const", "attr": {"value": {"tensor": {"dtype": "DT_FLOAT", "tensorShape": {"dim": [{"size": "3"}, {"size": "3"}, {"size": "48"}, {"size": "1"}]}}}, "dtype": {"type": "DT_FLOAT"}}}, {"name": "StatefulPartitionedCall/SINet/si_net_1/s2_module_13/s2_block_27/conv2d_25/normalization_8/sync_batch_normalization_8/batchnorm/mul", "op": "Const", "attr": {"value": {"tensor": {"dtype": "DT_FLOAT", "tensorShape": {"dim": [{"size": "48"}]}}}, "dtype": {"type": "DT_FLOAT"}}}, {"name": "StatefulPartitionedCall/SINet/si_net_1/s2_module_13/s2_block_27/conv2d_25/normalization_8/sync_batch_normalization_8/batchnorm/sub", "op": "Const", "attr": {"dtype": {"type": "DT_FLOAT"}, "value": {"tensor": {"dtype": "DT_FLOAT", "tensorShape": {"dim": [{"size": "48"}]}}}}}, {"name": "StatefulPartitionedCall/SINet/si_net_1/s2_module_13/s2_block_27/conv2d_46/conv2d_26/Conv2D/merged_input", "op": "Const", "attr": {"dtype": {"type": "DT_FLOAT"}, "value": {"tensor": {"dtype": "DT_FLOAT", "tensorShape": {"dim": [{"size": "1"}, {"size": "1"}, {"size": "48"}, {"size": "48"}]}}}}}, {"name": "StatefulPartitionedCall/SINet/si_net_1/s2_module_13/s2_block_27/normalization_48/sync_batch_normalization_48/batchnorm/sub", "op": "Const", "attr": {"value": {"tensor": {"dtype": "DT_FLOAT", "tensorShape": {"dim": [{"size": "48"}]}}}, "dtype": {"type": "DT_FLOAT"}}}, {"name": "StatefulPartitionedCall/SINet/si_net_1/s2_module_13/s2_block_26/conv2d_27/normalization_9/p_re_lu_24/p_re_lu_25/Neg", "op": "Const", "attr": {"dtype": {"type": "DT_FLOAT"}, "value": {"tensor": {"dtype": "DT_FLOAT", "tensorShape": {"dim": [{"size": "1"}, {"size": "1"}, {"size": "48"}]}}}}}, {"name": "StatefulPartitionedCall/SINet/si_net_1/s2_module_13/conv2d_44/grouped_0/conv2d_23/Conv2D/ReadVariableOp", "op": "Const", "attr": {"dtype": {"type": "DT_FLOAT"}, "value": {"tensor": {"dtype": "DT_FLOAT", "tensorShape": {"dim": [{"size": "1"}, {"size": "1"}, {"size": "48"}, {"size": "24"}]}}}}}, {"name": "StatefulPartitionedCall/SINet/si_net_1/s2_module_12/normalization_46/p_re_lu_36/p_re_lu_37/Neg", "op": "Const", "attr": {"dtype": {"type": "DT_FLOAT"}, "value": {"tensor": {"dtype": "DT_FLOAT", "tensorShape": {"dim": [{"size": "1"}, {"size": "1"}, {"size": "96"}]}}}}}, {"name": "StatefulPartitionedCall/SINet/si_net_1/s2_module_12/s2_block_25/conv2d_19/normalization_6/p_re_lu_18/p_re_lu_19/Neg", "op": "Const", "attr": {"value": {"tensor": {"dtype": "DT_FLOAT", "tensorShape": {"dim": [{"size": "1"}, {"size": "1"}, {"size": "48"}]}}}, "dtype": {"type": "DT_FLOAT"}}}, {"name": "StatefulPartitionedCall/SINet/si_net_1/s2_module_12/s2_block_25/conv2d_19/depthwise_conv2d_4/depthwise/ReadVariableOp", "op": "Const", "attr": {"dtype": {"type": "DT_FLOAT"}, "value": {"tensor": {"dtype": "DT_FLOAT", "tensorShape": {"dim": [{"size": "3"}, {"size": "3"}, {"size": "48"}, {"size": "1"}]}}}}}, {"name": "StatefulPartitionedCall/SINet/si_net_1/s2_module_12/s2_block_25/conv2d_19/normalization_6/sync_batch_normalization_6/batchnorm/mul", "op": "Const", "attr": {"dtype": {"type": "DT_FLOAT"}, "value": {"tensor": {"dtype": "DT_FLOAT", "tensorShape": {"dim": [{"size": "48"}]}}}}}, {"name": "StatefulPartitionedCall/SINet/si_net_1/s2_module_12/s2_block_25/conv2d_19/normalization_6/sync_batch_normalization_6/batchnorm/sub", "op": "Const", "attr": {"dtype": {"type": "DT_FLOAT"}, "value": {"tensor": {"dtype": "DT_FLOAT", "tensorShape": {"dim": [{"size": "48"}]}}}}}, {"name": "StatefulPartitionedCall/SINet/si_net_1/s2_module_12/s2_block_25/conv2d_43/conv2d_20/Conv2D/merged_input", "op": "Const", "attr": {"value": {"tensor": {"dtype": "DT_FLOAT", "tensorShape": {"dim": [{"size": "1"}, {"size": "1"}, {"size": "48"}, {"size": "48"}]}}}, "dtype": {"type": "DT_FLOAT"}}}, {"name": "StatefulPartitionedCall/SINet/si_net_1/s2_module_12/s2_block_25/normalization_45/sync_batch_normalization_45/batchnorm/sub", "op": "Const", "attr": {"value": {"tensor": {"dtype": "DT_FLOAT", "tensorShape": {"dim": [{"size": "48"}]}}}, "dtype": {"type": "DT_FLOAT"}}}, {"name": "StatefulPartitionedCall/SINet/si_net_1/s2_module_12/s2_block_24/conv2d_21/normalization_7/p_re_lu_20/p_re_lu_21/Neg", "op": "Const", "attr": {"value": {"tensor": {"dtype": "DT_FLOAT", "tensorShape": {"dim": [{"size": "1"}, {"size": "1"}, {"size": "48"}]}}}, "dtype": {"type": "DT_FLOAT"}}}, {"name": "StatefulPartitionedCall/SINet/si_net_1/s2_module_12/conv2d_41/grouped_0/conv2d_17/Conv2D/ReadVariableOp", "op": "Const", "attr": {"dtype": {"type": "DT_FLOAT"}, "value": {"tensor": {"dtype": "DT_FLOAT", "tensorShape": {"dim": [{"size": "1"}, {"size": "1"}, {"size": "24"}, {"size": "24"}]}}}}}, {"name": "StatefulPartitionedCall/SINet/si_net_1/squeeze_separable_conv2d_3/sequential_3/conv2d_16/normalization_5/p_re_lu_16/p_re_lu_17/Neg", "op": "Const", "attr": {"dtype": {"type": "DT_FLOAT"}, "value": {"tensor": {"dtype": "DT_FLOAT", "tensorShape": {"dim": [{"size": "1"}, {"size": "1"}, {"size": "48"}]}}}}}, {"name": "StatefulPartitionedCall/SINet/si_net_1/squeeze_separable_conv2d_3/sequential_3/squeeze_block_1/sequential_2/p_re_lu_14/p_re_lu_15/Neg", "op": "Const", "attr": {"dtype": {"type": "DT_FLOAT"}, "value": {"tensor": {"dtype": "DT_FLOAT", "tensorShape": {"dim": [{"size": "1"}, {"size": "1"}, {"size": "64"}]}}}}}, {"name": "StatefulPartitionedCall/SINet/si_net_1/squeeze_separable_conv2d_3/sequential_3/squeeze_block_1/sequential_2/dense_2/Tensordot/Const", "op": "Const", "attr": {"dtype": {"type": "DT_INT32"}, "value": {"tensor": {"dtype": "DT_INT32", "tensorShape": {"dim": [{"size": "1"}]}}}}}, {"name": "StatefulPartitionedCall/SINet/si_net_1/squeeze_separable_conv2d_3/sequential_3/squeeze_block_1/sequential_2/dense_2/Tensordot/axes", "op": "Const", "attr": {"dtype": {"type": "DT_INT32"}, "value": {"tensor": {"dtype": "DT_INT32", "tensorShape": {"dim": [{"size": "1"}]}}}}}, {"name": "StatefulPartitionedCall/SINet/si_net_1/squeeze_separable_conv2d_3/sequential_3/squeeze_block_1/sequential_2/dense_2/Tensordot/GatherV2_1/axis", "op": "Const", "attr": {"dtype": {"type": "DT_INT32"}, "value": {"tensor": {"dtype": "DT_INT32", "tensorShape": {}}}}}, {"name": "StatefulPartitionedCall/SINet/si_net_1/squeeze_separable_conv2d_3/sequential_3/squeeze_block_1/sequential_2/dense_2/Tensordot/Const_1", "op": "Const", "attr": {"dtype": {"type": "DT_INT32"}, "value": {"tensor": {"dtype": "DT_INT32", "tensorShape": {"dim": [{"size": "1"}]}}}}}, {"name": "StatefulPartitionedCall/SINet/si_net_1/squeeze_separable_conv2d_3/sequential_3/squeeze_block_1/sequential_2/dense_2/Tensordot/ReadVariableOp", "op": "Const", "attr": {"value": {"tensor": {"dtype": "DT_FLOAT", "tensorShape": {"dim": [{"size": "32"}, {"size": "64"}]}}}, "dtype": {"type": "DT_FLOAT"}}}, {"name": "StatefulPartitionedCall/SINet/si_net_1/squeeze_separable_conv2d_3/sequential_3/squeeze_block_1/sequential_2/p_re_lu_12/p_re_lu_13/Neg", "op": "Const", "attr": {"value": {"tensor": {"dtype": "DT_FLOAT", "tensorShape": {"dim": [{"size": "1"}, {"size": "1"}, {"size": "32"}]}}}, "dtype": {"type": "DT_FLOAT"}}}, {"name": "StatefulPartitionedCall/SINet/si_net_1/squeeze_separable_conv2d_3/sequential_3/squeeze_block_1/sequential_2/dense_1/Tensordot/Const", "op": "Const", "attr": {"dtype": {"type": "DT_INT32"}, "value": {"tensor": {"dtype": "DT_INT32", "tensorShape": {"dim": [{"size": "1"}]}}}}}, {"name": "StatefulPartitionedCall/SINet/si_net_1/squeeze_separable_conv2d_3/sequential_3/squeeze_block_1/sequential_2/dense_1/Tensordot/axes", "op": "Const", "attr": {"value": {"tensor": {"dtype": "DT_INT32", "tensorShape": {"dim": [{"size": "1"}]}}}, "dtype": {"type": "DT_INT32"}}}, {"name": "StatefulPartitionedCall/SINet/si_net_1/squeeze_separable_conv2d_3/sequential_3/squeeze_block_1/sequential_2/dense_1/Tensordot/GatherV2_1/axis", "op": "Const", "attr": {"value": {"tensor": {"dtype": "DT_INT32", "tensorShape": {}}}, "dtype": {"type": "DT_INT32"}}}, {"name": "StatefulPartitionedCall/SINet/si_net_1/squeeze_separable_conv2d_3/sequential_3/squeeze_block_1/sequential_2/dense_1/Tensordot/Const_1", "op": "Const", "attr": {"value": {"tensor": {"dtype": "DT_INT32", "tensorShape": {"dim": [{"size": "1"}]}}}, "dtype": {"type": "DT_INT32"}}}, {"name": "StatefulPartitionedCall/SINet/si_net_1/squeeze_separable_conv2d_3/sequential_3/squeeze_block_1/sequential_2/dense_1/Tensordot/ReadVariableOp", "op": "Const", "attr": {"value": {"tensor": {"dtype": "DT_FLOAT", "tensorShape": {"dim": [{"size": "64"}, {"size": "32"}]}}}, "dtype": {"type": "DT_FLOAT"}}}, {"name": "StatefulPartitionedCall/SINet/si_net_1/squeeze_separable_conv2d_3/sequential_3/squeeze_block_1/Mean/reduction_indices", "op": "Const", "attr": {"dtype": {"type": "DT_INT32"}, "value": {"tensor": {"dtype": "DT_INT32", "tensorShape": {"dim": [{"size": "2"}]}}}}}, {"name": "StatefulPartitionedCall/SINet/si_net_1/squeeze_separable_conv2d_3/sequential_3/squeeze_block_1/sequential_2/dense_1/Tensordot/free", "op": "Const", "attr": {"value": {"tensor": {"dtype": "DT_INT32", "tensorShape": {"dim": [{"size": "3"}]}}}, "dtype": {"type": "DT_INT32"}}}, {"name": "StatefulPartitionedCall/SINet/si_net_1/squeeze_separable_conv2d_3/sequential_3/squeeze_block_1/sequential_2/dense_1/Tensordot/GatherV2/axis", "op": "Const", "attr": {"dtype": {"type": "DT_INT32"}, "value": {"tensor": {"dtype": "DT_INT32", "tensorShape": {}}}}}, {"name": "StatefulPartitionedCall/SINet/si_net_1/squeeze_separable_conv2d_3/sequential_3/squeeze_block_1/sequential_2/dense_1/Tensordot/Const_2", "op": "Const", "attr": {"dtype": {"type": "DT_INT32"}, "value": {"tensor": {"dtype": "DT_INT32", "tensorShape": {"dim": [{"size": "1"}]}}}}}, {"name": "StatefulPartitionedCall/SINet/si_net_1/squeeze_separable_conv2d_3/sequential_3/squeeze_block_1/sequential_2/dense_1/Tensordot/concat_1/axis", "op": "Const", "attr": {"dtype": {"type": "DT_INT32"}, "value": {"tensor": {"dtype": "DT_INT32", "tensorShape": {}}}}}, {"name": "StatefulPartitionedCall/SINet/si_net_1/squeeze_separable_conv2d_3/sequential_3/squeeze_block_1/sequential_2/dense_1/BiasAdd/ReadVariableOp", "op": "Const", "attr": {"dtype": {"type": "DT_FLOAT"}, "value": {"tensor": {"dtype": "DT_FLOAT", "tensorShape": {"dim": [{"size": "32"}]}}}}}, {"name": "StatefulPartitionedCall/SINet/si_net_1/squeeze_separable_conv2d_3/sequential_3/squeeze_block_1/sequential_2/dense_2/Tensordot/free", "op": "Const", "attr": {"value": {"tensor": {"dtype": "DT_INT32", "tensorShape": {"dim": [{"size": "3"}]}}}, "dtype": {"type": "DT_INT32"}}}, {"name": "StatefulPartitionedCall/SINet/si_net_1/squeeze_separable_conv2d_3/sequential_3/squeeze_block_1/sequential_2/dense_2/Tensordot/GatherV2/axis", "op": "Const", "attr": {"dtype": {"type": "DT_INT32"}, "value": {"tensor": {"dtype": "DT_INT32", "tensorShape": {}}}}}, {"name": "StatefulPartitionedCall/SINet/si_net_1/squeeze_separable_conv2d_3/sequential_3/squeeze_block_1/sequential_2/dense_2/Tensordot/Const_2", "op": "Const", "attr": {"dtype": {"type": "DT_INT32"}, "value": {"tensor": {"dtype": "DT_INT32", "tensorShape": {"dim": [{"size": "1"}]}}}}}, {"name": "StatefulPartitionedCall/SINet/si_net_1/squeeze_separable_conv2d_3/sequential_3/squeeze_block_1/sequential_2/dense_2/Tensordot/concat_1/axis", "op": "Const", "attr": {"dtype": {"type": "DT_INT32"}, "value": {"tensor": {"dtype": "DT_INT32", "tensorShape": {}}}}}, {"name": "StatefulPartitionedCall/SINet/si_net_1/squeeze_separable_conv2d_3/sequential_3/squeeze_block_1/sequential_2/dense_2/BiasAdd/ReadVariableOp", "op": "Const", "attr": {"value": {"tensor": {"dtype": "DT_FLOAT", "tensorShape": {"dim": [{"size": "64"}]}}}, "dtype": {"type": "DT_FLOAT"}}}, {"name": "StatefulPartitionedCall/SINet/si_net_1/normalization_43/p_re_lu_34/p_re_lu_35/Neg", "op": "Const", "attr": {"dtype": {"type": "DT_FLOAT"}, "value": {"tensor": {"dtype": "DT_FLOAT", "tensorShape": {"dim": [{"size": "1"}, {"size": "1"}, {"size": "64"}]}}}}}, {"name": "StatefulPartitionedCall/SINet/si_net_1/s2_module_11/normalization_42/p_re_lu_32/p_re_lu_33/Neg", "op": "Const", "attr": {"value": {"tensor": {"dtype": "DT_FLOAT", "tensorShape": {"dim": [{"size": "1"}, {"size": "1"}, {"size": "48"}]}}}, "dtype": {"type": "DT_FLOAT"}}}, {"name": "StatefulPartitionedCall/SINet/si_net_1/s2_module_11/s2_block_23/conv2d_11/normalization_3/p_re_lu_8/p_re_lu_9/Neg", "op": "Const", "attr": {"value": {"tensor": {"dtype": "DT_FLOAT", "tensorShape": {"dim": [{"size": "1"}, {"size": "1"}, {"size": "24"}]}}}, "dtype": {"type": "DT_FLOAT"}}}, {"name": "StatefulPartitionedCall/SINet/si_net_1/s2_module_11/s2_block_23/conv2d_11/depthwise_conv2d_2/depthwise/ReadVariableOp", "op": "Const", "attr": {"value": {"tensor": {"dtype": "DT_FLOAT", "tensorShape": {"dim": [{"size": "3"}, {"size": "3"}, {"size": "24"}, {"size": "1"}]}}}, "dtype": {"type": "DT_FLOAT"}}}, {"name": "StatefulPartitionedCall/SINet/si_net_1/s2_module_11/s2_block_23/conv2d_11/normalization_3/sync_batch_normalization_3/batchnorm/mul", "op": "Const", "attr": {"value": {"tensor": {"dtype": "DT_FLOAT", "tensorShape": {"dim": [{"size": "24"}]}}}, "dtype": {"type": "DT_FLOAT"}}}, {"name": "StatefulPartitionedCall/SINet/si_net_1/s2_module_11/s2_block_23/conv2d_11/normalization_3/sync_batch_normalization_3/batchnorm/sub", "op": "Const", "attr": {"value": {"tensor": {"dtype": "DT_FLOAT", "tensorShape": {"dim": [{"size": "24"}]}}}, "dtype": {"type": "DT_FLOAT"}}}, {"name": "StatefulPartitionedCall/SINet/si_net_1/s2_module_11/s2_block_23/conv2d_40/conv2d_12/Conv2D/merged_input", "op": "Const", "attr": {"dtype": {"type": "DT_FLOAT"}, "value": {"tensor": {"dtype": "DT_FLOAT", "tensorShape": {"dim": [{"size": "1"}, {"size": "1"}, {"size": "24"}, {"size": "24"}]}}}}}, {"name": "StatefulPartitionedCall/SINet/si_net_1/s2_module_11/s2_block_23/normalization_41/sync_batch_normalization_41/batchnorm/sub", "op": "Const", "attr": {"dtype": {"type": "DT_FLOAT"}, "value": {"tensor": {"dtype": "DT_FLOAT", "tensorShape": {"dim": [{"size": "24"}]}}}}}, {"name": "StatefulPartitionedCall/SINet/si_net_1/s2_module_11/s2_block_22/conv2d_13/normalization_4/p_re_lu_10/p_re_lu_11/Neg", "op": "Const", "attr": {"value": {"tensor": {"dtype": "DT_FLOAT", "tensorShape": {"dim": [{"size": "1"}, {"size": "1"}, {"size": "24"}]}}}, "dtype": {"type": "DT_FLOAT"}}}, {"name": "StatefulPartitionedCall/SINet/si_net_1/s2_module_11/conv2d_38/grouped_0/conv2d_9/Conv2D/ReadVariableOp", "op": "Const", "attr": {"dtype": {"type": "DT_FLOAT"}, "value": {"tensor": {"dtype": "DT_FLOAT", "tensorShape": {"dim": [{"size": "1"}, {"size": "1"}, {"size": "24"}, {"size": "12"}]}}}}}, {"name": "StatefulPartitionedCall/SINet/si_net_1/s2_module_10/normalization_39/p_re_lu_30/p_re_lu_31/Neg", "op": "Const", "attr": {"value": {"tensor": {"dtype": "DT_FLOAT", "tensorShape": {"dim": [{"size": "1"}, {"size": "1"}, {"size": "48"}]}}}, "dtype": {"type": "DT_FLOAT"}}}, {"name": "StatefulPartitionedCall/SINet/si_net_1/s2_module_10/s2_block_21/conv2d_5/normalization_1/p_re_lu_4/p_re_lu_5/Neg", "op": "Const", "attr": {"dtype": {"type": "DT_FLOAT"}, "value": {"tensor": {"dtype": "DT_FLOAT", "tensorShape": {"dim": [{"size": "1"}, {"size": "1"}, {"size": "24"}]}}}}}, {"name": "StatefulPartitionedCall/SINet/si_net_1/s2_module_10/s2_block_21/conv2d_5/depthwise_conv2d/depthwise/ReadVariableOp", "op": "Const", "attr": {"dtype": {"type": "DT_FLOAT"}, "value": {"tensor": {"dtype": "DT_FLOAT", "tensorShape": {"dim": [{"size": "3"}, {"size": "3"}, {"size": "24"}, {"size": "1"}]}}}}}, {"name": "StatefulPartitionedCall/SINet/si_net_1/s2_module_10/s2_block_21/conv2d_5/normalization_1/sync_batch_normalization_1/batchnorm/mul", "op": "Const", "attr": {"dtype": {"type": "DT_FLOAT"}, "value": {"tensor": {"dtype": "DT_FLOAT", "tensorShape": {"dim": [{"size": "24"}]}}}}}, {"name": "StatefulPartitionedCall/SINet/si_net_1/s2_module_10/s2_block_21/conv2d_5/normalization_1/sync_batch_normalization_1/batchnorm/sub", "op": "Const", "attr": {"value": {"tensor": {"dtype": "DT_FLOAT", "tensorShape": {"dim": [{"size": "24"}]}}}, "dtype": {"type": "DT_FLOAT"}}}, {"name": "StatefulPartitionedCall/SINet/si_net_1/s2_module_10/s2_block_21/conv2d_37/conv2d_6/Conv2D/merged_input", "op": "Const", "attr": {"value": {"tensor": {"dtype": "DT_FLOAT", "tensorShape": {"dim": [{"size": "1"}, {"size": "1"}, {"size": "24"}, {"size": "24"}]}}}, "dtype": {"type": "DT_FLOAT"}}}, {"name": "StatefulPartitionedCall/SINet/si_net_1/s2_module_10/s2_block_21/normalization_38/sync_batch_normalization_38/batchnorm/sub", "op": "Const", "attr": {"dtype": {"type": "DT_FLOAT"}, "value": {"tensor": {"dtype": "DT_FLOAT", "tensorShape": {"dim": [{"size": "24"}]}}}}}, {"name": "StatefulPartitionedCall/SINet/si_net_1/s2_module_10/s2_block_20/conv2d_7/normalization_2/p_re_lu_6/p_re_lu_7/Neg", "op": "Const", "attr": {"dtype": {"type": "DT_FLOAT"}, "value": {"tensor": {"dtype": "DT_FLOAT", "tensorShape": {"dim": [{"size": "1"}, {"size": "1"}, {"size": "24"}]}}}}}, {"name": "StatefulPartitionedCall/SINet/si_net_1/s2_module_10/conv2d_35/grouped_0/conv2d_3/Conv2D/ReadVariableOp", "op": "Const", "attr": {"dtype": {"type": "DT_FLOAT"}, "value": {"tensor": {"dtype": "DT_FLOAT", "tensorShape": {"dim": [{"size": "1"}, {"size": "1"}, {"size": "8"}, {"size": "12"}]}}}}}, {"name": "StatefulPartitionedCall/SINet/si_net_1/squeeze_separable_conv2d_2/sequential_1/conv2d_2/normalization/p_re_lu_2/p_re_lu_3/Neg", "op": "Const", "attr": {"value": {"tensor": {"dtype": "DT_FLOAT", "tensorShape": {"dim": [{"size": "1"}, {"size": "1"}, {"size": "16"}]}}}, "dtype": {"type": "DT_FLOAT"}}}, {"name": "StatefulPartitionedCall/SINet/si_net_1/squeeze_separable_conv2d_2/sequential_1/squeeze_block/sequential/p_re_lu/p_re_lu_1/Neg", "op": "Const", "attr": {"value": {"tensor": {"dtype": "DT_FLOAT", "tensorShape": {"dim": [{"size": "1"}, {"size": "1"}, {"size": "12"}]}}}, "dtype": {"type": "DT_FLOAT"}}}, {"name": "StatefulPartitionedCall/SINet/si_net_1/squeeze_separable_conv2d_2/sequential_1/squeeze_block/sequential/dense/Tensordot/Const", "op": "Const", "attr": {"value": {"tensor": {"dtype": "DT_INT32", "tensorShape": {"dim": [{"size": "1"}]}}}, "dtype": {"type": "DT_INT32"}}}, {"name": "StatefulPartitionedCall/SINet/si_net_1/squeeze_separable_conv2d_2/sequential_1/squeeze_block/sequential/dense/Tensordot/axes", "op": "Const", "attr": {"dtype": {"type": "DT_INT32"}, "value": {"tensor": {"dtype": "DT_INT32", "tensorShape": {"dim": [{"size": "1"}]}}}}}, {"name": "StatefulPartitionedCall/SINet/si_net_1/squeeze_separable_conv2d_2/sequential_1/squeeze_block/sequential/dense/Tensordot/GatherV2_1/axis", "op": "Const", "attr": {"dtype": {"type": "DT_INT32"}, "value": {"tensor": {"dtype": "DT_INT32", "tensorShape": {}}}}}, {"name": "StatefulPartitionedCall/SINet/si_net_1/squeeze_separable_conv2d_2/sequential_1/squeeze_block/sequential/dense/Tensordot/Const_1", "op": "Const", "attr": {"dtype": {"type": "DT_INT32"}, "value": {"tensor": {"dtype": "DT_INT32", "tensorShape": {"dim": [{"size": "1"}]}}}}}, {"name": "StatefulPartitionedCall/SINet/si_net_1/squeeze_separable_conv2d_2/sequential_1/squeeze_block/sequential/dense/Tensordot/ReadVariableOp", "op": "Const", "attr": {"value": {"tensor": {"dtype": "DT_FLOAT", "tensorShape": {"dim": [{"size": "12"}, {"size": "12"}]}}}, "dtype": {"type": "DT_FLOAT"}}}, {"name": "StatefulPartitionedCall/SINet/si_net_1/squeeze_separable_conv2d_2/sequential_1/squeeze_block/Mean/reduction_indices", "op": "Const", "attr": {"dtype": {"type": "DT_INT32"}, "value": {"tensor": {"dtype": "DT_INT32", "tensorShape": {"dim": [{"size": "2"}]}}}}}, {"name": "StatefulPartitionedCall/SINet/si_net_1/squeeze_separable_conv2d_2/sequential_1/squeeze_block/sequential/dense/Tensordot/free", "op": "Const", "attr": {"dtype": {"type": "DT_INT32"}, "value": {"tensor": {"dtype": "DT_INT32", "tensorShape": {"dim": [{"size": "3"}]}}}}}, {"name": "StatefulPartitionedCall/SINet/si_net_1/squeeze_separable_conv2d_2/sequential_1/squeeze_block/sequential/dense/Tensordot/GatherV2/axis", "op": "Const", "attr": {"dtype": {"type": "DT_INT32"}, "value": {"tensor": {"dtype": "DT_INT32", "tensorShape": {}}}}}, {"name": "StatefulPartitionedCall/SINet/si_net_1/squeeze_separable_conv2d_2/sequential_1/squeeze_block/sequential/dense/Tensordot/Const_2", "op": "Const", "attr": {"dtype": {"type": "DT_INT32"}, "value": {"tensor": {"dtype": "DT_INT32", "tensorShape": {"dim": [{"size": "1"}]}}}}}, {"name": "StatefulPartitionedCall/SINet/si_net_1/squeeze_separable_conv2d_2/sequential_1/squeeze_block/sequential/dense/Tensordot/concat_1/axis", "op": "Const", "attr": {"value": {"tensor": {"dtype": "DT_INT32", "tensorShape": {}}}, "dtype": {"type": "DT_INT32"}}}, {"name": "StatefulPartitionedCall/SINet/si_net_1/squeeze_separable_conv2d_2/sequential_1/squeeze_block/sequential/dense/BiasAdd/ReadVariableOp", "op": "Const", "attr": {"value": {"tensor": {"dtype": "DT_FLOAT", "tensorShape": {"dim": [{"size": "12"}]}}}, "dtype": {"type": "DT_FLOAT"}}}, {"name": "StatefulPartitionedCall/SINet/si_net_1/conv2d_34/normalization_36/p_re_lu_28/p_re_lu_29/Neg", "op": "Const", "attr": {"dtype": {"type": "DT_FLOAT"}, "value": {"tensor": {"dtype": "DT_FLOAT", "tensorShape": {"dim": [{"size": "1"}, {"size": "1"}, {"size": "12"}]}}}}}, {"name": "StatefulPartitionedCall/SINet/si_net_1/conv2d_34/conv2d/Conv2D/merged_input", "op": "Const", "attr": {"value": {"tensor": {"dtype": "DT_FLOAT", "tensorShape": {"dim": [{"size": "3"}, {"size": "3"}, {"size": "3"}, {"size": "12"}]}}}, "dtype": {"type": "DT_FLOAT"}}}, {"name": "StatefulPartitionedCall/SINet/si_net_1/conv2d_34/normalization_36/sync_batch_normalization_36/batchnorm/sub", "op": "Const", "attr": {"dtype": {"type": "DT_FLOAT"}, "value": {"tensor": {"dtype": "DT_FLOAT", "tensorShape": {"dim": [{"size": "12"}]}}}}}, {"name": "StatefulPartitionedCall/SINet/si_net_1/squeeze_separable_conv2d_2/sequential_1/conv2d_1/depthwise_conv2d/depthwise/ReadVariableOp", "op": "Const", "attr": {"dtype": {"type": "DT_FLOAT"}, "value": {"tensor": {"dtype": "DT_FLOAT", "tensorShape": {"dim": [{"size": "3"}, {"size": "3"}, {"size": "12"}, {"size": "1"}]}}}}}, {"name": "StatefulPartitionedCall/SINet/si_net_1/squeeze_separable_conv2d_2/sequential_1/conv2d_2/conv2d/Conv2D/merged_input", "op": "Const", "attr": {"dtype": {"type": "DT_FLOAT"}, "value": {"tensor": {"dtype": "DT_FLOAT", "tensorShape": {"dim": [{"size": "1"}, {"size": "1"}, {"size": "12"}, {"size": "16"}]}}}}}, {"name": "StatefulPartitionedCall/SINet/si_net_1/squeeze_separable_conv2d_2/sequential_1/conv2d_2/normalization/sync_batch_normalization/batchnorm/sub", "op": "Const", "attr": {"value": {"tensor": {"dtype": "DT_FLOAT", "tensorShape": {"dim": [{"size": "16"}]}}}, "dtype": {"type": "DT_FLOAT"}}}, {"name": "StatefulPartitionedCall/SINet/si_net_1/s2_module_10/conv2d_35/Const", "op": "Const", "attr": {"dtype": {"type": "DT_INT32"}, "value": {"tensor": {"dtype": "DT_INT32", "tensorShape": {"dim": [{"size": "2"}]}}}}}, {"name": "StatefulPartitionedCall/SINet/si_net_1/s2_module_10/conv2d_35/split/split_dim", "op": "Const", "attr": {"value": {"tensor": {"dtype": "DT_INT32", "tensorShape": {}}}, "dtype": {"type": "DT_INT32"}}}, {"name": "StatefulPartitionedCall/SINet/si_net_1/s2_module_10/conv2d_35/grouped_1/conv2d_4/Conv2D/ReadVariableOp", "op": "Const", "attr": {"value": {"tensor": {"dtype": "DT_FLOAT", "tensorShape": {"dim": [{"size": "1"}, {"size": "1"}, {"size": "8"}, {"size": "12"}]}}}, "dtype": {"type": "DT_FLOAT"}}}, {"name": "StatefulPartitionedCall/SINet/si_net_1/s2_module_10/conv2d_35/concat/axis", "op": "Const", "attr": {"dtype": {"type": "DT_INT32"}, "value": {"tensor": {"dtype": "DT_INT32", "tensorShape": {}}}}}, {"name": "StatefulPartitionedCall/SINet/si_net_1/s2_module_10/channel_shuffle_10/Reshape/shape", "op": "Const", "attr": {"value": {"tensor": {"dtype": "DT_INT32", "tensorShape": {"dim": [{"size": "5"}]}}}, "dtype": {"type": "DT_INT32"}}}, {"name": "StatefulPartitionedCall/SINet/si_net_1/s2_module_10/channel_shuffle_10/transpose/perm", "op": "Const", "attr": {"value": {"tensor": {"dtype": "DT_INT32", "tensorShape": {"dim": [{"size": "5"}]}}}, "dtype": {"type": "DT_INT32"}}}, {"name": "StatefulPartitionedCall/SINet/si_net_1/s2_module_10/channel_shuffle_10/Reshape_1/shape", "op": "Const", "attr": {"dtype": {"type": "DT_INT32"}, "value": {"tensor": {"dtype": "DT_INT32", "tensorShape": {"dim": [{"size": "4"}]}}}}}, {"name": "StatefulPartitionedCall/SINet/si_net_1/s2_module_10/s2_block_20/conv2d_7/depthwise_conv2d_1/depthwise/ReadVariableOp", "op": "Const", "attr": {"value": {"tensor": {"dtype": "DT_FLOAT", "tensorShape": {"dim": [{"size": "3"}, {"size": "3"}, {"size": "24"}, {"size": "1"}]}}}, "dtype": {"type": "DT_FLOAT"}}}, {"name": "StatefulPartitionedCall/SINet/si_net_1/s2_module_10/s2_block_20/conv2d_7/normalization_2/sync_batch_normalization_2/batchnorm/mul", "op": "Const", "attr": {"dtype": {"type": "DT_FLOAT"}, "value": {"tensor": {"dtype": "DT_FLOAT", "tensorShape": {"dim": [{"size": "24"}]}}}}}, {"name": "StatefulPartitionedCall/SINet/si_net_1/s2_module_10/s2_block_20/conv2d_7/normalization_2/sync_batch_normalization_2/batchnorm/sub", "op": "Const", "attr": {"value": {"tensor": {"dtype": "DT_FLOAT", "tensorShape": {"dim": [{"size": "24"}]}}}, "dtype": {"type": "DT_FLOAT"}}}, {"name": "StatefulPartitionedCall/SINet/si_net_1/s2_module_10/s2_block_20/conv2d_36/conv2d_8/Conv2D/merged_input", "op": "Const", "attr": {"value": {"tensor": {"dtype": "DT_FLOAT", "tensorShape": {"dim": [{"size": "1"}, {"size": "1"}, {"size": "24"}, {"size": "24"}]}}}, "dtype": {"type": "DT_FLOAT"}}}, {"name": "StatefulPartitionedCall/SINet/si_net_1/s2_module_10/s2_block_20/normalization_37/sync_batch_normalization_37/batchnorm/sub", "op": "Const", "attr": {"dtype": {"type": "DT_FLOAT"}, "value": {"tensor": {"dtype": "DT_FLOAT", "tensorShape": {"dim": [{"size": "24"}]}}}}}, {"name": "StatefulPartitionedCall/SINet/si_net_1/s2_module_10/concat/axis", "op": "Const", "attr": {"dtype": {"type": "DT_INT32"}, "value": {"tensor": {"dtype": "DT_INT32", "tensorShape": {}}}}}, {"name": "StatefulPartitionedCall/SINet/si_net_1/s2_module_10/normalization_39/sync_batch_normalization_39/batchnorm/mul", "op": "Const", "attr": {"dtype": {"type": "DT_FLOAT"}, "value": {"tensor": {"dtype": "DT_FLOAT", "tensorShape": {"dim": [{"size": "48"}]}}}}}, {"name": "StatefulPartitionedCall/SINet/si_net_1/s2_module_10/normalization_39/sync_batch_normalization_39/batchnorm/sub", "op": "Const", "attr": {"value": {"tensor": {"dtype": "DT_FLOAT", "tensorShape": {"dim": [{"size": "48"}]}}}, "dtype": {"type": "DT_FLOAT"}}}, {"name": "StatefulPartitionedCall/SINet/si_net_1/s2_module_11/conv2d_38/Const", "op": "Const", "attr": {"value": {"tensor": {"dtype": "DT_INT32", "tensorShape": {"dim": [{"size": "2"}]}}}, "dtype": {"type": "DT_INT32"}}}, {"name": "StatefulPartitionedCall/SINet/si_net_1/s2_module_11/conv2d_38/split/split_dim", "op": "Const", "attr": {"value": {"tensor": {"dtype": "DT_INT32", "tensorShape": {}}}, "dtype": {"type": "DT_INT32"}}}, {"name": "StatefulPartitionedCall/SINet/si_net_1/s2_module_11/conv2d_38/grouped_1/conv2d_10/Conv2D/ReadVariableOp", "op": "Const", "attr": {"value": {"tensor": {"dtype": "DT_FLOAT", "tensorShape": {"dim": [{"size": "1"}, {"size": "1"}, {"size": "24"}, {"size": "12"}]}}}, "dtype": {"type": "DT_FLOAT"}}}, {"name": "StatefulPartitionedCall/SINet/si_net_1/s2_module_11/conv2d_38/concat/axis", "op": "Const", "attr": {"dtype": {"type": "DT_INT32"}, "value": {"tensor": {"dtype": "DT_INT32", "tensorShape": {}}}}}, {"name": "StatefulPartitionedCall/SINet/si_net_1/s2_module_11/channel_shuffle_11/Reshape/shape", "op": "Const", "attr": {"dtype": {"type": "DT_INT32"}, "value": {"tensor": {"dtype": "DT_INT32", "tensorShape": {"dim": [{"size": "5"}]}}}}}, {"name": "StatefulPartitionedCall/SINet/si_net_1/s2_module_11/channel_shuffle_11/transpose/perm", "op": "Const", "attr": {"dtype": {"type": "DT_INT32"}, "value": {"tensor": {"dtype": "DT_INT32", "tensorShape": {"dim": [{"size": "5"}]}}}}}, {"name": "StatefulPartitionedCall/SINet/si_net_1/s2_module_11/channel_shuffle_11/Reshape_1/shape", "op": "Const", "attr": {"dtype": {"type": "DT_INT32"}, "value": {"tensor": {"dtype": "DT_INT32", "tensorShape": {"dim": [{"size": "4"}]}}}}}, {"name": "StatefulPartitionedCall/SINet/si_net_1/s2_module_11/s2_block_22/conv2d_13/depthwise_conv2d_3/depthwise/ReadVariableOp", "op": "Const", "attr": {"value": {"tensor": {"dtype": "DT_FLOAT", "tensorShape": {"dim": [{"size": "3"}, {"size": "3"}, {"size": "24"}, {"size": "1"}]}}}, "dtype": {"type": "DT_FLOAT"}}}, {"name": "StatefulPartitionedCall/SINet/si_net_1/s2_module_11/s2_block_22/conv2d_13/normalization_4/sync_batch_normalization_4/batchnorm/mul", "op": "Const", "attr": {"dtype": {"type": "DT_FLOAT"}, "value": {"tensor": {"dtype": "DT_FLOAT", "tensorShape": {"dim": [{"size": "24"}]}}}}}, {"name": "StatefulPartitionedCall/SINet/si_net_1/s2_module_11/s2_block_22/conv2d_13/normalization_4/sync_batch_normalization_4/batchnorm/sub", "op": "Const", "attr": {"dtype": {"type": "DT_FLOAT"}, "value": {"tensor": {"dtype": "DT_FLOAT", "tensorShape": {"dim": [{"size": "24"}]}}}}}, {"name": "StatefulPartitionedCall/SINet/si_net_1/s2_module_11/s2_block_22/conv2d_39/conv2d_14/Conv2D/merged_input", "op": "Const", "attr": {"dtype": {"type": "DT_FLOAT"}, "value": {"tensor": {"dtype": "DT_FLOAT", "tensorShape": {"dim": [{"size": "1"}, {"size": "1"}, {"size": "24"}, {"size": "24"}]}}}}}, {"name": "StatefulPartitionedCall/SINet/si_net_1/s2_module_11/s2_block_22/normalization_40/sync_batch_normalization_40/batchnorm/sub", "op": "Const", "attr": {"value": {"tensor": {"dtype": "DT_FLOAT", "tensorShape": {"dim": [{"size": "24"}]}}}, "dtype": {"type": "DT_FLOAT"}}}, {"name": "StatefulPartitionedCall/SINet/si_net_1/s2_module_11/concat/axis", "op": "Const", "attr": {"value": {"tensor": {"dtype": "DT_INT32", "tensorShape": {}}}, "dtype": {"type": "DT_INT32"}}}, {"name": "StatefulPartitionedCall/SINet/si_net_1/s2_module_11/normalization_42/sync_batch_normalization_42/batchnorm/mul", "op": "Const", "attr": {"value": {"tensor": {"dtype": "DT_FLOAT", "tensorShape": {"dim": [{"size": "48"}]}}}, "dtype": {"type": "DT_FLOAT"}}}, {"name": "StatefulPartitionedCall/SINet/si_net_1/s2_module_11/normalization_42/sync_batch_normalization_42/batchnorm/sub", "op": "Const", "attr": {"dtype": {"type": "DT_FLOAT"}, "value": {"tensor": {"dtype": "DT_FLOAT", "tensorShape": {"dim": [{"size": "48"}]}}}}}, {"name": "StatefulPartitionedCall/SINet/si_net_1/concat/axis", "op": "Const", "attr": {"dtype": {"type": "DT_INT32"}, "value": {"tensor": {"dtype": "DT_INT32", "tensorShape": {}}}}}, {"name": "StatefulPartitionedCall/SINet/si_net_1/normalization_43/sync_batch_normalization_43/batchnorm/mul", "op": "Const", "attr": {"dtype": {"type": "DT_FLOAT"}, "value": {"tensor": {"dtype": "DT_FLOAT", "tensorShape": {"dim": [{"size": "64"}]}}}}}, {"name": "StatefulPartitionedCall/SINet/si_net_1/normalization_43/sync_batch_normalization_43/batchnorm/sub", "op": "Const", "attr": {"dtype": {"type": "DT_FLOAT"}, "value": {"tensor": {"dtype": "DT_FLOAT", "tensorShape": {"dim": [{"size": "64"}]}}}}}, {"name": "StatefulPartitionedCall/SINet/si_net_1/squeeze_separable_conv2d_3/sequential_3/conv2d_15/depthwise_conv2d/depthwise/ReadVariableOp", "op": "Const", "attr": {"dtype": {"type": "DT_FLOAT"}, "value": {"tensor": {"dtype": "DT_FLOAT", "tensorShape": {"dim": [{"size": "3"}, {"size": "3"}, {"size": "64"}, {"size": "1"}]}}}}}, {"name": "StatefulPartitionedCall/SINet/si_net_1/squeeze_separable_conv2d_3/sequential_3/conv2d_16/conv2d/Conv2D/merged_input", "op": "Const", "attr": {"dtype": {"type": "DT_FLOAT"}, "value": {"tensor": {"dtype": "DT_FLOAT", "tensorShape": {"dim": [{"size": "1"}, {"size": "1"}, {"size": "64"}, {"size": "48"}]}}}}}, {"name": "StatefulPartitionedCall/SINet/si_net_1/squeeze_separable_conv2d_3/sequential_3/conv2d_16/normalization_5/sync_batch_normalization_5/batchnorm/sub", "op": "Const", "attr": {"dtype": {"type": "DT_FLOAT"}, "value": {"tensor": {"dtype": "DT_FLOAT", "tensorShape": {"dim": [{"size": "48"}]}}}}}, {"name": "StatefulPartitionedCall/SINet/si_net_1/s2_module_12/conv2d_41/Const", "op": "Const", "attr": {"value": {"tensor": {"dtype": "DT_INT32", "tensorShape": {"dim": [{"size": "2"}]}}}, "dtype": {"type": "DT_INT32"}}}, {"name": "StatefulPartitionedCall/SINet/si_net_1/s2_module_12/conv2d_41/split/split_dim", "op": "Const", "attr": {"dtype": {"type": "DT_INT32"}, "value": {"tensor": {"dtype": "DT_INT32", "tensorShape": {}}}}}, {"name": "StatefulPartitionedCall/SINet/si_net_1/s2_module_12/conv2d_41/grouped_1/conv2d_18/Conv2D/ReadVariableOp", "op": "Const", "attr": {"value": {"tensor": {"dtype": "DT_FLOAT", "tensorShape": {"dim": [{"size": "1"}, {"size": "1"}, {"size": "24"}, {"size": "24"}]}}}, "dtype": {"type": "DT_FLOAT"}}}, {"name": "StatefulPartitionedCall/SINet/si_net_1/s2_module_12/conv2d_41/concat/axis", "op": "Const", "attr": {"dtype": {"type": "DT_INT32"}, "value": {"tensor": {"dtype": "DT_INT32", "tensorShape": {}}}}}, {"name": "StatefulPartitionedCall/SINet/si_net_1/s2_module_12/channel_shuffle_12/Reshape/shape", "op": "Const", "attr": {"value": {"tensor": {"dtype": "DT_INT32", "tensorShape": {"dim": [{"size": "5"}]}}}, "dtype": {"type": "DT_INT32"}}}, {"name": "StatefulPartitionedCall/SINet/si_net_1/s2_module_12/channel_shuffle_12/transpose/perm", "op": "Const", "attr": {"value": {"tensor": {"dtype": "DT_INT32", "tensorShape": {"dim": [{"size": "5"}]}}}, "dtype": {"type": "DT_INT32"}}}, {"name": "StatefulPartitionedCall/SINet/si_net_1/s2_module_12/channel_shuffle_12/Reshape_1/shape", "op": "Const", "attr": {"dtype": {"type": "DT_INT32"}, "value": {"tensor": {"dtype": "DT_INT32", "tensorShape": {"dim": [{"size": "4"}]}}}}}, {"name": "StatefulPartitionedCall/SINet/si_net_1/s2_module_12/s2_block_24/conv2d_21/depthwise_conv2d_5/depthwise/ReadVariableOp", "op": "Const", "attr": {"dtype": {"type": "DT_FLOAT"}, "value": {"tensor": {"dtype": "DT_FLOAT", "tensorShape": {"dim": [{"size": "3"}, {"size": "3"}, {"size": "48"}, {"size": "1"}]}}}}}, {"name": "StatefulPartitionedCall/SINet/si_net_1/s2_module_12/s2_block_24/conv2d_21/normalization_7/sync_batch_normalization_7/batchnorm/mul", "op": "Const", "attr": {"dtype": {"type": "DT_FLOAT"}, "value": {"tensor": {"dtype": "DT_FLOAT", "tensorShape": {"dim": [{"size": "48"}]}}}}}, {"name": "StatefulPartitionedCall/SINet/si_net_1/s2_module_12/s2_block_24/conv2d_21/normalization_7/sync_batch_normalization_7/batchnorm/sub", "op": "Const", "attr": {"value": {"tensor": {"dtype": "DT_FLOAT", "tensorShape": {"dim": [{"size": "48"}]}}}, "dtype": {"type": "DT_FLOAT"}}}, {"name": "StatefulPartitionedCall/SINet/si_net_1/s2_module_12/s2_block_24/conv2d_42/conv2d_22/Conv2D/merged_input", "op": "Const", "attr": {"value": {"tensor": {"dtype": "DT_FLOAT", "tensorShape": {"dim": [{"size": "1"}, {"size": "1"}, {"size": "48"}, {"size": "48"}]}}}, "dtype": {"type": "DT_FLOAT"}}}, {"name": "StatefulPartitionedCall/SINet/si_net_1/s2_module_12/s2_block_24/normalization_44/sync_batch_normalization_44/batchnorm/sub", "op": "Const", "attr": {"value": {"tensor": {"dtype": "DT_FLOAT", "tensorShape": {"dim": [{"size": "48"}]}}}, "dtype": {"type": "DT_FLOAT"}}}, {"name": "StatefulPartitionedCall/SINet/si_net_1/s2_module_12/concat/axis", "op": "Const", "attr": {"value": {"tensor": {"dtype": "DT_INT32", "tensorShape": {}}}, "dtype": {"type": "DT_INT32"}}}, {"name": "StatefulPartitionedCall/SINet/si_net_1/s2_module_12/normalization_46/sync_batch_normalization_46/batchnorm/mul", "op": "Const", "attr": {"dtype": {"type": "DT_FLOAT"}, "value": {"tensor": {"dtype": "DT_FLOAT", "tensorShape": {"dim": [{"size": "96"}]}}}}}, {"name": "StatefulPartitionedCall/SINet/si_net_1/s2_module_12/normalization_46/sync_batch_normalization_46/batchnorm/sub", "op": "Const", "attr": {"dtype": {"type": "DT_FLOAT"}, "value": {"tensor": {"dtype": "DT_FLOAT", "tensorShape": {"dim": [{"size": "96"}]}}}}}, {"name": "StatefulPartitionedCall/SINet/si_net_1/s2_module_13/conv2d_44/Const", "op": "Const", "attr": {"dtype": {"type": "DT_INT32"}, "value": {"tensor": {"dtype": "DT_INT32", "tensorShape": {"dim": [{"size": "2"}]}}}}}, {"name": "StatefulPartitionedCall/SINet/si_net_1/s2_module_13/conv2d_44/split/split_dim", "op": "Const", "attr": {"dtype": {"type": "DT_INT32"}, "value": {"tensor": {"dtype": "DT_INT32", "tensorShape": {}}}}}, {"name": "StatefulPartitionedCall/SINet/si_net_1/s2_module_13/conv2d_44/grouped_1/conv2d_24/Conv2D/ReadVariableOp", "op": "Const", "attr": {"dtype": {"type": "DT_FLOAT"}, "value": {"tensor": {"dtype": "DT_FLOAT", "tensorShape": {"dim": [{"size": "1"}, {"size": "1"}, {"size": "48"}, {"size": "24"}]}}}}}, {"name": "StatefulPartitionedCall/SINet/si_net_1/s2_module_13/conv2d_44/concat/axis", "op": "Const", "attr": {"dtype": {"type": "DT_INT32"}, "value": {"tensor": {"dtype": "DT_INT32", "tensorShape": {}}}}}, {"name": "StatefulPartitionedCall/SINet/si_net_1/s2_module_13/channel_shuffle_13/Reshape/shape", "op": "Const", "attr": {"value": {"tensor": {"dtype": "DT_INT32", "tensorShape": {"dim": [{"size": "5"}]}}}, "dtype": {"type": "DT_INT32"}}}, {"name": "StatefulPartitionedCall/SINet/si_net_1/s2_module_13/channel_shuffle_13/transpose/perm", "op": "Const", "attr": {"dtype": {"type": "DT_INT32"}, "value": {"tensor": {"dtype": "DT_INT32", "tensorShape": {"dim": [{"size": "5"}]}}}}}, {"name": "StatefulPartitionedCall/SINet/si_net_1/s2_module_13/channel_shuffle_13/Reshape_1/shape", "op": "Const", "attr": {"value": {"tensor": {"dtype": "DT_INT32", "tensorShape": {"dim": [{"size": "4"}]}}}, "dtype": {"type": "DT_INT32"}}}, {"name": "StatefulPartitionedCall/SINet/si_net_1/s2_module_13/s2_block_26/conv2d_27/depthwise_conv2d_7/depthwise/ReadVariableOp", "op": "Const", "attr": {"dtype": {"type": "DT_FLOAT"}, "value": {"tensor": {"dtype": "DT_FLOAT", "tensorShape": {"dim": [{"size": "3"}, {"size": "3"}, {"size": "48"}, {"size": "1"}]}}}}}, {"name": "StatefulPartitionedCall/SINet/si_net_1/s2_module_13/s2_block_26/conv2d_27/normalization_9/sync_batch_normalization_9/batchnorm/mul", "op": "Const", "attr": {"dtype": {"type": "DT_FLOAT"}, "value": {"tensor": {"dtype": "DT_FLOAT", "tensorShape": {"dim": [{"size": "48"}]}}}}}, {"name": "StatefulPartitionedCall/SINet/si_net_1/s2_module_13/s2_block_26/conv2d_27/normalization_9/sync_batch_normalization_9/batchnorm/sub", "op": "Const", "attr": {"value": {"tensor": {"dtype": "DT_FLOAT", "tensorShape": {"dim": [{"size": "48"}]}}}, "dtype": {"type": "DT_FLOAT"}}}, {"name": "StatefulPartitionedCall/SINet/si_net_1/s2_module_13/s2_block_26/conv2d_45/conv2d_28/Conv2D/merged_input", "op": "Const", "attr": {"dtype": {"type": "DT_FLOAT"}, "value": {"tensor": {"dtype": "DT_FLOAT", "tensorShape": {"dim": [{"size": "1"}, {"size": "1"}, {"size": "48"}, {"size": "48"}]}}}}}, {"name": "StatefulPartitionedCall/SINet/si_net_1/s2_module_13/s2_block_26/normalization_47/sync_batch_normalization_47/batchnorm/sub", "op": "Const", "attr": {"value": {"tensor": {"dtype": "DT_FLOAT", "tensorShape": {"dim": [{"size": "48"}]}}}, "dtype": {"type": "DT_FLOAT"}}}, {"name": "StatefulPartitionedCall/SINet/si_net_1/s2_module_13/concat/axis", "op": "Const", "attr": {"dtype": {"type": "DT_INT32"}, "value": {"tensor": {"dtype": "DT_INT32", "tensorShape": {}}}}}, {"name": "StatefulPartitionedCall/SINet/si_net_1/s2_module_13/normalization_49/sync_batch_normalization_49/batchnorm/mul", "op": "Const", "attr": {"dtype": {"type": "DT_FLOAT"}, "value": {"tensor": {"dtype": "DT_FLOAT", "tensorShape": {"dim": [{"size": "96"}]}}}}}, {"name": "StatefulPartitionedCall/SINet/si_net_1/s2_module_13/normalization_49/sync_batch_normalization_49/batchnorm/sub", "op": "Const", "attr": {"dtype": {"type": "DT_FLOAT"}, "value": {"tensor": {"dtype": "DT_FLOAT", "tensorShape": {"dim": [{"size": "96"}]}}}}}, {"name": "StatefulPartitionedCall/SINet/si_net_1/s2_module_14/conv2d_47/Const", "op": "Const", "attr": {"dtype": {"type": "DT_INT32"}, "value": {"tensor": {"dtype": "DT_INT32", "tensorShape": {"dim": [{"size": "2"}]}}}}}, {"name": "StatefulPartitionedCall/SINet/si_net_1/s2_module_14/conv2d_47/split/split_dim", "op": "Const", "attr": {"value": {"tensor": {"dtype": "DT_INT32", "tensorShape": {}}}, "dtype": {"type": "DT_INT32"}}}, {"name": "StatefulPartitionedCall/SINet/si_net_1/s2_module_14/conv2d_47/grouped_1/conv2d_30/Conv2D/ReadVariableOp", "op": "Const", "attr": {"value": {"tensor": {"dtype": "DT_FLOAT", "tensorShape": {"dim": [{"size": "1"}, {"size": "1"}, {"size": "48"}, {"size": "24"}]}}}, "dtype": {"type": "DT_FLOAT"}}}, {"name": "StatefulPartitionedCall/SINet/si_net_1/s2_module_14/conv2d_47/concat/axis", "op": "Const", "attr": {"dtype": {"type": "DT_INT32"}, "value": {"tensor": {"dtype": "DT_INT32", "tensorShape": {}}}}}, {"name": "StatefulPartitionedCall/SINet/si_net_1/s2_module_14/channel_shuffle_14/Reshape/shape", "op": "Const", "attr": {"dtype": {"type": "DT_INT32"}, "value": {"tensor": {"dtype": "DT_INT32", "tensorShape": {"dim": [{"size": "5"}]}}}}}, {"name": "StatefulPartitionedCall/SINet/si_net_1/s2_module_14/channel_shuffle_14/transpose/perm", "op": "Const", "attr": {"dtype": {"type": "DT_INT32"}, "value": {"tensor": {"dtype": "DT_INT32", "tensorShape": {"dim": [{"size": "5"}]}}}}}, {"name": "StatefulPartitionedCall/SINet/si_net_1/s2_module_14/channel_shuffle_14/Reshape_1/shape", "op": "Const", "attr": {"value": {"tensor": {"dtype": "DT_INT32", "tensorShape": {"dim": [{"size": "4"}]}}}, "dtype": {"type": "DT_INT32"}}}, {"name": "StatefulPartitionedCall/SINet/si_net_1/s2_module_14/s2_block_28/conv2d_33/depthwise_conv2d_9/depthwise/ReadVariableOp", "op": "Const", "attr": {"dtype": {"type": "DT_FLOAT"}, "value": {"tensor": {"dtype": "DT_FLOAT", "tensorShape": {"dim": [{"size": "5"}, {"size": "5"}, {"size": "48"}, {"size": "1"}]}}}}}, {"name": "StatefulPartitionedCall/SINet/si_net_1/s2_module_14/s2_block_28/conv2d_33/normalization_11/sync_batch_normalization_11/batchnorm/mul", "op": "Const", "attr": {"value": {"tensor": {"dtype": "DT_FLOAT", "tensorShape": {"dim": [{"size": "48"}]}}}, "dtype": {"type": "DT_FLOAT"}}}, {"name": "StatefulPartitionedCall/SINet/si_net_1/s2_module_14/s2_block_28/conv2d_33/normalization_11/sync_batch_normalization_11/batchnorm/sub", "op": "Const", "attr": {"value": {"tensor": {"dtype": "DT_FLOAT", "tensorShape": {"dim": [{"size": "48"}]}}}, "dtype": {"type": "DT_FLOAT"}}}, {"name": "StatefulPartitionedCall/SINet/si_net_1/s2_module_14/s2_block_28/conv2d_48/conv2d_34/Conv2D/merged_input", "op": "Const", "attr": {"dtype": {"type": "DT_FLOAT"}, "value": {"tensor": {"dtype": "DT_FLOAT", "tensorShape": {"dim": [{"size": "1"}, {"size": "1"}, {"size": "48"}, {"size": "48"}]}}}}}, {"name": "StatefulPartitionedCall/SINet/si_net_1/s2_module_14/s2_block_28/normalization_50/sync_batch_normalization_50/batchnorm/sub", "op": "Const", "attr": {"value": {"tensor": {"dtype": "DT_FLOAT", "tensorShape": {"dim": [{"size": "48"}]}}}, "dtype": {"type": "DT_FLOAT"}}}, {"name": "StatefulPartitionedCall/SINet/si_net_1/s2_module_14/concat/axis", "op": "Const", "attr": {"value": {"tensor": {"dtype": "DT_INT32", "tensorShape": {}}}, "dtype": {"type": "DT_INT32"}}}, {"name": "StatefulPartitionedCall/SINet/si_net_1/s2_module_14/normalization_52/sync_batch_normalization_52/batchnorm/mul", "op": "Const", "attr": {"value": {"tensor": {"dtype": "DT_FLOAT", "tensorShape": {"dim": [{"size": "96"}]}}}, "dtype": {"type": "DT_FLOAT"}}}, {"name": "StatefulPartitionedCall/SINet/si_net_1/s2_module_14/normalization_52/sync_batch_normalization_52/batchnorm/sub", "op": "Const", "attr": {"value": {"tensor": {"dtype": "DT_FLOAT", "tensorShape": {"dim": [{"size": "96"}]}}}, "dtype": {"type": "DT_FLOAT"}}}, {"name": "StatefulPartitionedCall/SINet/si_net_1/s2_module_15/conv2d_50/Const", "op": "Const", "attr": {"dtype": {"type": "DT_INT32"}, "value": {"tensor": {"dtype": "DT_INT32", "tensorShape": {"dim": [{"size": "2"}]}}}}}, {"name": "StatefulPartitionedCall/SINet/si_net_1/s2_module_15/conv2d_50/split/split_dim", "op": "Const", "attr": {"value": {"tensor": {"dtype": "DT_INT32", "tensorShape": {}}}, "dtype": {"type": "DT_INT32"}}}, {"name": "StatefulPartitionedCall/SINet/si_net_1/s2_module_15/conv2d_50/grouped_1/conv2d_36/Conv2D/ReadVariableOp", "op": "Const", "attr": {"value": {"tensor": {"dtype": "DT_FLOAT", "tensorShape": {"dim": [{"size": "1"}, {"size": "1"}, {"size": "48"}, {"size": "24"}]}}}, "dtype": {"type": "DT_FLOAT"}}}, {"name": "StatefulPartitionedCall/SINet/si_net_1/s2_module_15/conv2d_50/concat/axis", "op": "Const", "attr": {"value": {"tensor": {"dtype": "DT_INT32", "tensorShape": {}}}, "dtype": {"type": "DT_INT32"}}}, {"name": "StatefulPartitionedCall/SINet/si_net_1/s2_module_15/channel_shuffle_15/Reshape/shape", "op": "Const", "attr": {"dtype": {"type": "DT_INT32"}, "value": {"tensor": {"dtype": "DT_INT32", "tensorShape": {"dim": [{"size": "5"}]}}}}}, {"name": "StatefulPartitionedCall/SINet/si_net_1/s2_module_15/channel_shuffle_15/transpose/perm", "op": "Const", "attr": {"value": {"tensor": {"dtype": "DT_INT32", "tensorShape": {"dim": [{"size": "5"}]}}}, "dtype": {"type": "DT_INT32"}}}, {"name": "StatefulPartitionedCall/SINet/si_net_1/s2_module_15/channel_shuffle_15/Reshape_1/shape", "op": "Const", "attr": {"dtype": {"type": "DT_INT32"}, "value": {"tensor": {"dtype": "DT_INT32", "tensorShape": {"dim": [{"size": "4"}]}}}}}, {"name": "StatefulPartitionedCall/SINet/si_net_1/s2_module_15/s2_block_30/conv2d_39/depthwise_conv2d_11/depthwise/ReadVariableOp", "op": "Const", "attr": {"dtype": {"type": "DT_FLOAT"}, "value": {"tensor": {"dtype": "DT_FLOAT", "tensorShape": {"dim": [{"size": "5"}, {"size": "5"}, {"size": "48"}, {"size": "1"}]}}}}}, {"name": "StatefulPartitionedCall/SINet/si_net_1/s2_module_15/s2_block_30/conv2d_39/normalization_13/sync_batch_normalization_13/batchnorm/mul", "op": "Const", "attr": {"dtype": {"type": "DT_FLOAT"}, "value": {"tensor": {"dtype": "DT_FLOAT", "tensorShape": {"dim": [{"size": "48"}]}}}}}, {"name": "StatefulPartitionedCall/SINet/si_net_1/s2_module_15/s2_block_30/conv2d_39/normalization_13/sync_batch_normalization_13/batchnorm/sub", "op": "Const", "attr": {"dtype": {"type": "DT_FLOAT"}, "value": {"tensor": {"dtype": "DT_FLOAT", "tensorShape": {"dim": [{"size": "48"}]}}}}}, {"name": "StatefulPartitionedCall/SINet/si_net_1/s2_module_15/s2_block_30/conv2d_51/conv2d_40/Conv2D/ReadVariableOp", "op": "Const", "attr": {"dtype": {"type": "DT_FLOAT"}, "value": {"tensor": {"dtype": "DT_FLOAT", "tensorShape": {"dim": [{"size": "1"}, {"size": "1"}, {"size": "48"}, {"size": "48"}]}}}}}, {"name": "StatefulPartitionedCall/SINet/si_net_1/s2_module_15/s2_block_30/upsampling_bilinear2d_7/resize/size", "op": "Const", "attr": {"dtype": {"type": "DT_INT32"}, "value": {"tensor": {"dtype": "DT_INT32", "tensorShape": {"dim": [{"size": "2"}]}}}}}, {"name": "StatefulPartitionedCall/SINet/si_net_1/s2_module_15/s2_block_30/normalization_53/sync_batch_normalization_53/batchnorm/mul", "op": "Const", "attr": {"value": {"tensor": {"dtype": "DT_FLOAT", "tensorShape": {"dim": [{"size": "48"}]}}}, "dtype": {"type": "DT_FLOAT"}}}, {"name": "StatefulPartitionedCall/SINet/si_net_1/s2_module_15/s2_block_30/normalization_53/sync_batch_normalization_53/batchnorm/sub", "op": "Const", "attr": {"value": {"tensor": {"dtype": "DT_FLOAT", "tensorShape": {"dim": [{"size": "48"}]}}}, "dtype": {"type": "DT_FLOAT"}}}, {"name": "StatefulPartitionedCall/SINet/si_net_1/s2_module_15/concat/axis", "op": "Const", "attr": {"dtype": {"type": "DT_INT32"}, "value": {"tensor": {"dtype": "DT_INT32", "tensorShape": {}}}}}, {"name": "StatefulPartitionedCall/SINet/si_net_1/s2_module_15/normalization_55/sync_batch_normalization_55/batchnorm/mul", "op": "Const", "attr": {"value": {"tensor": {"dtype": "DT_FLOAT", "tensorShape": {"dim": [{"size": "96"}]}}}, "dtype": {"type": "DT_FLOAT"}}}, {"name": "StatefulPartitionedCall/SINet/si_net_1/s2_module_15/normalization_55/sync_batch_normalization_55/batchnorm/sub", "op": "Const", "attr": {"dtype": {"type": "DT_FLOAT"}, "value": {"tensor": {"dtype": "DT_FLOAT", "tensorShape": {"dim": [{"size": "96"}]}}}}}, {"name": "StatefulPartitionedCall/SINet/si_net_1/s2_module_16/conv2d_53/Const", "op": "Const", "attr": {"dtype": {"type": "DT_INT32"}, "value": {"tensor": {"dtype": "DT_INT32", "tensorShape": {"dim": [{"size": "2"}]}}}}}, {"name": "StatefulPartitionedCall/SINet/si_net_1/s2_module_16/conv2d_53/split/split_dim", "op": "Const", "attr": {"value": {"tensor": {"dtype": "DT_INT32", "tensorShape": {}}}, "dtype": {"type": "DT_INT32"}}}, {"name": "StatefulPartitionedCall/SINet/si_net_1/s2_module_16/conv2d_53/grouped_1/conv2d_42/Conv2D/ReadVariableOp", "op": "Const", "attr": {"value": {"tensor": {"dtype": "DT_FLOAT", "tensorShape": {"dim": [{"size": "1"}, {"size": "1"}, {"size": "48"}, {"size": "24"}]}}}, "dtype": {"type": "DT_FLOAT"}}}, {"name": "StatefulPartitionedCall/SINet/si_net_1/s2_module_16/conv2d_53/concat/axis", "op": "Const", "attr": {"dtype": {"type": "DT_INT32"}, "value": {"tensor": {"dtype": "DT_INT32", "tensorShape": {}}}}}, {"name": "StatefulPartitionedCall/SINet/si_net_1/s2_module_16/channel_shuffle_16/Reshape/shape", "op": "Const", "attr": {"value": {"tensor": {"dtype": "DT_INT32", "tensorShape": {"dim": [{"size": "5"}]}}}, "dtype": {"type": "DT_INT32"}}}, {"name": "StatefulPartitionedCall/SINet/si_net_1/s2_module_16/channel_shuffle_16/transpose/perm", "op": "Const", "attr": {"dtype": {"type": "DT_INT32"}, "value": {"tensor": {"dtype": "DT_INT32", "tensorShape": {"dim": [{"size": "5"}]}}}}}, {"name": "StatefulPartitionedCall/SINet/si_net_1/s2_module_16/channel_shuffle_16/Reshape_1/shape", "op": "Const", "attr": {"dtype": {"type": "DT_INT32"}, "value": {"tensor": {"dtype": "DT_INT32", "tensorShape": {"dim": [{"size": "4"}]}}}}}, {"name": "StatefulPartitionedCall/SINet/si_net_1/s2_module_16/s2_block_32/conv2d_45/depthwise_conv2d_13/depthwise/ReadVariableOp", "op": "Const", "attr": {"dtype": {"type": "DT_FLOAT"}, "value": {"tensor": {"dtype": "DT_FLOAT", "tensorShape": {"dim": [{"size": "3"}, {"size": "3"}, {"size": "48"}, {"size": "1"}]}}}}}, {"name": "StatefulPartitionedCall/SINet/si_net_1/s2_module_16/s2_block_32/conv2d_45/normalization_15/sync_batch_normalization_15/batchnorm/mul", "op": "Const", "attr": {"dtype": {"type": "DT_FLOAT"}, "value": {"tensor": {"dtype": "DT_FLOAT", "tensorShape": {"dim": [{"size": "48"}]}}}}}, {"name": "StatefulPartitionedCall/SINet/si_net_1/s2_module_16/s2_block_32/conv2d_45/normalization_15/sync_batch_normalization_15/batchnorm/sub", "op": "Const", "attr": {"value": {"tensor": {"dtype": "DT_FLOAT", "tensorShape": {"dim": [{"size": "48"}]}}}, "dtype": {"type": "DT_FLOAT"}}}, {"name": "StatefulPartitionedCall/SINet/si_net_1/s2_module_16/s2_block_32/conv2d_54/conv2d_46/Conv2D/merged_input", "op": "Const", "attr": {"value": {"tensor": {"dtype": "DT_FLOAT", "tensorShape": {"dim": [{"size": "1"}, {"size": "1"}, {"size": "48"}, {"size": "48"}]}}}, "dtype": {"type": "DT_FLOAT"}}}, {"name": "StatefulPartitionedCall/SINet/si_net_1/s2_module_16/s2_block_32/normalization_56/sync_batch_normalization_56/batchnorm/sub", "op": "Const", "attr": {"value": {"tensor": {"dtype": "DT_FLOAT", "tensorShape": {"dim": [{"size": "48"}]}}}, "dtype": {"type": "DT_FLOAT"}}}, {"name": "StatefulPartitionedCall/SINet/si_net_1/s2_module_16/concat/axis", "op": "Const", "attr": {"value": {"tensor": {"dtype": "DT_INT32", "tensorShape": {}}}, "dtype": {"type": "DT_INT32"}}}, {"name": "StatefulPartitionedCall/SINet/si_net_1/s2_module_16/normalization_58/sync_batch_normalization_58/batchnorm/mul", "op": "Const", "attr": {"value": {"tensor": {"dtype": "DT_FLOAT", "tensorShape": {"dim": [{"size": "96"}]}}}, "dtype": {"type": "DT_FLOAT"}}}, {"name": "StatefulPartitionedCall/SINet/si_net_1/s2_module_16/normalization_58/sync_batch_normalization_58/batchnorm/sub", "op": "Const", "attr": {"value": {"tensor": {"dtype": "DT_FLOAT", "tensorShape": {"dim": [{"size": "96"}]}}}, "dtype": {"type": "DT_FLOAT"}}}, {"name": "StatefulPartitionedCall/SINet/si_net_1/s2_module_17/conv2d_56/Const", "op": "Const", "attr": {"value": {"tensor": {"dtype": "DT_INT32", "tensorShape": {"dim": [{"size": "2"}]}}}, "dtype": {"type": "DT_INT32"}}}, {"name": "StatefulPartitionedCall/SINet/si_net_1/s2_module_17/conv2d_56/split/split_dim", "op": "Const", "attr": {"dtype": {"type": "DT_INT32"}, "value": {"tensor": {"dtype": "DT_INT32", "tensorShape": {}}}}}, {"name": "StatefulPartitionedCall/SINet/si_net_1/s2_module_17/conv2d_56/grouped_1/conv2d_48/Conv2D/ReadVariableOp", "op": "Const", "attr": {"value": {"tensor": {"dtype": "DT_FLOAT", "tensorShape": {"dim": [{"size": "1"}, {"size": "1"}, {"size": "48"}, {"size": "24"}]}}}, "dtype": {"type": "DT_FLOAT"}}}, {"name": "StatefulPartitionedCall/SINet/si_net_1/s2_module_17/conv2d_56/concat/axis", "op": "Const", "attr": {"dtype": {"type": "DT_INT32"}, "value": {"tensor": {"dtype": "DT_INT32", "tensorShape": {}}}}}, {"name": "StatefulPartitionedCall/SINet/si_net_1/s2_module_17/channel_shuffle_17/Reshape/shape", "op": "Const", "attr": {"value": {"tensor": {"dtype": "DT_INT32", "tensorShape": {"dim": [{"size": "5"}]}}}, "dtype": {"type": "DT_INT32"}}}, {"name": "StatefulPartitionedCall/SINet/si_net_1/s2_module_17/channel_shuffle_17/transpose/perm", "op": "Const", "attr": {"value": {"tensor": {"dtype": "DT_INT32", "tensorShape": {"dim": [{"size": "5"}]}}}, "dtype": {"type": "DT_INT32"}}}, {"name": "StatefulPartitionedCall/SINet/si_net_1/s2_module_17/channel_shuffle_17/Reshape_1/shape", "op": "Const", "attr": {"value": {"tensor": {"dtype": "DT_INT32", "tensorShape": {"dim": [{"size": "4"}]}}}, "dtype": {"type": "DT_INT32"}}}, {"name": "StatefulPartitionedCall/SINet/si_net_1/s2_module_17/s2_block_34/conv2d_51/depthwise_conv2d_15/depthwise/ReadVariableOp", "op": "Const", "attr": {"dtype": {"type": "DT_FLOAT"}, "value": {"tensor": {"dtype": "DT_FLOAT", "tensorShape": {"dim": [{"size": "5"}, {"size": "5"}, {"size": "48"}, {"size": "1"}]}}}}}, {"name": "StatefulPartitionedCall/SINet/si_net_1/s2_module_17/s2_block_34/conv2d_51/normalization_17/sync_batch_normalization_17/batchnorm/mul", "op": "Const", "attr": {"value": {"tensor": {"dtype": "DT_FLOAT", "tensorShape": {"dim": [{"size": "48"}]}}}, "dtype": {"type": "DT_FLOAT"}}}, {"name": "StatefulPartitionedCall/SINet/si_net_1/s2_module_17/s2_block_34/conv2d_51/normalization_17/sync_batch_normalization_17/batchnorm/sub", "op": "Const", "attr": {"value": {"tensor": {"dtype": "DT_FLOAT", "tensorShape": {"dim": [{"size": "48"}]}}}, "dtype": {"type": "DT_FLOAT"}}}, {"name": "StatefulPartitionedCall/SINet/si_net_1/s2_module_17/s2_block_34/conv2d_57/conv2d_52/Conv2D/merged_input", "op": "Const", "attr": {"dtype": {"type": "DT_FLOAT"}, "value": {"tensor": {"dtype": "DT_FLOAT", "tensorShape": {"dim": [{"size": "1"}, {"size": "1"}, {"size": "48"}, {"size": "48"}]}}}}}, {"name": "StatefulPartitionedCall/SINet/si_net_1/s2_module_17/s2_block_34/normalization_59/sync_batch_normalization_59/batchnorm/sub", "op": "Const", "attr": {"value": {"tensor": {"dtype": "DT_FLOAT", "tensorShape": {"dim": [{"size": "48"}]}}}, "dtype": {"type": "DT_FLOAT"}}}, {"name": "StatefulPartitionedCall/SINet/si_net_1/s2_module_17/concat/axis", "op": "Const", "attr": {"dtype": {"type": "DT_INT32"}, "value": {"tensor": {"dtype": "DT_INT32", "tensorShape": {}}}}}, {"name": "StatefulPartitionedCall/SINet/si_net_1/s2_module_17/normalization_61/sync_batch_normalization_61/batchnorm/mul", "op": "Const", "attr": {"dtype": {"type": "DT_FLOAT"}, "value": {"tensor": {"dtype": "DT_FLOAT", "tensorShape": {"dim": [{"size": "96"}]}}}}}, {"name": "StatefulPartitionedCall/SINet/si_net_1/s2_module_17/normalization_61/sync_batch_normalization_61/batchnorm/sub", "op": "Const", "attr": {"dtype": {"type": "DT_FLOAT"}, "value": {"tensor": {"dtype": "DT_FLOAT", "tensorShape": {"dim": [{"size": "96"}]}}}}}, {"name": "StatefulPartitionedCall/SINet/si_net_1/s2_module_18/conv2d_59/Const", "op": "Const", "attr": {"value": {"tensor": {"dtype": "DT_INT32", "tensorShape": {"dim": [{"size": "2"}]}}}, "dtype": {"type": "DT_INT32"}}}, {"name": "StatefulPartitionedCall/SINet/si_net_1/s2_module_18/conv2d_59/split/split_dim", "op": "Const", "attr": {"dtype": {"type": "DT_INT32"}, "value": {"tensor": {"dtype": "DT_INT32", "tensorShape": {}}}}}, {"name": "StatefulPartitionedCall/SINet/si_net_1/s2_module_18/conv2d_59/grouped_1/conv2d_54/Conv2D/ReadVariableOp", "op": "Const", "attr": {"dtype": {"type": "DT_FLOAT"}, "value": {"tensor": {"dtype": "DT_FLOAT", "tensorShape": {"dim": [{"size": "1"}, {"size": "1"}, {"size": "48"}, {"size": "24"}]}}}}}, {"name": "StatefulPartitionedCall/SINet/si_net_1/s2_module_18/conv2d_59/concat/axis", "op": "Const", "attr": {"dtype": {"type": "DT_INT32"}, "value": {"tensor": {"dtype": "DT_INT32", "tensorShape": {}}}}}, {"name": "StatefulPartitionedCall/SINet/si_net_1/s2_module_18/channel_shuffle_18/Reshape/shape", "op": "Const", "attr": {"value": {"tensor": {"dtype": "DT_INT32", "tensorShape": {"dim": [{"size": "5"}]}}}, "dtype": {"type": "DT_INT32"}}}, {"name": "StatefulPartitionedCall/SINet/si_net_1/s2_module_18/channel_shuffle_18/transpose/perm", "op": "Const", "attr": {"value": {"tensor": {"dtype": "DT_INT32", "tensorShape": {"dim": [{"size": "5"}]}}}, "dtype": {"type": "DT_INT32"}}}, {"name": "StatefulPartitionedCall/SINet/si_net_1/s2_module_18/channel_shuffle_18/Reshape_1/shape", "op": "Const", "attr": {"dtype": {"type": "DT_INT32"}, "value": {"tensor": {"dtype": "DT_INT32", "tensorShape": {"dim": [{"size": "4"}]}}}}}, {"name": "StatefulPartitionedCall/SINet/si_net_1/s2_module_18/s2_block_36/conv2d_57/depthwise_conv2d_17/depthwise/ReadVariableOp", "op": "Const", "attr": {"dtype": {"type": "DT_FLOAT"}, "value": {"tensor": {"dtype": "DT_FLOAT", "tensorShape": {"dim": [{"size": "3"}, {"size": "3"}, {"size": "48"}, {"size": "1"}]}}}}}, {"name": "StatefulPartitionedCall/SINet/si_net_1/s2_module_18/s2_block_36/conv2d_57/normalization_19/sync_batch_normalization_19/batchnorm/mul", "op": "Const", "attr": {"dtype": {"type": "DT_FLOAT"}, "value": {"tensor": {"dtype": "DT_FLOAT", "tensorShape": {"dim": [{"size": "48"}]}}}}}, {"name": "StatefulPartitionedCall/SINet/si_net_1/s2_module_18/s2_block_36/conv2d_57/normalization_19/sync_batch_normalization_19/batchnorm/sub", "op": "Const", "attr": {"value": {"tensor": {"dtype": "DT_FLOAT", "tensorShape": {"dim": [{"size": "48"}]}}}, "dtype": {"type": "DT_FLOAT"}}}, {"name": "StatefulPartitionedCall/SINet/si_net_1/s2_module_18/s2_block_36/conv2d_60/conv2d_58/Conv2D/ReadVariableOp", "op": "Const", "attr": {"dtype": {"type": "DT_FLOAT"}, "value": {"tensor": {"dtype": "DT_FLOAT", "tensorShape": {"dim": [{"size": "1"}, {"size": "1"}, {"size": "48"}, {"size": "48"}]}}}}}, {"name": "StatefulPartitionedCall/SINet/si_net_1/s2_module_18/s2_block_36/upsampling_bilinear2d_9/resize/size", "op": "Const", "attr": {"dtype": {"type": "DT_INT32"}, "value": {"tensor": {"dtype": "DT_INT32", "tensorShape": {"dim": [{"size": "2"}]}}}}}, {"name": "StatefulPartitionedCall/SINet/si_net_1/s2_module_18/s2_block_36/normalization_62/sync_batch_normalization_62/batchnorm/mul", "op": "Const", "attr": {"dtype": {"type": "DT_FLOAT"}, "value": {"tensor": {"dtype": "DT_FLOAT", "tensorShape": {"dim": [{"size": "48"}]}}}}}, {"name": "StatefulPartitionedCall/SINet/si_net_1/s2_module_18/s2_block_36/normalization_62/sync_batch_normalization_62/batchnorm/sub", "op": "Const", "attr": {"dtype": {"type": "DT_FLOAT"}, "value": {"tensor": {"dtype": "DT_FLOAT", "tensorShape": {"dim": [{"size": "48"}]}}}}}, {"name": "StatefulPartitionedCall/SINet/si_net_1/s2_module_18/concat/axis", "op": "Const", "attr": {"value": {"tensor": {"dtype": "DT_INT32", "tensorShape": {}}}, "dtype": {"type": "DT_INT32"}}}, {"name": "StatefulPartitionedCall/SINet/si_net_1/s2_module_18/normalization_64/sync_batch_normalization_64/batchnorm/mul", "op": "Const", "attr": {"value": {"tensor": {"dtype": "DT_FLOAT", "tensorShape": {"dim": [{"size": "96"}]}}}, "dtype": {"type": "DT_FLOAT"}}}, {"name": "StatefulPartitionedCall/SINet/si_net_1/s2_module_18/normalization_64/sync_batch_normalization_64/batchnorm/sub", "op": "Const", "attr": {"value": {"tensor": {"dtype": "DT_FLOAT", "tensorShape": {"dim": [{"size": "96"}]}}}, "dtype": {"type": "DT_FLOAT"}}}, {"name": "StatefulPartitionedCall/SINet/si_net_1/s2_module_19/conv2d_62/Const", "op": "Const", "attr": {"dtype": {"type": "DT_INT32"}, "value": {"tensor": {"dtype": "DT_INT32", "tensorShape": {"dim": [{"size": "2"}]}}}}}, {"name": "StatefulPartitionedCall/SINet/si_net_1/s2_module_19/conv2d_62/split/split_dim", "op": "Const", "attr": {"value": {"tensor": {"dtype": "DT_INT32", "tensorShape": {}}}, "dtype": {"type": "DT_INT32"}}}, {"name": "StatefulPartitionedCall/SINet/si_net_1/s2_module_19/conv2d_62/grouped_1/conv2d_60/Conv2D/ReadVariableOp", "op": "Const", "attr": {"value": {"tensor": {"dtype": "DT_FLOAT", "tensorShape": {"dim": [{"size": "1"}, {"size": "1"}, {"size": "48"}, {"size": "24"}]}}}, "dtype": {"type": "DT_FLOAT"}}}, {"name": "StatefulPartitionedCall/SINet/si_net_1/s2_module_19/conv2d_62/concat/axis", "op": "Const", "attr": {"value": {"tensor": {"dtype": "DT_INT32", "tensorShape": {}}}, "dtype": {"type": "DT_INT32"}}}, {"name": "StatefulPartitionedCall/SINet/si_net_1/s2_module_19/channel_shuffle_19/Reshape/shape", "op": "Const", "attr": {"value": {"tensor": {"dtype": "DT_INT32", "tensorShape": {"dim": [{"size": "5"}]}}}, "dtype": {"type": "DT_INT32"}}}, {"name": "StatefulPartitionedCall/SINet/si_net_1/s2_module_19/channel_shuffle_19/transpose/perm", "op": "Const", "attr": {"dtype": {"type": "DT_INT32"}, "value": {"tensor": {"dtype": "DT_INT32", "tensorShape": {"dim": [{"size": "5"}]}}}}}, {"name": "StatefulPartitionedCall/SINet/si_net_1/s2_module_19/channel_shuffle_19/Reshape_1/shape", "op": "Const", "attr": {"dtype": {"type": "DT_INT32"}, "value": {"tensor": {"dtype": "DT_INT32", "tensorShape": {"dim": [{"size": "4"}]}}}}}, {"name": "StatefulPartitionedCall/SINet/si_net_1/s2_module_19/s2_block_38/conv2d_63/depthwise_conv2d_19/depthwise/ReadVariableOp", "op": "Const", "attr": {"dtype": {"type": "DT_FLOAT"}, "value": {"tensor": {"dtype": "DT_FLOAT", "tensorShape": {"dim": [{"size": "3"}, {"size": "3"}, {"size": "48"}, {"size": "1"}]}}}}}, {"name": "StatefulPartitionedCall/SINet/si_net_1/s2_module_19/s2_block_38/conv2d_63/normalization_21/sync_batch_normalization_21/batchnorm/mul", "op": "Const", "attr": {"dtype": {"type": "DT_FLOAT"}, "value": {"tensor": {"dtype": "DT_FLOAT", "tensorShape": {"dim": [{"size": "48"}]}}}}}, {"name": "StatefulPartitionedCall/SINet/si_net_1/s2_module_19/s2_block_38/conv2d_63/normalization_21/sync_batch_normalization_21/batchnorm/sub", "op": "Const", "attr": {"value": {"tensor": {"dtype": "DT_FLOAT", "tensorShape": {"dim": [{"size": "48"}]}}}, "dtype": {"type": "DT_FLOAT"}}}, {"name": "StatefulPartitionedCall/SINet/si_net_1/s2_module_19/s2_block_38/conv2d_63/conv2d_64/Conv2D/merged_input", "op": "Const", "attr": {"value": {"tensor": {"dtype": "DT_FLOAT", "tensorShape": {"dim": [{"size": "1"}, {"size": "1"}, {"size": "48"}, {"size": "48"}]}}}, "dtype": {"type": "DT_FLOAT"}}}, {"name": "StatefulPartitionedCall/SINet/si_net_1/s2_module_19/s2_block_38/normalization_65/sync_batch_normalization_65/batchnorm/sub", "op": "Const", "attr": {"value": {"tensor": {"dtype": "DT_FLOAT", "tensorShape": {"dim": [{"size": "48"}]}}}, "dtype": {"type": "DT_FLOAT"}}}, {"name": "StatefulPartitionedCall/SINet/si_net_1/s2_module_19/concat/axis", "op": "Const", "attr": {"dtype": {"type": "DT_INT32"}, "value": {"tensor": {"dtype": "DT_INT32", "tensorShape": {}}}}}, {"name": "StatefulPartitionedCall/SINet/si_net_1/s2_module_19/normalization_67/sync_batch_normalization_67/batchnorm/mul", "op": "Const", "attr": {"value": {"tensor": {"dtype": "DT_FLOAT", "tensorShape": {"dim": [{"size": "96"}]}}}, "dtype": {"type": "DT_FLOAT"}}}, {"name": "StatefulPartitionedCall/SINet/si_net_1/s2_module_19/normalization_67/sync_batch_normalization_67/batchnorm/sub", "op": "Const", "attr": {"dtype": {"type": "DT_FLOAT"}, "value": {"tensor": {"dtype": "DT_FLOAT", "tensorShape": {"dim": [{"size": "96"}]}}}}}, {"name": "StatefulPartitionedCall/SINet/si_net_1/concat_1/axis", "op": "Const", "attr": {"value": {"tensor": {"dtype": "DT_INT32", "tensorShape": {}}}, "dtype": {"type": "DT_INT32"}}}, {"name": "StatefulPartitionedCall/SINet/si_net_1/normalization_68/sync_batch_normalization_68/batchnorm/mul", "op": "Const", "attr": {"value": {"tensor": {"dtype": "DT_FLOAT", "tensorShape": {"dim": [{"size": "144"}]}}}, "dtype": {"type": "DT_FLOAT"}}}, {"name": "StatefulPartitionedCall/SINet/si_net_1/normalization_68/sync_batch_normalization_68/batchnorm/sub", "op": "Const", "attr": {"value": {"tensor": {"dtype": "DT_FLOAT", "tensorShape": {"dim": [{"size": "144"}]}}}, "dtype": {"type": "DT_FLOAT"}}}, {"name": "StatefulPartitionedCall/SINet/si_net_1/conv2d_65/conv2d_65/Conv2D/ReadVariableOp", "op": "Const", "attr": {"value": {"tensor": {"dtype": "DT_FLOAT", "tensorShape": {"dim": [{"size": "1"}, {"size": "1"}, {"size": "144"}, {"size": "1"}]}}}, "dtype": {"type": "DT_FLOAT"}}}, {"name": "StatefulPartitionedCall/SINet/si_net_1/upsampling_bilinear2d_11/resize/size", "op": "Const", "attr": {"dtype": {"type": "DT_INT32"}, "value": {"tensor": {"dtype": "DT_INT32", "tensorShape": {"dim": [{"size": "2"}]}}}}}, {"name": "StatefulPartitionedCall/SINet/si_net_1/upsampling_bilinear2d_11/normalization_69/sync_batch_normalization_69/batchnorm/mul", "op": "Const", "attr": {"dtype": {"type": "DT_FLOAT"}, "value": {"tensor": {"dtype": "DT_FLOAT", "tensorShape": {"dim": [{"size": "1"}]}}}}}, {"name": "StatefulPartitionedCall/SINet/si_net_1/upsampling_bilinear2d_11/normalization_69/sync_batch_normalization_69/batchnorm/sub", "op": "Const", "attr": {"dtype": {"type": "DT_FLOAT"}, "value": {"tensor": {"dtype": "DT_FLOAT", "tensorShape": {"dim": [{"size": "1"}]}}}}}, {"name": "StatefulPartitionedCall/SINet/si_net_1/upsampling_bilinear2d_12/resize/size", "op": "Const", "attr": {"value": {"tensor": {"dtype": "DT_INT32", "tensorShape": {"dim": [{"size": "2"}]}}}, "dtype": {"type": "DT_INT32"}}}, {"name": "StatefulPartitionedCall/SINet/si_net_1/upsampling_bilinear2d_12/normalization_70/sync_batch_normalization_70/batchnorm/mul", "op": "Const", "attr": {"dtype": {"type": "DT_FLOAT"}, "value": {"tensor": {"dtype": "DT_FLOAT", "tensorShape": {"dim": [{"size": "1"}]}}}}}, {"name": "StatefulPartitionedCall/SINet/si_net_1/upsampling_bilinear2d_12/normalization_70/sync_batch_normalization_70/batchnorm/sub", "op": "Const", "attr": {"dtype": {"type": "DT_FLOAT"}, "value": {"tensor": {"dtype": "DT_FLOAT", "tensorShape": {"dim": [{"size": "1"}]}}}}}, {"name": "StatefulPartitionedCall/SINet/si_net_1/upsampling_bilinear2d_13/resize/size", "op": "Const", "attr": {"value": {"tensor": {"dtype": "DT_INT32", "tensorShape": {"dim": [{"size": "2"}]}}}, "dtype": {"type": "DT_INT32"}}}, {"name": "StatefulPartitionedCall/SINet/si_net_1/conv2d_67/depthwise_conv2d_20/depthwise/ReadVariableOp", "op": "Const", "attr": {"value": {"tensor": {"dtype": "DT_FLOAT", "tensorShape": {"dim": [{"size": "3"}, {"size": "3"}, {"size": "1"}, {"size": "1"}]}}}, "dtype": {"type": "DT_FLOAT"}}}, {"name": "inputs", "op": "Placeholder", "attr": {"shape": {"shape": {"dim": [{"size": "-1"}, {"size": "224"}, {"size": "224"}, {"size": "3"}]}}, "dtype": {"type": "DT_FLOAT"}}}, {"name": "StatefulPartitionedCall/SINet/si_net_1/conv2d_34/normalization_36/sync_batch_normalization_36/batchnorm/mul_1", "op": "Conv2D", "input": ["inputs", "StatefulPartitionedCall/SINet/si_net_1/conv2d_34/conv2d/Conv2D/merged_input"], "device": "/device:CPU:0", "attr": {"dilations": {"list": {"i": ["1", "1", "1", "1"]}}, "use_cudnn_on_gpu": {"b": true}, "T": {"type": "DT_FLOAT"}, "strides": {"list": {"i": ["1", "2", "2", "1"]}}, "padding": {"s": "U0FNRQ=="}, "data_format": {"s": "TkhXQw=="}, "explicit_paddings": {"list": {}}}}, {"name": "StatefulPartitionedCall/SINet/si_net_1/conv2d_34/normalization_36/sync_batch_normalization_36/batchnorm/add_1", "op": "AddV2", "input": ["StatefulPartitionedCall/SINet/si_net_1/conv2d_34/normalization_36/sync_batch_normalization_36/batchnorm/mul_1", "StatefulPartitionedCall/SINet/si_net_1/conv2d_34/normalization_36/sync_batch_normalization_36/batchnorm/sub"], "attr": {"T": {"type": "DT_FLOAT"}}}, {"name": "StatefulPartitionedCall/SINet/si_net_1/conv2d_34/normalization_36/p_re_lu_28/p_re_lu_29/Relu", "op": "Prelu", "input": ["StatefulPartitionedCall/SINet/si_net_1/conv2d_34/normalization_36/sync_batch_normalization_36/batchnorm/add_1", "StatefulPartitionedCall/SINet/si_net_1/conv2d_34/normalization_36/p_re_lu_28/p_re_lu_29/Neg"]}, {"name": "StatefulPartitionedCall/SINet/si_net_1/squeeze_separable_conv2d_2/sequential_1/conv2d_1/depthwise_conv2d/depthwise", "op": "DepthwiseConv2dNative", "input": ["StatefulPartitionedCall/SINet/si_net_1/conv2d_34/normalization_36/p_re_lu_28/p_re_lu_29/Relu", "StatefulPartitionedCall/SINet/si_net_1/squeeze_separable_conv2d_2/sequential_1/conv2d_1/depthwise_conv2d/depthwise/ReadVariableOp"], "attr": {"dilations": {"list": {"i": ["1", "1", "1", "1"]}}, "T": {"type": "DT_FLOAT"}, "data_format": {"s": "TkhXQw=="}, "padding": {"s": "U0FNRQ=="}, "strides": {"list": {"i": ["1", "2", "2", "1"]}}, "explicit_paddings": {"list": {}}}}, {"name": "StatefulPartitionedCall/SINet/si_net_1/squeeze_separable_conv2d_2/sequential_1/squeeze_block/Mean", "op": "Mean", "input": ["StatefulPartitionedCall/SINet/si_net_1/squeeze_separable_conv2d_2/sequential_1/conv2d_1/depthwise_conv2d/depthwise", "StatefulPartitionedCall/SINet/si_net_1/squeeze_separable_conv2d_2/sequential_1/squeeze_block/Mean/reduction_indices"], "attr": {"Tidx": {"type": "DT_INT32"}, "keep_dims": {"b": true}, "T": {"type": "DT_FLOAT"}}}, {"name": "StatefulPartitionedCall/SINet/si_net_1/squeeze_separable_conv2d_2/sequential_1/squeeze_block/sequential/dense/Tensordot/Shape", "op": "Shape", "input": ["StatefulPartitionedCall/SINet/si_net_1/squeeze_separable_conv2d_2/sequential_1/squeeze_block/Mean"], "attr": {"out_type": {"type": "DT_INT32"}, "T": {"type": "DT_FLOAT"}}}, {"name": "StatefulPartitionedCall/SINet/si_net_1/squeeze_separable_conv2d_2/sequential_1/squeeze_block/sequential/dense/Tensordot/GatherV2_1", "op": "GatherV2", "input": ["StatefulPartitionedCall/SINet/si_net_1/squeeze_separable_conv2d_2/sequential_1/squeeze_block/sequential/dense/Tensordot/Shape", "StatefulPartitionedCall/SINet/si_net_1/squeeze_separable_conv2d_2/sequential_1/squeeze_block/sequential/dense/Tensordot/axes", "StatefulPartitionedCall/SINet/si_net_1/squeeze_separable_conv2d_2/sequential_1/squeeze_block/sequential/dense/Tensordot/GatherV2_1/axis"], "attr": {"Taxis": {"type": "DT_INT32"}, "batch_dims": {"i": "0"}, "Tparams": {"type": "DT_INT32"}, "Tindices": {"type": "DT_INT32"}}}, {"name": "StatefulPartitionedCall/SINet/si_net_1/squeeze_separable_conv2d_2/sequential_1/squeeze_block/sequential/dense/Tensordot/GatherV2", "op": "GatherV2", "input": ["StatefulPartitionedCall/SINet/si_net_1/squeeze_separable_conv2d_2/sequential_1/squeeze_block/sequential/dense/Tensordot/Shape", "StatefulPartitionedCall/SINet/si_net_1/squeeze_separable_conv2d_2/sequential_1/squeeze_block/sequential/dense/Tensordot/free", "StatefulPartitionedCall/SINet/si_net_1/squeeze_separable_conv2d_2/sequential_1/squeeze_block/sequential/dense/Tensordot/GatherV2/axis"], "attr": {"Tparams": {"type": "DT_INT32"}, "Tindices": {"type": "DT_INT32"}, "Taxis": {"type": "DT_INT32"}, "batch_dims": {"i": "0"}}}, {"name": "StatefulPartitionedCall/SINet/si_net_1/squeeze_separable_conv2d_2/sequential_1/squeeze_block/sequential/dense/Tensordot/Prod_1", "op": "Prod", "input": ["StatefulPartitionedCall/SINet/si_net_1/squeeze_separable_conv2d_2/sequential_1/squeeze_block/sequential/dense/Tensordot/GatherV2_1", "StatefulPartitionedCall/SINet/si_net_1/squeeze_separable_conv2d_2/sequential_1/squeeze_block/sequential/dense/Tensordot/Const_1"], "attr": {"T": {"type": "DT_INT32"}, "Tidx": {"type": "DT_INT32"}, "keep_dims": {"b": false}}}, {"name": "StatefulPartitionedCall/SINet/si_net_1/squeeze_separable_conv2d_2/sequential_1/squeeze_block/sequential/dense/Tensordot/Prod", "op": "Prod", "input": ["StatefulPartitionedCall/SINet/si_net_1/squeeze_separable_conv2d_2/sequential_1/squeeze_block/sequential/dense/Tensordot/GatherV2", "StatefulPartitionedCall/SINet/si_net_1/squeeze_separable_conv2d_2/sequential_1/squeeze_block/sequential/dense/Tensordot/Const"], "attr": {"Tidx": {"type": "DT_INT32"}, "T": {"type": "DT_INT32"}, "keep_dims": {"b": false}}}, {"name": "StatefulPartitionedCall/SINet/si_net_1/squeeze_separable_conv2d_2/sequential_1/squeeze_block/sequential/dense/Tensordot/concat_1", "op": "ConcatV2", "input": ["StatefulPartitionedCall/SINet/si_net_1/squeeze_separable_conv2d_2/sequential_1/squeeze_block/sequential/dense/Tensordot/GatherV2", "StatefulPartitionedCall/SINet/si_net_1/squeeze_separable_conv2d_2/sequential_1/squeeze_block/sequential/dense/Tensordot/Const_2", "StatefulPartitionedCall/SINet/si_net_1/squeeze_separable_conv2d_2/sequential_1/squeeze_block/sequential/dense/Tensordot/concat_1/axis"], "attr": {"Tidx": {"type": "DT_INT32"}, "N": {"i": "2"}, "T": {"type": "DT_INT32"}}}, {"name": "StatefulPartitionedCall/SINet/si_net_1/squeeze_separable_conv2d_2/sequential_1/squeeze_block/sequential/dense/Tensordot/stack", "op": "Pack", "input": ["StatefulPartitionedCall/SINet/si_net_1/squeeze_separable_conv2d_2/sequential_1/squeeze_block/sequential/dense/Tensordot/Prod", "StatefulPartitionedCall/SINet/si_net_1/squeeze_separable_conv2d_2/sequential_1/squeeze_block/sequential/dense/Tensordot/Prod_1"], "attr": {"T": {"type": "DT_INT32"}, "N": {"i": "2"}, "axis": {"i": "0"}}}, {"name": "StatefulPartitionedCall/SINet/si_net_1/squeeze_separable_conv2d_2/sequential_1/squeeze_block/sequential/dense/Tensordot/Reshape", "op": "Reshape", "input": ["StatefulPartitionedCall/SINet/si_net_1/squeeze_separable_conv2d_2/sequential_1/squeeze_block/Mean", "StatefulPartitionedCall/SINet/si_net_1/squeeze_separable_conv2d_2/sequential_1/squeeze_block/sequential/dense/Tensordot/stack"], "attr": {"T": {"type": "DT_FLOAT"}, "Tshape": {"type": "DT_INT32"}}}, {"name": "StatefulPartitionedCall/SINet/si_net_1/squeeze_separable_conv2d_2/sequential_1/squeeze_block/sequential/dense/Tensordot/MatMul", "op": "MatMul", "input": ["StatefulPartitionedCall/SINet/si_net_1/squeeze_separable_conv2d_2/sequential_1/squeeze_block/sequential/dense/Tensordot/Reshape", "StatefulPartitionedCall/SINet/si_net_1/squeeze_separable_conv2d_2/sequential_1/squeeze_block/sequential/dense/Tensordot/ReadVariableOp"], "device": "/device:CPU:0", "attr": {"T": {"type": "DT_FLOAT"}, "transpose_a": {"b": false}, "transpose_b": {"b": false}}}, {"name": "StatefulPartitionedCall/SINet/si_net_1/squeeze_separable_conv2d_2/sequential_1/squeeze_block/sequential/dense/Tensordot", "op": "Reshape", "input": ["StatefulPartitionedCall/SINet/si_net_1/squeeze_separable_conv2d_2/sequential_1/squeeze_block/sequential/dense/Tensordot/MatMul", "StatefulPartitionedCall/SINet/si_net_1/squeeze_separable_conv2d_2/sequential_1/squeeze_block/sequential/dense/Tensordot/concat_1"], "attr": {"T": {"type": "DT_FLOAT"}, "Tshape": {"type": "DT_INT32"}}}, {"name": "StatefulPartitionedCall/SINet/si_net_1/squeeze_separable_conv2d_2/sequential_1/squeeze_block/sequential/dense/BiasAdd", "op": "BiasAdd", "input": ["StatefulPartitionedCall/SINet/si_net_1/squeeze_separable_conv2d_2/sequential_1/squeeze_block/sequential/dense/Tensordot", "StatefulPartitionedCall/SINet/si_net_1/squeeze_separable_conv2d_2/sequential_1/squeeze_block/sequential/dense/BiasAdd/ReadVariableOp"], "attr": {"data_format": {"s": "TkhXQw=="}, "T": {"type": "DT_FLOAT"}}}, {"name": "StatefulPartitionedCall/SINet/si_net_1/squeeze_separable_conv2d_2/sequential_1/squeeze_block/sequential/p_re_lu/p_re_lu_1/Relu", "op": "Prelu", "input": ["StatefulPartitionedCall/SINet/si_net_1/squeeze_separable_conv2d_2/sequential_1/squeeze_block/sequential/dense/BiasAdd", "StatefulPartitionedCall/SINet/si_net_1/squeeze_separable_conv2d_2/sequential_1/squeeze_block/sequential/p_re_lu/p_re_lu_1/Neg"]}, {"name": "StatefulPartitionedCall/SINet/si_net_1/squeeze_separable_conv2d_2/sequential_1/squeeze_block/mul", "op": "Mul", "input": ["StatefulPartitionedCall/SINet/si_net_1/squeeze_separable_conv2d_2/sequential_1/squeeze_block/sequential/p_re_lu/p_re_lu_1/Relu", "StatefulPartitionedCall/SINet/si_net_1/squeeze_separable_conv2d_2/sequential_1/conv2d_1/depthwise_conv2d/depthwise"], "attr": {"T": {"type": "DT_FLOAT"}}}, {"name": "StatefulPartitionedCall/SINet/si_net_1/squeeze_separable_conv2d_2/sequential_1/conv2d_2/normalization/sync_batch_normalization/batchnorm/mul_1", "op": "Conv2D", "input": ["StatefulPartitionedCall/SINet/si_net_1/squeeze_separable_conv2d_2/sequential_1/squeeze_block/mul", "StatefulPartitionedCall/SINet/si_net_1/squeeze_separable_conv2d_2/sequential_1/conv2d_2/conv2d/Conv2D/merged_input"], "device": "/device:CPU:0", "attr": {"explicit_paddings": {"list": {}}, "strides": {"list": {"i": ["1", "1", "1", "1"]}}, "use_cudnn_on_gpu": {"b": true}, "data_format": {"s": "TkhXQw=="}, "dilations": {"list": {"i": ["1", "1", "1", "1"]}}, "T": {"type": "DT_FLOAT"}, "padding": {"s": "VkFMSUQ="}}}, {"name": "StatefulPartitionedCall/SINet/si_net_1/squeeze_separable_conv2d_2/sequential_1/conv2d_2/normalization/sync_batch_normalization/batchnorm/add_1", "op": "AddV2", "input": ["StatefulPartitionedCall/SINet/si_net_1/squeeze_separable_conv2d_2/sequential_1/conv2d_2/normalization/sync_batch_normalization/batchnorm/mul_1", "StatefulPartitionedCall/SINet/si_net_1/squeeze_separable_conv2d_2/sequential_1/conv2d_2/normalization/sync_batch_normalization/batchnorm/sub"], "attr": {"T": {"type": "DT_FLOAT"}}}, {"name": "StatefulPartitionedCall/SINet/si_net_1/squeeze_separable_conv2d_2/sequential_1/conv2d_2/normalization/p_re_lu_2/p_re_lu_3/Relu", "op": "Prelu", "input": ["StatefulPartitionedCall/SINet/si_net_1/squeeze_separable_conv2d_2/sequential_1/conv2d_2/normalization/sync_batch_normalization/batchnorm/add_1", "StatefulPartitionedCall/SINet/si_net_1/squeeze_separable_conv2d_2/sequential_1/conv2d_2/normalization/p_re_lu_2/p_re_lu_3/Neg"]}, {"name": "StatefulPartitionedCall/SINet/si_net_1/s2_module_10/conv2d_35/split", "op": "SplitV", "input": ["StatefulPartitionedCall/SINet/si_net_1/squeeze_separable_conv2d_2/sequential_1/conv2d_2/normalization/p_re_lu_2/p_re_lu_3/Relu", "StatefulPartitionedCall/SINet/si_net_1/s2_module_10/conv2d_35/Const", "StatefulPartitionedCall/SINet/si_net_1/s2_module_10/conv2d_35/split/split_dim"], "attr": {"num_split": {"i": "2"}, "T": {"type": "DT_FLOAT"}, "Tlen": {"type": "DT_INT32"}}}, {"name": "StatefulPartitionedCall/SINet/si_net_1/s2_module_10/conv2d_35/grouped_0/conv2d_3/Conv2D", "op": "Conv2D", "input": ["StatefulPartitionedCall/SINet/si_net_1/s2_module_10/conv2d_35/split", "StatefulPartitionedCall/SINet/si_net_1/s2_module_10/conv2d_35/grouped_0/conv2d_3/Conv2D/ReadVariableOp"], "device": "/device:CPU:0", "attr": {"dilations": {"list": {"i": ["1", "1", "1", "1"]}}, "use_cudnn_on_gpu": {"b": true}, "strides": {"list": {"i": ["1", "1", "1", "1"]}}, "data_format": {"s": "TkhXQw=="}, "padding": {"s": "VkFMSUQ="}, "T": {"type": "DT_FLOAT"}, "explicit_paddings": {"list": {}}}}, {"name": "StatefulPartitionedCall/SINet/si_net_1/s2_module_10/conv2d_35/grouped_1/conv2d_4/Conv2D", "op": "Conv2D", "input": ["StatefulPartitionedCall/SINet/si_net_1/s2_module_10/conv2d_35/split:1", "StatefulPartitionedCall/SINet/si_net_1/s2_module_10/conv2d_35/grouped_1/conv2d_4/Conv2D/ReadVariableOp"], "device": "/device:CPU:0", "attr": {"dilations": {"list": {"i": ["1", "1", "1", "1"]}}, "padding": {"s": "VkFMSUQ="}, "strides": {"list": {"i": ["1", "1", "1", "1"]}}, "T": {"type": "DT_FLOAT"}, "data_format": {"s": "TkhXQw=="}, "use_cudnn_on_gpu": {"b": true}, "explicit_paddings": {"list": {}}}}, {"name": "StatefulPartitionedCall/SINet/si_net_1/s2_module_10/conv2d_35/concat", "op": "ConcatV2", "input": ["StatefulPartitionedCall/SINet/si_net_1/s2_module_10/conv2d_35/grouped_0/conv2d_3/Conv2D", "StatefulPartitionedCall/SINet/si_net_1/s2_module_10/conv2d_35/grouped_1/conv2d_4/Conv2D", "StatefulPartitionedCall/SINet/si_net_1/s2_module_10/conv2d_35/concat/axis"], "attr": {"T": {"type": "DT_FLOAT"}, "Tidx": {"type": "DT_INT32"}, "N": {"i": "2"}}}, {"name": "StatefulPartitionedCall/SINet/si_net_1/s2_module_10/channel_shuffle_10/Reshape", "op": "Reshape", "input": ["StatefulPartitionedCall/SINet/si_net_1/s2_module_10/conv2d_35/concat", "StatefulPartitionedCall/SINet/si_net_1/s2_module_10/channel_shuffle_10/Reshape/shape"], "attr": {"Tshape": {"type": "DT_INT32"}, "T": {"type": "DT_FLOAT"}}}, {"name": "StatefulPartitionedCall/SINet/si_net_1/s2_module_10/channel_shuffle_10/transpose", "op": "Transpose", "input": ["StatefulPartitionedCall/SINet/si_net_1/s2_module_10/channel_shuffle_10/Reshape", "StatefulPartitionedCall/SINet/si_net_1/s2_module_10/channel_shuffle_10/transpose/perm"], "attr": {"Tperm": {"type": "DT_INT32"}, "T": {"type": "DT_FLOAT"}}}, {"name": "StatefulPartitionedCall/SINet/si_net_1/s2_module_10/channel_shuffle_10/Reshape_1", "op": "Reshape", "input": ["StatefulPartitionedCall/SINet/si_net_1/s2_module_10/channel_shuffle_10/transpose", "StatefulPartitionedCall/SINet/si_net_1/s2_module_10/channel_shuffle_10/Reshape_1/shape"], "attr": {"Tshape": {"type": "DT_INT32"}, "T": {"type": "DT_FLOAT"}}}, {"name": "StatefulPartitionedCall/SINet/si_net_1/s2_module_10/s2_block_21/conv2d_5/depthwise_conv2d/depthwise", "op": "DepthwiseConv2dNative", "input": ["StatefulPartitionedCall/SINet/si_net_1/s2_module_10/channel_shuffle_10/Reshape_1", "StatefulPartitionedCall/SINet/si_net_1/s2_module_10/s2_block_21/conv2d_5/depthwise_conv2d/depthwise/ReadVariableOp"], "attr": {"explicit_paddings": {"list": {}}, "strides": {"list": {"i": ["1", "1", "1", "1"]}}, "T": {"type": "DT_FLOAT"}, "padding": {"s": "U0FNRQ=="}, "data_format": {"s": "TkhXQw=="}, "dilations": {"list": {"i": ["1", "1", "1", "1"]}}}}, {"name": "StatefulPartitionedCall/SINet/si_net_1/s2_module_10/s2_block_20/conv2d_7/depthwise_conv2d_1/depthwise", "op": "DepthwiseConv2dNative", "input": ["StatefulPartitionedCall/SINet/si_net_1/s2_module_10/channel_shuffle_10/Reshape_1", "StatefulPartitionedCall/SINet/si_net_1/s2_module_10/s2_block_20/conv2d_7/depthwise_conv2d_1/depthwise/ReadVariableOp"], "attr": {"data_format": {"s": "TkhXQw=="}, "explicit_paddings": {"list": {}}, "T": {"type": "DT_FLOAT"}, "dilations": {"list": {"i": ["1", "1", "1", "1"]}}, "padding": {"s": "U0FNRQ=="}, "strides": {"list": {"i": ["1", "1", "1", "1"]}}}}, {"name": "StatefulPartitionedCall/SINet/si_net_1/s2_module_10/s2_block_21/conv2d_5/normalization_1/sync_batch_normalization_1/batchnorm/mul_1", "op": "Mul", "input": ["StatefulPartitionedCall/SINet/si_net_1/s2_module_10/s2_block_21/conv2d_5/depthwise_conv2d/depthwise", "StatefulPartitionedCall/SINet/si_net_1/s2_module_10/s2_block_21/conv2d_5/normalization_1/sync_batch_normalization_1/batchnorm/mul"], "attr": {"T": {"type": "DT_FLOAT"}}}, {"name": "StatefulPartitionedCall/SINet/si_net_1/s2_module_10/s2_block_20/conv2d_7/normalization_2/sync_batch_normalization_2/batchnorm/mul_1", "op": "Mul", "input": ["StatefulPartitionedCall/SINet/si_net_1/s2_module_10/s2_block_20/conv2d_7/depthwise_conv2d_1/depthwise", "StatefulPartitionedCall/SINet/si_net_1/s2_module_10/s2_block_20/conv2d_7/normalization_2/sync_batch_normalization_2/batchnorm/mul"], "attr": {"T": {"type": "DT_FLOAT"}}}, {"name": "StatefulPartitionedCall/SINet/si_net_1/s2_module_10/s2_block_21/conv2d_5/normalization_1/sync_batch_normalization_1/batchnorm/add_1", "op": "AddV2", "input": ["StatefulPartitionedCall/SINet/si_net_1/s2_module_10/s2_block_21/conv2d_5/normalization_1/sync_batch_normalization_1/batchnorm/mul_1", "StatefulPartitionedCall/SINet/si_net_1/s2_module_10/s2_block_21/conv2d_5/normalization_1/sync_batch_normalization_1/batchnorm/sub"], "attr": {"T": {"type": "DT_FLOAT"}}}, {"name": "StatefulPartitionedCall/SINet/si_net_1/s2_module_10/s2_block_20/conv2d_7/normalization_2/sync_batch_normalization_2/batchnorm/add_1", "op": "AddV2", "input": ["StatefulPartitionedCall/SINet/si_net_1/s2_module_10/s2_block_20/conv2d_7/normalization_2/sync_batch_normalization_2/batchnorm/mul_1", "StatefulPartitionedCall/SINet/si_net_1/s2_module_10/s2_block_20/conv2d_7/normalization_2/sync_batch_normalization_2/batchnorm/sub"], "attr": {"T": {"type": "DT_FLOAT"}}}, {"name": "StatefulPartitionedCall/SINet/si_net_1/s2_module_10/s2_block_21/conv2d_5/normalization_1/p_re_lu_4/p_re_lu_5/Relu", "op": "Prelu", "input": ["StatefulPartitionedCall/SINet/si_net_1/s2_module_10/s2_block_21/conv2d_5/normalization_1/sync_batch_normalization_1/batchnorm/add_1", "StatefulPartitionedCall/SINet/si_net_1/s2_module_10/s2_block_21/conv2d_5/normalization_1/p_re_lu_4/p_re_lu_5/Neg"]}, {"name": "StatefulPartitionedCall/SINet/si_net_1/s2_module_10/s2_block_20/conv2d_7/normalization_2/p_re_lu_6/p_re_lu_7/Relu", "op": "Prelu", "input": ["StatefulPartitionedCall/SINet/si_net_1/s2_module_10/s2_block_20/conv2d_7/normalization_2/sync_batch_normalization_2/batchnorm/add_1", "StatefulPartitionedCall/SINet/si_net_1/s2_module_10/s2_block_20/conv2d_7/normalization_2/p_re_lu_6/p_re_lu_7/Neg"]}, {"name": "StatefulPartitionedCall/SINet/si_net_1/s2_module_10/s2_block_21/normalization_38/sync_batch_normalization_38/batchnorm/mul_1", "op": "Conv2D", "input": ["StatefulPartitionedCall/SINet/si_net_1/s2_module_10/s2_block_21/conv2d_5/normalization_1/p_re_lu_4/p_re_lu_5/Relu", "StatefulPartitionedCall/SINet/si_net_1/s2_module_10/s2_block_21/conv2d_37/conv2d_6/Conv2D/merged_input"], "device": "/device:CPU:0", "attr": {"strides": {"list": {"i": ["1", "1", "1", "1"]}}, "data_format": {"s": "TkhXQw=="}, "use_cudnn_on_gpu": {"b": true}, "T": {"type": "DT_FLOAT"}, "padding": {"s": "VkFMSUQ="}, "dilations": {"list": {"i": ["1", "1", "1", "1"]}}, "explicit_paddings": {"list": {}}}}, {"name": "StatefulPartitionedCall/SINet/si_net_1/s2_module_10/s2_block_20/normalization_37/sync_batch_normalization_37/batchnorm/mul_1", "op": "Conv2D", "input": ["StatefulPartitionedCall/SINet/si_net_1/s2_module_10/s2_block_20/conv2d_7/normalization_2/p_re_lu_6/p_re_lu_7/Relu", "StatefulPartitionedCall/SINet/si_net_1/s2_module_10/s2_block_20/conv2d_36/conv2d_8/Conv2D/merged_input"], "device": "/device:CPU:0", "attr": {"use_cudnn_on_gpu": {"b": true}, "explicit_paddings": {"list": {}}, "data_format": {"s": "TkhXQw=="}, "strides": {"list": {"i": ["1", "1", "1", "1"]}}, "padding": {"s": "VkFMSUQ="}, "T": {"type": "DT_FLOAT"}, "dilations": {"list": {"i": ["1", "1", "1", "1"]}}}}, {"name": "StatefulPartitionedCall/SINet/si_net_1/s2_module_10/s2_block_21/normalization_38/sync_batch_normalization_38/batchnorm/add_1", "op": "AddV2", "input": ["StatefulPartitionedCall/SINet/si_net_1/s2_module_10/s2_block_21/normalization_38/sync_batch_normalization_38/batchnorm/mul_1", "StatefulPartitionedCall/SINet/si_net_1/s2_module_10/s2_block_21/normalization_38/sync_batch_normalization_38/batchnorm/sub"], "attr": {"T": {"type": "DT_FLOAT"}}}, {"name": "StatefulPartitionedCall/SINet/si_net_1/s2_module_10/s2_block_20/normalization_37/sync_batch_normalization_37/batchnorm/add_1", "op": "AddV2", "input": ["StatefulPartitionedCall/SINet/si_net_1/s2_module_10/s2_block_20/normalization_37/sync_batch_normalization_37/batchnorm/mul_1", "StatefulPartitionedCall/SINet/si_net_1/s2_module_10/s2_block_20/normalization_37/sync_batch_normalization_37/batchnorm/sub"], "attr": {"T": {"type": "DT_FLOAT"}}}, {"name": "StatefulPartitionedCall/SINet/si_net_1/s2_module_10/concat", "op": "ConcatV2", "input": ["StatefulPartitionedCall/SINet/si_net_1/s2_module_10/s2_block_21/normalization_38/sync_batch_normalization_38/batchnorm/add_1", "StatefulPartitionedCall/SINet/si_net_1/s2_module_10/s2_block_20/normalization_37/sync_batch_normalization_37/batchnorm/add_1", "StatefulPartitionedCall/SINet/si_net_1/s2_module_10/concat/axis"], "attr": {"T": {"type": "DT_FLOAT"}, "Tidx": {"type": "DT_INT32"}, "N": {"i": "2"}}}, {"name": "StatefulPartitionedCall/SINet/si_net_1/s2_module_10/normalization_39/sync_batch_normalization_39/batchnorm/mul_1", "op": "Mul", "input": ["StatefulPartitionedCall/SINet/si_net_1/s2_module_10/concat", "StatefulPartitionedCall/SINet/si_net_1/s2_module_10/normalization_39/sync_batch_normalization_39/batchnorm/mul"], "attr": {"T": {"type": "DT_FLOAT"}}}, {"name": "StatefulPartitionedCall/SINet/si_net_1/s2_module_10/normalization_39/sync_batch_normalization_39/batchnorm/add_1", "op": "AddV2", "input": ["StatefulPartitionedCall/SINet/si_net_1/s2_module_10/normalization_39/sync_batch_normalization_39/batchnorm/mul_1", "StatefulPartitionedCall/SINet/si_net_1/s2_module_10/normalization_39/sync_batch_normalization_39/batchnorm/sub"], "attr": {"T": {"type": "DT_FLOAT"}}}, {"name": "StatefulPartitionedCall/SINet/si_net_1/s2_module_10/normalization_39/p_re_lu_30/p_re_lu_31/Relu", "op": "Prelu", "input": ["StatefulPartitionedCall/SINet/si_net_1/s2_module_10/normalization_39/sync_batch_normalization_39/batchnorm/add_1", "StatefulPartitionedCall/SINet/si_net_1/s2_module_10/normalization_39/p_re_lu_30/p_re_lu_31/Neg"]}, {"name": "StatefulPartitionedCall/SINet/si_net_1/s2_module_11/conv2d_38/split", "op": "SplitV", "input": ["StatefulPartitionedCall/SINet/si_net_1/s2_module_10/normalization_39/p_re_lu_30/p_re_lu_31/Relu", "StatefulPartitionedCall/SINet/si_net_1/s2_module_11/conv2d_38/Const", "StatefulPartitionedCall/SINet/si_net_1/s2_module_11/conv2d_38/split/split_dim"], "attr": {"num_split": {"i": "2"}, "Tlen": {"type": "DT_INT32"}, "T": {"type": "DT_FLOAT"}}}, {"name": "StatefulPartitionedCall/SINet/si_net_1/s2_module_11/conv2d_38/grouped_0/conv2d_9/Conv2D", "op": "Conv2D", "input": ["StatefulPartitionedCall/SINet/si_net_1/s2_module_11/conv2d_38/split", "StatefulPartitionedCall/SINet/si_net_1/s2_module_11/conv2d_38/grouped_0/conv2d_9/Conv2D/ReadVariableOp"], "device": "/device:CPU:0", "attr": {"data_format": {"s": "TkhXQw=="}, "T": {"type": "DT_FLOAT"}, "padding": {"s": "VkFMSUQ="}, "strides": {"list": {"i": ["1", "1", "1", "1"]}}, "dilations": {"list": {"i": ["1", "1", "1", "1"]}}, "use_cudnn_on_gpu": {"b": true}, "explicit_paddings": {"list": {}}}}, {"name": "StatefulPartitionedCall/SINet/si_net_1/s2_module_11/conv2d_38/grouped_1/conv2d_10/Conv2D", "op": "Conv2D", "input": ["StatefulPartitionedCall/SINet/si_net_1/s2_module_11/conv2d_38/split:1", "StatefulPartitionedCall/SINet/si_net_1/s2_module_11/conv2d_38/grouped_1/conv2d_10/Conv2D/ReadVariableOp"], "device": "/device:CPU:0", "attr": {"explicit_paddings": {"list": {}}, "padding": {"s": "VkFMSUQ="}, "dilations": {"list": {"i": ["1", "1", "1", "1"]}}, "use_cudnn_on_gpu": {"b": true}, "T": {"type": "DT_FLOAT"}, "strides": {"list": {"i": ["1", "1", "1", "1"]}}, "data_format": {"s": "TkhXQw=="}}}, {"name": "StatefulPartitionedCall/SINet/si_net_1/s2_module_11/conv2d_38/concat", "op": "ConcatV2", "input": ["StatefulPartitionedCall/SINet/si_net_1/s2_module_11/conv2d_38/grouped_0/conv2d_9/Conv2D", "StatefulPartitionedCall/SINet/si_net_1/s2_module_11/conv2d_38/grouped_1/conv2d_10/Conv2D", "StatefulPartitionedCall/SINet/si_net_1/s2_module_11/conv2d_38/concat/axis"], "attr": {"T": {"type": "DT_FLOAT"}, "Tidx": {"type": "DT_INT32"}, "N": {"i": "2"}}}, {"name": "StatefulPartitionedCall/SINet/si_net_1/s2_module_11/channel_shuffle_11/Reshape", "op": "Reshape", "input": ["StatefulPartitionedCall/SINet/si_net_1/s2_module_11/conv2d_38/concat", "StatefulPartitionedCall/SINet/si_net_1/s2_module_11/channel_shuffle_11/Reshape/shape"], "attr": {"Tshape": {"type": "DT_INT32"}, "T": {"type": "DT_FLOAT"}}}, {"name": "StatefulPartitionedCall/SINet/si_net_1/s2_module_11/channel_shuffle_11/transpose", "op": "Transpose", "input": ["StatefulPartitionedCall/SINet/si_net_1/s2_module_11/channel_shuffle_11/Reshape", "StatefulPartitionedCall/SINet/si_net_1/s2_module_11/channel_shuffle_11/transpose/perm"], "attr": {"Tperm": {"type": "DT_INT32"}, "T": {"type": "DT_FLOAT"}}}, {"name": "StatefulPartitionedCall/SINet/si_net_1/s2_module_11/channel_shuffle_11/Reshape_1", "op": "Reshape", "input": ["StatefulPartitionedCall/SINet/si_net_1/s2_module_11/channel_shuffle_11/transpose", "StatefulPartitionedCall/SINet/si_net_1/s2_module_11/channel_shuffle_11/Reshape_1/shape"], "attr": {"Tshape": {"type": "DT_INT32"}, "T": {"type": "DT_FLOAT"}}}, {"name": "StatefulPartitionedCall/SINet/si_net_1/s2_module_11/s2_block_23/conv2d_11/depthwise_conv2d_2/depthwise", "op": "DepthwiseConv2dNative", "input": ["StatefulPartitionedCall/SINet/si_net_1/s2_module_11/channel_shuffle_11/Reshape_1", "StatefulPartitionedCall/SINet/si_net_1/s2_module_11/s2_block_23/conv2d_11/depthwise_conv2d_2/depthwise/ReadVariableOp"], "attr": {"strides": {"list": {"i": ["1", "1", "1", "1"]}}, "padding": {"s": "U0FNRQ=="}, "explicit_paddings": {"list": {}}, "T": {"type": "DT_FLOAT"}, "dilations": {"list": {"i": ["1", "1", "1", "1"]}}, "data_format": {"s": "TkhXQw=="}}}, {"name": "StatefulPartitionedCall/SINet/si_net_1/s2_module_11/s2_block_22/conv2d_13/depthwise_conv2d_3/depthwise", "op": "DepthwiseConv2dNative", "input": ["StatefulPartitionedCall/SINet/si_net_1/s2_module_11/channel_shuffle_11/Reshape_1", "StatefulPartitionedCall/SINet/si_net_1/s2_module_11/s2_block_22/conv2d_13/depthwise_conv2d_3/depthwise/ReadVariableOp"], "attr": {"explicit_paddings": {"list": {}}, "data_format": {"s": "TkhXQw=="}, "padding": {"s": "U0FNRQ=="}, "dilations": {"list": {"i": ["1", "1", "1", "1"]}}, "T": {"type": "DT_FLOAT"}, "strides": {"list": {"i": ["1", "1", "1", "1"]}}}}, {"name": "StatefulPartitionedCall/SINet/si_net_1/s2_module_11/s2_block_23/conv2d_11/normalization_3/sync_batch_normalization_3/batchnorm/mul_1", "op": "Mul", "input": ["StatefulPartitionedCall/SINet/si_net_1/s2_module_11/s2_block_23/conv2d_11/depthwise_conv2d_2/depthwise", "StatefulPartitionedCall/SINet/si_net_1/s2_module_11/s2_block_23/conv2d_11/normalization_3/sync_batch_normalization_3/batchnorm/mul"], "attr": {"T": {"type": "DT_FLOAT"}}}, {"name": "StatefulPartitionedCall/SINet/si_net_1/s2_module_11/s2_block_22/conv2d_13/normalization_4/sync_batch_normalization_4/batchnorm/mul_1", "op": "Mul", "input": ["StatefulPartitionedCall/SINet/si_net_1/s2_module_11/s2_block_22/conv2d_13/depthwise_conv2d_3/depthwise", "StatefulPartitionedCall/SINet/si_net_1/s2_module_11/s2_block_22/conv2d_13/normalization_4/sync_batch_normalization_4/batchnorm/mul"], "attr": {"T": {"type": "DT_FLOAT"}}}, {"name": "StatefulPartitionedCall/SINet/si_net_1/s2_module_11/s2_block_23/conv2d_11/normalization_3/sync_batch_normalization_3/batchnorm/add_1", "op": "AddV2", "input": ["StatefulPartitionedCall/SINet/si_net_1/s2_module_11/s2_block_23/conv2d_11/normalization_3/sync_batch_normalization_3/batchnorm/mul_1", "StatefulPartitionedCall/SINet/si_net_1/s2_module_11/s2_block_23/conv2d_11/normalization_3/sync_batch_normalization_3/batchnorm/sub"], "attr": {"T": {"type": "DT_FLOAT"}}}, {"name": "StatefulPartitionedCall/SINet/si_net_1/s2_module_11/s2_block_22/conv2d_13/normalization_4/sync_batch_normalization_4/batchnorm/add_1", "op": "AddV2", "input": ["StatefulPartitionedCall/SINet/si_net_1/s2_module_11/s2_block_22/conv2d_13/normalization_4/sync_batch_normalization_4/batchnorm/mul_1", "StatefulPartitionedCall/SINet/si_net_1/s2_module_11/s2_block_22/conv2d_13/normalization_4/sync_batch_normalization_4/batchnorm/sub"], "attr": {"T": {"type": "DT_FLOAT"}}}, {"name": "StatefulPartitionedCall/SINet/si_net_1/s2_module_11/s2_block_23/conv2d_11/normalization_3/p_re_lu_8/p_re_lu_9/Relu", "op": "Prelu", "input": ["StatefulPartitionedCall/SINet/si_net_1/s2_module_11/s2_block_23/conv2d_11/normalization_3/sync_batch_normalization_3/batchnorm/add_1", "StatefulPartitionedCall/SINet/si_net_1/s2_module_11/s2_block_23/conv2d_11/normalization_3/p_re_lu_8/p_re_lu_9/Neg"]}, {"name": "StatefulPartitionedCall/SINet/si_net_1/s2_module_11/s2_block_22/conv2d_13/normalization_4/p_re_lu_10/p_re_lu_11/Relu", "op": "Prelu", "input": ["StatefulPartitionedCall/SINet/si_net_1/s2_module_11/s2_block_22/conv2d_13/normalization_4/sync_batch_normalization_4/batchnorm/add_1", "StatefulPartitionedCall/SINet/si_net_1/s2_module_11/s2_block_22/conv2d_13/normalization_4/p_re_lu_10/p_re_lu_11/Neg"]}, {"name": "StatefulPartitionedCall/SINet/si_net_1/s2_module_11/s2_block_23/normalization_41/sync_batch_normalization_41/batchnorm/mul_1", "op": "Conv2D", "input": ["StatefulPartitionedCall/SINet/si_net_1/s2_module_11/s2_block_23/conv2d_11/normalization_3/p_re_lu_8/p_re_lu_9/Relu", "StatefulPartitionedCall/SINet/si_net_1/s2_module_11/s2_block_23/conv2d_40/conv2d_12/Conv2D/merged_input"], "device": "/device:CPU:0", "attr": {"T": {"type": "DT_FLOAT"}, "use_cudnn_on_gpu": {"b": true}, "padding": {"s": "VkFMSUQ="}, "dilations": {"list": {"i": ["1", "1", "1", "1"]}}, "strides": {"list": {"i": ["1", "1", "1", "1"]}}, "data_format": {"s": "TkhXQw=="}, "explicit_paddings": {"list": {}}}}, {"name": "StatefulPartitionedCall/SINet/si_net_1/s2_module_11/s2_block_22/normalization_40/sync_batch_normalization_40/batchnorm/mul_1", "op": "Conv2D", "input": ["StatefulPartitionedCall/SINet/si_net_1/s2_module_11/s2_block_22/conv2d_13/normalization_4/p_re_lu_10/p_re_lu_11/Relu", "StatefulPartitionedCall/SINet/si_net_1/s2_module_11/s2_block_22/conv2d_39/conv2d_14/Conv2D/merged_input"], "device": "/device:CPU:0", "attr": {"T": {"type": "DT_FLOAT"}, "dilations": {"list": {"i": ["1", "1", "1", "1"]}}, "use_cudnn_on_gpu": {"b": true}, "strides": {"list": {"i": ["1", "1", "1", "1"]}}, "explicit_paddings": {"list": {}}, "padding": {"s": "VkFMSUQ="}, "data_format": {"s": "TkhXQw=="}}}, {"name": "StatefulPartitionedCall/SINet/si_net_1/s2_module_11/s2_block_23/normalization_41/sync_batch_normalization_41/batchnorm/add_1", "op": "AddV2", "input": ["StatefulPartitionedCall/SINet/si_net_1/s2_module_11/s2_block_23/normalization_41/sync_batch_normalization_41/batchnorm/mul_1", "StatefulPartitionedCall/SINet/si_net_1/s2_module_11/s2_block_23/normalization_41/sync_batch_normalization_41/batchnorm/sub"], "attr": {"T": {"type": "DT_FLOAT"}}}, {"name": "StatefulPartitionedCall/SINet/si_net_1/s2_module_11/s2_block_22/normalization_40/sync_batch_normalization_40/batchnorm/add_1", "op": "AddV2", "input": ["StatefulPartitionedCall/SINet/si_net_1/s2_module_11/s2_block_22/normalization_40/sync_batch_normalization_40/batchnorm/mul_1", "StatefulPartitionedCall/SINet/si_net_1/s2_module_11/s2_block_22/normalization_40/sync_batch_normalization_40/batchnorm/sub"], "attr": {"T": {"type": "DT_FLOAT"}}}, {"name": "StatefulPartitionedCall/SINet/si_net_1/s2_module_11/concat", "op": "ConcatV2", "input": ["StatefulPartitionedCall/SINet/si_net_1/s2_module_11/s2_block_23/normalization_41/sync_batch_normalization_41/batchnorm/add_1", "StatefulPartitionedCall/SINet/si_net_1/s2_module_11/s2_block_22/normalization_40/sync_batch_normalization_40/batchnorm/add_1", "StatefulPartitionedCall/SINet/si_net_1/s2_module_11/concat/axis"], "attr": {"T": {"type": "DT_FLOAT"}, "Tidx": {"type": "DT_INT32"}, "N": {"i": "2"}}}, {"name": "StatefulPartitionedCall/SINet/si_net_1/s2_module_11/add", "op": "AddV2", "input": ["StatefulPartitionedCall/SINet/si_net_1/s2_module_10/normalization_39/p_re_lu_30/p_re_lu_31/Relu", "StatefulPartitionedCall/SINet/si_net_1/s2_module_11/concat"], "attr": {"T": {"type": "DT_FLOAT"}}}, {"name": "StatefulPartitionedCall/SINet/si_net_1/s2_module_11/normalization_42/sync_batch_normalization_42/batchnorm/mul_1", "op": "Mul", "input": ["StatefulPartitionedCall/SINet/si_net_1/s2_module_11/add", "StatefulPartitionedCall/SINet/si_net_1/s2_module_11/normalization_42/sync_batch_normalization_42/batchnorm/mul"], "attr": {"T": {"type": "DT_FLOAT"}}}, {"name": "StatefulPartitionedCall/SINet/si_net_1/s2_module_11/normalization_42/sync_batch_normalization_42/batchnorm/add_1", "op": "AddV2", "input": ["StatefulPartitionedCall/SINet/si_net_1/s2_module_11/normalization_42/sync_batch_normalization_42/batchnorm/mul_1", "StatefulPartitionedCall/SINet/si_net_1/s2_module_11/normalization_42/sync_batch_normalization_42/batchnorm/sub"], "attr": {"T": {"type": "DT_FLOAT"}}}, {"name": "StatefulPartitionedCall/SINet/si_net_1/s2_module_11/normalization_42/p_re_lu_32/p_re_lu_33/Relu", "op": "Prelu", "input": ["StatefulPartitionedCall/SINet/si_net_1/s2_module_11/normalization_42/sync_batch_normalization_42/batchnorm/add_1", "StatefulPartitionedCall/SINet/si_net_1/s2_module_11/normalization_42/p_re_lu_32/p_re_lu_33/Neg"]}, {"name": "StatefulPartitionedCall/SINet/si_net_1/conv2d_66/normalization_71/sync_batch_normalization_71/batchnorm/mul_1", "op": "Conv2D", "input": ["StatefulPartitionedCall/SINet/si_net_1/s2_module_11/normalization_42/p_re_lu_32/p_re_lu_33/Relu", "StatefulPartitionedCall/SINet/si_net_1/conv2d_66/conv2d_66/Conv2D/merged_input"], "device": "/device:CPU:0", "attr": {"use_cudnn_on_gpu": {"b": true}, "data_format": {"s": "TkhXQw=="}, "strides": {"list": {"i": ["1", "1", "1", "1"]}}, "dilations": {"list": {"i": ["1", "1", "1", "1"]}}, "explicit_paddings": {"list": {}}, "T": {"type": "DT_FLOAT"}, "padding": {"s": "VkFMSUQ="}}}, {"name": "StatefulPartitionedCall/SINet/si_net_1/concat", "op": "ConcatV2", "input": ["StatefulPartitionedCall/SINet/si_net_1/squeeze_separable_conv2d_2/sequential_1/conv2d_2/normalization/p_re_lu_2/p_re_lu_3/Relu", "StatefulPartitionedCall/SINet/si_net_1/s2_module_11/normalization_42/p_re_lu_32/p_re_lu_33/Relu", "StatefulPartitionedCall/SINet/si_net_1/concat/axis"], "attr": {"T": {"type": "DT_FLOAT"}, "N": {"i": "2"}, "Tidx": {"type": "DT_INT32"}}}, {"name": "StatefulPartitionedCall/SINet/si_net_1/conv2d_66/normalization_71/sync_batch_normalization_71/batchnorm/add_1", "op": "AddV2", "input": ["StatefulPartitionedCall/SINet/si_net_1/conv2d_66/normalization_71/sync_batch_normalization_71/batchnorm/mul_1", "StatefulPartitionedCall/SINet/si_net_1/conv2d_66/normalization_71/sync_batch_normalization_71/batchnorm/sub"], "attr": {"T": {"type": "DT_FLOAT"}}}, {"name": "StatefulPartitionedCall/SINet/si_net_1/normalization_43/sync_batch_normalization_43/batchnorm/mul_1", "op": "Mul", "input": ["StatefulPartitionedCall/SINet/si_net_1/concat", "StatefulPartitionedCall/SINet/si_net_1/normalization_43/sync_batch_normalization_43/batchnorm/mul"], "attr": {"T": {"type": "DT_FLOAT"}}}, {"name": "StatefulPartitionedCall/SINet/si_net_1/conv2d_66/normalization_71/p_re_lu_54/p_re_lu_55/Relu", "op": "Prelu", "input": ["StatefulPartitionedCall/SINet/si_net_1/conv2d_66/normalization_71/sync_batch_normalization_71/batchnorm/add_1", "StatefulPartitionedCall/SINet/si_net_1/conv2d_66/normalization_71/p_re_lu_54/p_re_lu_55/Neg"]}, {"name": "StatefulPartitionedCall/SINet/si_net_1/normalization_43/sync_batch_normalization_43/batchnorm/add_1", "op": "AddV2", "input": ["StatefulPartitionedCall/SINet/si_net_1/normalization_43/sync_batch_normalization_43/batchnorm/mul_1", "StatefulPartitionedCall/SINet/si_net_1/normalization_43/sync_batch_normalization_43/batchnorm/sub"], "attr": {"T": {"type": "DT_FLOAT"}}}, {"name": "StatefulPartitionedCall/SINet/si_net_1/normalization_43/p_re_lu_34/p_re_lu_35/Relu", "op": "Prelu", "input": ["StatefulPartitionedCall/SINet/si_net_1/normalization_43/sync_batch_normalization_43/batchnorm/add_1", "StatefulPartitionedCall/SINet/si_net_1/normalization_43/p_re_lu_34/p_re_lu_35/Neg"]}, {"name": "StatefulPartitionedCall/SINet/si_net_1/squeeze_separable_conv2d_3/sequential_3/conv2d_15/depthwise_conv2d/depthwise", "op": "DepthwiseConv2dNative", "input": ["StatefulPartitionedCall/SINet/si_net_1/normalization_43/p_re_lu_34/p_re_lu_35/Relu", "StatefulPartitionedCall/SINet/si_net_1/squeeze_separable_conv2d_3/sequential_3/conv2d_15/depthwise_conv2d/depthwise/ReadVariableOp"], "attr": {"T": {"type": "DT_FLOAT"}, "data_format": {"s": "TkhXQw=="}, "strides": {"list": {"i": ["1", "2", "2", "1"]}}, "dilations": {"list": {"i": ["1", "1", "1", "1"]}}, "padding": {"s": "U0FNRQ=="}, "explicit_paddings": {"list": {}}}}, {"name": "StatefulPartitionedCall/SINet/si_net_1/squeeze_separable_conv2d_3/sequential_3/squeeze_block_1/Mean", "op": "Mean", "input": ["StatefulPartitionedCall/SINet/si_net_1/squeeze_separable_conv2d_3/sequential_3/conv2d_15/depthwise_conv2d/depthwise", "StatefulPartitionedCall/SINet/si_net_1/squeeze_separable_conv2d_3/sequential_3/squeeze_block_1/Mean/reduction_indices"], "attr": {"T": {"type": "DT_FLOAT"}, "Tidx": {"type": "DT_INT32"}, "keep_dims": {"b": true}}}, {"name": "StatefulPartitionedCall/SINet/si_net_1/squeeze_separable_conv2d_3/sequential_3/squeeze_block_1/sequential_2/dense_1/Tensordot/Shape", "op": "Shape", "input": ["StatefulPartitionedCall/SINet/si_net_1/squeeze_separable_conv2d_3/sequential_3/squeeze_block_1/Mean"], "attr": {"out_type": {"type": "DT_INT32"}, "T": {"type": "DT_FLOAT"}}}, {"name": "StatefulPartitionedCall/SINet/si_net_1/squeeze_separable_conv2d_3/sequential_3/squeeze_block_1/sequential_2/dense_1/Tensordot/GatherV2_1", "op": "GatherV2", "input": ["StatefulPartitionedCall/SINet/si_net_1/squeeze_separable_conv2d_3/sequential_3/squeeze_block_1/sequential_2/dense_1/Tensordot/Shape", "StatefulPartitionedCall/SINet/si_net_1/squeeze_separable_conv2d_3/sequential_3/squeeze_block_1/sequential_2/dense_1/Tensordot/axes", "StatefulPartitionedCall/SINet/si_net_1/squeeze_separable_conv2d_3/sequential_3/squeeze_block_1/sequential_2/dense_1/Tensordot/GatherV2_1/axis"], "attr": {"Taxis": {"type": "DT_INT32"}, "Tparams": {"type": "DT_INT32"}, "batch_dims": {"i": "0"}, "Tindices": {"type": "DT_INT32"}}}, {"name": "StatefulPartitionedCall/SINet/si_net_1/squeeze_separable_conv2d_3/sequential_3/squeeze_block_1/sequential_2/dense_1/Tensordot/GatherV2", "op": "GatherV2", "input": ["StatefulPartitionedCall/SINet/si_net_1/squeeze_separable_conv2d_3/sequential_3/squeeze_block_1/sequential_2/dense_1/Tensordot/Shape", "StatefulPartitionedCall/SINet/si_net_1/squeeze_separable_conv2d_3/sequential_3/squeeze_block_1/sequential_2/dense_1/Tensordot/free", "StatefulPartitionedCall/SINet/si_net_1/squeeze_separable_conv2d_3/sequential_3/squeeze_block_1/sequential_2/dense_1/Tensordot/GatherV2/axis"], "attr": {"Taxis": {"type": "DT_INT32"}, "Tindices": {"type": "DT_INT32"}, "Tparams": {"type": "DT_INT32"}, "batch_dims": {"i": "0"}}}, {"name": "StatefulPartitionedCall/SINet/si_net_1/squeeze_separable_conv2d_3/sequential_3/squeeze_block_1/sequential_2/dense_1/Tensordot/Prod_1", "op": "Prod", "input": ["StatefulPartitionedCall/SINet/si_net_1/squeeze_separable_conv2d_3/sequential_3/squeeze_block_1/sequential_2/dense_1/Tensordot/GatherV2_1", "StatefulPartitionedCall/SINet/si_net_1/squeeze_separable_conv2d_3/sequential_3/squeeze_block_1/sequential_2/dense_1/Tensordot/Const_1"], "attr": {"keep_dims": {"b": false}, "Tidx": {"type": "DT_INT32"}, "T": {"type": "DT_INT32"}}}, {"name": "StatefulPartitionedCall/SINet/si_net_1/squeeze_separable_conv2d_3/sequential_3/squeeze_block_1/sequential_2/dense_1/Tensordot/Prod", "op": "Prod", "input": ["StatefulPartitionedCall/SINet/si_net_1/squeeze_separable_conv2d_3/sequential_3/squeeze_block_1/sequential_2/dense_1/Tensordot/GatherV2", "StatefulPartitionedCall/SINet/si_net_1/squeeze_separable_conv2d_3/sequential_3/squeeze_block_1/sequential_2/dense_1/Tensordot/Const"], "attr": {"Tidx": {"type": "DT_INT32"}, "keep_dims": {"b": false}, "T": {"type": "DT_INT32"}}}, {"name": "StatefulPartitionedCall/SINet/si_net_1/squeeze_separable_conv2d_3/sequential_3/squeeze_block_1/sequential_2/dense_1/Tensordot/concat_1", "op": "ConcatV2", "input": ["StatefulPartitionedCall/SINet/si_net_1/squeeze_separable_conv2d_3/sequential_3/squeeze_block_1/sequential_2/dense_1/Tensordot/GatherV2", "StatefulPartitionedCall/SINet/si_net_1/squeeze_separable_conv2d_3/sequential_3/squeeze_block_1/sequential_2/dense_1/Tensordot/Const_2", "StatefulPartitionedCall/SINet/si_net_1/squeeze_separable_conv2d_3/sequential_3/squeeze_block_1/sequential_2/dense_1/Tensordot/concat_1/axis"], "attr": {"N": {"i": "2"}, "T": {"type": "DT_INT32"}, "Tidx": {"type": "DT_INT32"}}}, {"name": "StatefulPartitionedCall/SINet/si_net_1/squeeze_separable_conv2d_3/sequential_3/squeeze_block_1/sequential_2/dense_1/Tensordot/stack", "op": "Pack", "input": ["StatefulPartitionedCall/SINet/si_net_1/squeeze_separable_conv2d_3/sequential_3/squeeze_block_1/sequential_2/dense_1/Tensordot/Prod", "StatefulPartitionedCall/SINet/si_net_1/squeeze_separable_conv2d_3/sequential_3/squeeze_block_1/sequential_2/dense_1/Tensordot/Prod_1"], "attr": {"T": {"type": "DT_INT32"}, "N": {"i": "2"}, "axis": {"i": "0"}}}, {"name": "StatefulPartitionedCall/SINet/si_net_1/squeeze_separable_conv2d_3/sequential_3/squeeze_block_1/sequential_2/dense_1/Tensordot/Reshape", "op": "Reshape", "input": ["StatefulPartitionedCall/SINet/si_net_1/squeeze_separable_conv2d_3/sequential_3/squeeze_block_1/Mean", "StatefulPartitionedCall/SINet/si_net_1/squeeze_separable_conv2d_3/sequential_3/squeeze_block_1/sequential_2/dense_1/Tensordot/stack"], "attr": {"T": {"type": "DT_FLOAT"}, "Tshape": {"type": "DT_INT32"}}}, {"name": "StatefulPartitionedCall/SINet/si_net_1/squeeze_separable_conv2d_3/sequential_3/squeeze_block_1/sequential_2/dense_1/Tensordot/MatMul", "op": "MatMul", "input": ["StatefulPartitionedCall/SINet/si_net_1/squeeze_separable_conv2d_3/sequential_3/squeeze_block_1/sequential_2/dense_1/Tensordot/Reshape", "StatefulPartitionedCall/SINet/si_net_1/squeeze_separable_conv2d_3/sequential_3/squeeze_block_1/sequential_2/dense_1/Tensordot/ReadVariableOp"], "device": "/device:CPU:0", "attr": {"transpose_a": {"b": false}, "transpose_b": {"b": false}, "T": {"type": "DT_FLOAT"}}}, {"name": "StatefulPartitionedCall/SINet/si_net_1/squeeze_separable_conv2d_3/sequential_3/squeeze_block_1/sequential_2/dense_1/Tensordot", "op": "Reshape", "input": ["StatefulPartitionedCall/SINet/si_net_1/squeeze_separable_conv2d_3/sequential_3/squeeze_block_1/sequential_2/dense_1/Tensordot/MatMul", "StatefulPartitionedCall/SINet/si_net_1/squeeze_separable_conv2d_3/sequential_3/squeeze_block_1/sequential_2/dense_1/Tensordot/concat_1"], "attr": {"Tshape": {"type": "DT_INT32"}, "T": {"type": "DT_FLOAT"}}}, {"name": "StatefulPartitionedCall/SINet/si_net_1/squeeze_separable_conv2d_3/sequential_3/squeeze_block_1/sequential_2/dense_1/BiasAdd", "op": "BiasAdd", "input": ["StatefulPartitionedCall/SINet/si_net_1/squeeze_separable_conv2d_3/sequential_3/squeeze_block_1/sequential_2/dense_1/Tensordot", "StatefulPartitionedCall/SINet/si_net_1/squeeze_separable_conv2d_3/sequential_3/squeeze_block_1/sequential_2/dense_1/BiasAdd/ReadVariableOp"], "attr": {"data_format": {"s": "TkhXQw=="}, "T": {"type": "DT_FLOAT"}}}, {"name": "StatefulPartitionedCall/SINet/si_net_1/squeeze_separable_conv2d_3/sequential_3/squeeze_block_1/sequential_2/p_re_lu_12/p_re_lu_13/Relu", "op": "Prelu", "input": ["StatefulPartitionedCall/SINet/si_net_1/squeeze_separable_conv2d_3/sequential_3/squeeze_block_1/sequential_2/dense_1/BiasAdd", "StatefulPartitionedCall/SINet/si_net_1/squeeze_separable_conv2d_3/sequential_3/squeeze_block_1/sequential_2/p_re_lu_12/p_re_lu_13/Neg"]}, {"name": "StatefulPartitionedCall/SINet/si_net_1/squeeze_separable_conv2d_3/sequential_3/squeeze_block_1/sequential_2/dense_2/Tensordot/Shape", "op": "Shape", "input": ["StatefulPartitionedCall/SINet/si_net_1/squeeze_separable_conv2d_3/sequential_3/squeeze_block_1/sequential_2/p_re_lu_12/p_re_lu_13/Relu"], "attr": {"T": {"type": "DT_FLOAT"}, "out_type": {"type": "DT_INT32"}}}, {"name": "StatefulPartitionedCall/SINet/si_net_1/squeeze_separable_conv2d_3/sequential_3/squeeze_block_1/sequential_2/dense_2/Tensordot/GatherV2_1", "op": "GatherV2", "input": ["StatefulPartitionedCall/SINet/si_net_1/squeeze_separable_conv2d_3/sequential_3/squeeze_block_1/sequential_2/dense_2/Tensordot/Shape", "StatefulPartitionedCall/SINet/si_net_1/squeeze_separable_conv2d_3/sequential_3/squeeze_block_1/sequential_2/dense_2/Tensordot/axes", "StatefulPartitionedCall/SINet/si_net_1/squeeze_separable_conv2d_3/sequential_3/squeeze_block_1/sequential_2/dense_2/Tensordot/GatherV2_1/axis"], "attr": {"Tparams": {"type": "DT_INT32"}, "Taxis": {"type": "DT_INT32"}, "batch_dims": {"i": "0"}, "Tindices": {"type": "DT_INT32"}}}, {"name": "StatefulPartitionedCall/SINet/si_net_1/squeeze_separable_conv2d_3/sequential_3/squeeze_block_1/sequential_2/dense_2/Tensordot/GatherV2", "op": "GatherV2", "input": ["StatefulPartitionedCall/SINet/si_net_1/squeeze_separable_conv2d_3/sequential_3/squeeze_block_1/sequential_2/dense_2/Tensordot/Shape", "StatefulPartitionedCall/SINet/si_net_1/squeeze_separable_conv2d_3/sequential_3/squeeze_block_1/sequential_2/dense_2/Tensordot/free", "StatefulPartitionedCall/SINet/si_net_1/squeeze_separable_conv2d_3/sequential_3/squeeze_block_1/sequential_2/dense_2/Tensordot/GatherV2/axis"], "attr": {"Tindices": {"type": "DT_INT32"}, "batch_dims": {"i": "0"}, "Taxis": {"type": "DT_INT32"}, "Tparams": {"type": "DT_INT32"}}}, {"name": "StatefulPartitionedCall/SINet/si_net_1/squeeze_separable_conv2d_3/sequential_3/squeeze_block_1/sequential_2/dense_2/Tensordot/Prod_1", "op": "Prod", "input": ["StatefulPartitionedCall/SINet/si_net_1/squeeze_separable_conv2d_3/sequential_3/squeeze_block_1/sequential_2/dense_2/Tensordot/GatherV2_1", "StatefulPartitionedCall/SINet/si_net_1/squeeze_separable_conv2d_3/sequential_3/squeeze_block_1/sequential_2/dense_2/Tensordot/Const_1"], "attr": {"keep_dims": {"b": false}, "Tidx": {"type": "DT_INT32"}, "T": {"type": "DT_INT32"}}}, {"name": "StatefulPartitionedCall/SINet/si_net_1/squeeze_separable_conv2d_3/sequential_3/squeeze_block_1/sequential_2/dense_2/Tensordot/Prod", "op": "Prod", "input": ["StatefulPartitionedCall/SINet/si_net_1/squeeze_separable_conv2d_3/sequential_3/squeeze_block_1/sequential_2/dense_2/Tensordot/GatherV2", "StatefulPartitionedCall/SINet/si_net_1/squeeze_separable_conv2d_3/sequential_3/squeeze_block_1/sequential_2/dense_2/Tensordot/Const"], "attr": {"T": {"type": "DT_INT32"}, "Tidx": {"type": "DT_INT32"}, "keep_dims": {"b": false}}}, {"name": "StatefulPartitionedCall/SINet/si_net_1/squeeze_separable_conv2d_3/sequential_3/squeeze_block_1/sequential_2/dense_2/Tensordot/concat_1", "op": "ConcatV2", "input": ["StatefulPartitionedCall/SINet/si_net_1/squeeze_separable_conv2d_3/sequential_3/squeeze_block_1/sequential_2/dense_2/Tensordot/GatherV2", "StatefulPartitionedCall/SINet/si_net_1/squeeze_separable_conv2d_3/sequential_3/squeeze_block_1/sequential_2/dense_2/Tensordot/Const_2", "StatefulPartitionedCall/SINet/si_net_1/squeeze_separable_conv2d_3/sequential_3/squeeze_block_1/sequential_2/dense_2/Tensordot/concat_1/axis"], "attr": {"N": {"i": "2"}, "T": {"type": "DT_INT32"}, "Tidx": {"type": "DT_INT32"}}}, {"name": "StatefulPartitionedCall/SINet/si_net_1/squeeze_separable_conv2d_3/sequential_3/squeeze_block_1/sequential_2/dense_2/Tensordot/stack", "op": "Pack", "input": ["StatefulPartitionedCall/SINet/si_net_1/squeeze_separable_conv2d_3/sequential_3/squeeze_block_1/sequential_2/dense_2/Tensordot/Prod", "StatefulPartitionedCall/SINet/si_net_1/squeeze_separable_conv2d_3/sequential_3/squeeze_block_1/sequential_2/dense_2/Tensordot/Prod_1"], "attr": {"T": {"type": "DT_INT32"}, "axis": {"i": "0"}, "N": {"i": "2"}}}, {"name": "StatefulPartitionedCall/SINet/si_net_1/squeeze_separable_conv2d_3/sequential_3/squeeze_block_1/sequential_2/dense_2/Tensordot/Reshape", "op": "Reshape", "input": ["StatefulPartitionedCall/SINet/si_net_1/squeeze_separable_conv2d_3/sequential_3/squeeze_block_1/sequential_2/p_re_lu_12/p_re_lu_13/Relu", "StatefulPartitionedCall/SINet/si_net_1/squeeze_separable_conv2d_3/sequential_3/squeeze_block_1/sequential_2/dense_2/Tensordot/stack"], "attr": {"Tshape": {"type": "DT_INT32"}, "T": {"type": "DT_FLOAT"}}}, {"name": "StatefulPartitionedCall/SINet/si_net_1/squeeze_separable_conv2d_3/sequential_3/squeeze_block_1/sequential_2/dense_2/Tensordot/MatMul", "op": "MatMul", "input": ["StatefulPartitionedCall/SINet/si_net_1/squeeze_separable_conv2d_3/sequential_3/squeeze_block_1/sequential_2/dense_2/Tensordot/Reshape", "StatefulPartitionedCall/SINet/si_net_1/squeeze_separable_conv2d_3/sequential_3/squeeze_block_1/sequential_2/dense_2/Tensordot/ReadVariableOp"], "device": "/device:CPU:0", "attr": {"transpose_b": {"b": false}, "T": {"type": "DT_FLOAT"}, "transpose_a": {"b": false}}}, {"name": "StatefulPartitionedCall/SINet/si_net_1/squeeze_separable_conv2d_3/sequential_3/squeeze_block_1/sequential_2/dense_2/Tensordot", "op": "Reshape", "input": ["StatefulPartitionedCall/SINet/si_net_1/squeeze_separable_conv2d_3/sequential_3/squeeze_block_1/sequential_2/dense_2/Tensordot/MatMul", "StatefulPartitionedCall/SINet/si_net_1/squeeze_separable_conv2d_3/sequential_3/squeeze_block_1/sequential_2/dense_2/Tensordot/concat_1"], "attr": {"Tshape": {"type": "DT_INT32"}, "T": {"type": "DT_FLOAT"}}}, {"name": "StatefulPartitionedCall/SINet/si_net_1/squeeze_separable_conv2d_3/sequential_3/squeeze_block_1/sequential_2/dense_2/BiasAdd", "op": "BiasAdd", "input": ["StatefulPartitionedCall/SINet/si_net_1/squeeze_separable_conv2d_3/sequential_3/squeeze_block_1/sequential_2/dense_2/Tensordot", "StatefulPartitionedCall/SINet/si_net_1/squeeze_separable_conv2d_3/sequential_3/squeeze_block_1/sequential_2/dense_2/BiasAdd/ReadVariableOp"], "attr": {"T": {"type": "DT_FLOAT"}, "data_format": {"s": "TkhXQw=="}}}, {"name": "StatefulPartitionedCall/SINet/si_net_1/squeeze_separable_conv2d_3/sequential_3/squeeze_block_1/sequential_2/p_re_lu_14/p_re_lu_15/Relu", "op": "Prelu", "input": ["StatefulPartitionedCall/SINet/si_net_1/squeeze_separable_conv2d_3/sequential_3/squeeze_block_1/sequential_2/dense_2/BiasAdd", "StatefulPartitionedCall/SINet/si_net_1/squeeze_separable_conv2d_3/sequential_3/squeeze_block_1/sequential_2/p_re_lu_14/p_re_lu_15/Neg"]}, {"name": "StatefulPartitionedCall/SINet/si_net_1/squeeze_separable_conv2d_3/sequential_3/squeeze_block_1/mul", "op": "Mul", "input": ["StatefulPartitionedCall/SINet/si_net_1/squeeze_separable_conv2d_3/sequential_3/squeeze_block_1/sequential_2/p_re_lu_14/p_re_lu_15/Relu", "StatefulPartitionedCall/SINet/si_net_1/squeeze_separable_conv2d_3/sequential_3/conv2d_15/depthwise_conv2d/depthwise"], "attr": {"T": {"type": "DT_FLOAT"}}}, {"name": "StatefulPartitionedCall/SINet/si_net_1/squeeze_separable_conv2d_3/sequential_3/conv2d_16/normalization_5/sync_batch_normalization_5/batchnorm/mul_1", "op": "Conv2D", "input": ["StatefulPartitionedCall/SINet/si_net_1/squeeze_separable_conv2d_3/sequential_3/squeeze_block_1/mul", "StatefulPartitionedCall/SINet/si_net_1/squeeze_separable_conv2d_3/sequential_3/conv2d_16/conv2d/Conv2D/merged_input"], "device": "/device:CPU:0", "attr": {"explicit_paddings": {"list": {}}, "padding": {"s": "VkFMSUQ="}, "T": {"type": "DT_FLOAT"}, "use_cudnn_on_gpu": {"b": true}, "dilations": {"list": {"i": ["1", "1", "1", "1"]}}, "strides": {"list": {"i": ["1", "1", "1", "1"]}}, "data_format": {"s": "TkhXQw=="}}}, {"name": "StatefulPartitionedCall/SINet/si_net_1/squeeze_separable_conv2d_3/sequential_3/conv2d_16/normalization_5/sync_batch_normalization_5/batchnorm/add_1", "op": "AddV2", "input": ["StatefulPartitionedCall/SINet/si_net_1/squeeze_separable_conv2d_3/sequential_3/conv2d_16/normalization_5/sync_batch_normalization_5/batchnorm/mul_1", "StatefulPartitionedCall/SINet/si_net_1/squeeze_separable_conv2d_3/sequential_3/conv2d_16/normalization_5/sync_batch_normalization_5/batchnorm/sub"], "attr": {"T": {"type": "DT_FLOAT"}}}, {"name": "StatefulPartitionedCall/SINet/si_net_1/squeeze_separable_conv2d_3/sequential_3/conv2d_16/normalization_5/p_re_lu_16/p_re_lu_17/Relu", "op": "Prelu", "input": ["StatefulPartitionedCall/SINet/si_net_1/squeeze_separable_conv2d_3/sequential_3/conv2d_16/normalization_5/sync_batch_normalization_5/batchnorm/add_1", "StatefulPartitionedCall/SINet/si_net_1/squeeze_separable_conv2d_3/sequential_3/conv2d_16/normalization_5/p_re_lu_16/p_re_lu_17/Neg"]}, {"name": "StatefulPartitionedCall/SINet/si_net_1/s2_module_12/conv2d_41/split", "op": "SplitV", "input": ["StatefulPartitionedCall/SINet/si_net_1/squeeze_separable_conv2d_3/sequential_3/conv2d_16/normalization_5/p_re_lu_16/p_re_lu_17/Relu", "StatefulPartitionedCall/SINet/si_net_1/s2_module_12/conv2d_41/Const", "StatefulPartitionedCall/SINet/si_net_1/s2_module_12/conv2d_41/split/split_dim"], "attr": {"T": {"type": "DT_FLOAT"}, "num_split": {"i": "2"}, "Tlen": {"type": "DT_INT32"}}}, {"name": "StatefulPartitionedCall/SINet/si_net_1/s2_module_12/conv2d_41/grouped_0/conv2d_17/Conv2D", "op": "Conv2D", "input": ["StatefulPartitionedCall/SINet/si_net_1/s2_module_12/conv2d_41/split", "StatefulPartitionedCall/SINet/si_net_1/s2_module_12/conv2d_41/grouped_0/conv2d_17/Conv2D/ReadVariableOp"], "device": "/device:CPU:0", "attr": {"strides": {"list": {"i": ["1", "1", "1", "1"]}}, "use_cudnn_on_gpu": {"b": true}, "explicit_paddings": {"list": {}}, "data_format": {"s": "TkhXQw=="}, "dilations": {"list": {"i": ["1", "1", "1", "1"]}}, "T": {"type": "DT_FLOAT"}, "padding": {"s": "VkFMSUQ="}}}, {"name": "StatefulPartitionedCall/SINet/si_net_1/s2_module_12/conv2d_41/grouped_1/conv2d_18/Conv2D", "op": "Conv2D", "input": ["StatefulPartitionedCall/SINet/si_net_1/s2_module_12/conv2d_41/split:1", "StatefulPartitionedCall/SINet/si_net_1/s2_module_12/conv2d_41/grouped_1/conv2d_18/Conv2D/ReadVariableOp"], "device": "/device:CPU:0", "attr": {"data_format": {"s": "TkhXQw=="}, "padding": {"s": "VkFMSUQ="}, "use_cudnn_on_gpu": {"b": true}, "dilations": {"list": {"i": ["1", "1", "1", "1"]}}, "explicit_paddings": {"list": {}}, "strides": {"list": {"i": ["1", "1", "1", "1"]}}, "T": {"type": "DT_FLOAT"}}}, {"name": "StatefulPartitionedCall/SINet/si_net_1/s2_module_12/conv2d_41/concat", "op": "ConcatV2", "input": ["StatefulPartitionedCall/SINet/si_net_1/s2_module_12/conv2d_41/grouped_0/conv2d_17/Conv2D", "StatefulPartitionedCall/SINet/si_net_1/s2_module_12/conv2d_41/grouped_1/conv2d_18/Conv2D", "StatefulPartitionedCall/SINet/si_net_1/s2_module_12/conv2d_41/concat/axis"], "attr": {"Tidx": {"type": "DT_INT32"}, "N": {"i": "2"}, "T": {"type": "DT_FLOAT"}}}, {"name": "StatefulPartitionedCall/SINet/si_net_1/s2_module_12/channel_shuffle_12/Reshape", "op": "Reshape", "input": ["StatefulPartitionedCall/SINet/si_net_1/s2_module_12/conv2d_41/concat", "StatefulPartitionedCall/SINet/si_net_1/s2_module_12/channel_shuffle_12/Reshape/shape"], "attr": {"T": {"type": "DT_FLOAT"}, "Tshape": {"type": "DT_INT32"}}}, {"name": "StatefulPartitionedCall/SINet/si_net_1/s2_module_12/channel_shuffle_12/transpose", "op": "Transpose", "input": ["StatefulPartitionedCall/SINet/si_net_1/s2_module_12/channel_shuffle_12/Reshape", "StatefulPartitionedCall/SINet/si_net_1/s2_module_12/channel_shuffle_12/transpose/perm"], "attr": {"Tperm": {"type": "DT_INT32"}, "T": {"type": "DT_FLOAT"}}}, {"name": "StatefulPartitionedCall/SINet/si_net_1/s2_module_12/channel_shuffle_12/Reshape_1", "op": "Reshape", "input": ["StatefulPartitionedCall/SINet/si_net_1/s2_module_12/channel_shuffle_12/transpose", "StatefulPartitionedCall/SINet/si_net_1/s2_module_12/channel_shuffle_12/Reshape_1/shape"], "attr": {"Tshape": {"type": "DT_INT32"}, "T": {"type": "DT_FLOAT"}}}, {"name": "StatefulPartitionedCall/SINet/si_net_1/s2_module_12/s2_block_25/conv2d_19/depthwise_conv2d_4/depthwise", "op": "DepthwiseConv2dNative", "input": ["StatefulPartitionedCall/SINet/si_net_1/s2_module_12/channel_shuffle_12/Reshape_1", "StatefulPartitionedCall/SINet/si_net_1/s2_module_12/s2_block_25/conv2d_19/depthwise_conv2d_4/depthwise/ReadVariableOp"], "attr": {"dilations": {"list": {"i": ["1", "1", "1", "1"]}}, "T": {"type": "DT_FLOAT"}, "explicit_paddings": {"list": {}}, "strides": {"list": {"i": ["1", "1", "1", "1"]}}, "padding": {"s": "U0FNRQ=="}, "data_format": {"s": "TkhXQw=="}}}, {"name": "StatefulPartitionedCall/SINet/si_net_1/s2_module_12/s2_block_24/conv2d_21/depthwise_conv2d_5/depthwise", "op": "DepthwiseConv2dNative", "input": ["StatefulPartitionedCall/SINet/si_net_1/s2_module_12/channel_shuffle_12/Reshape_1", "StatefulPartitionedCall/SINet/si_net_1/s2_module_12/s2_block_24/conv2d_21/depthwise_conv2d_5/depthwise/ReadVariableOp"], "attr": {"explicit_paddings": {"list": {}}, "dilations": {"list": {"i": ["1", "1", "1", "1"]}}, "data_format": {"s": "TkhXQw=="}, "padding": {"s": "U0FNRQ=="}, "strides": {"list": {"i": ["1", "1", "1", "1"]}}, "T": {"type": "DT_FLOAT"}}}, {"name": "StatefulPartitionedCall/SINet/si_net_1/s2_module_12/s2_block_25/conv2d_19/normalization_6/sync_batch_normalization_6/batchnorm/mul_1", "op": "Mul", "input": ["StatefulPartitionedCall/SINet/si_net_1/s2_module_12/s2_block_25/conv2d_19/depthwise_conv2d_4/depthwise", "StatefulPartitionedCall/SINet/si_net_1/s2_module_12/s2_block_25/conv2d_19/normalization_6/sync_batch_normalization_6/batchnorm/mul"], "attr": {"T": {"type": "DT_FLOAT"}}}, {"name": "StatefulPartitionedCall/SINet/si_net_1/s2_module_12/s2_block_24/conv2d_21/normalization_7/sync_batch_normalization_7/batchnorm/mul_1", "op": "Mul", "input": ["StatefulPartitionedCall/SINet/si_net_1/s2_module_12/s2_block_24/conv2d_21/depthwise_conv2d_5/depthwise", "StatefulPartitionedCall/SINet/si_net_1/s2_module_12/s2_block_24/conv2d_21/normalization_7/sync_batch_normalization_7/batchnorm/mul"], "attr": {"T": {"type": "DT_FLOAT"}}}, {"name": "StatefulPartitionedCall/SINet/si_net_1/s2_module_12/s2_block_25/conv2d_19/normalization_6/sync_batch_normalization_6/batchnorm/add_1", "op": "AddV2", "input": ["StatefulPartitionedCall/SINet/si_net_1/s2_module_12/s2_block_25/conv2d_19/normalization_6/sync_batch_normalization_6/batchnorm/mul_1", "StatefulPartitionedCall/SINet/si_net_1/s2_module_12/s2_block_25/conv2d_19/normalization_6/sync_batch_normalization_6/batchnorm/sub"], "attr": {"T": {"type": "DT_FLOAT"}}}, {"name": "StatefulPartitionedCall/SINet/si_net_1/s2_module_12/s2_block_24/conv2d_21/normalization_7/sync_batch_normalization_7/batchnorm/add_1", "op": "AddV2", "input": ["StatefulPartitionedCall/SINet/si_net_1/s2_module_12/s2_block_24/conv2d_21/normalization_7/sync_batch_normalization_7/batchnorm/mul_1", "StatefulPartitionedCall/SINet/si_net_1/s2_module_12/s2_block_24/conv2d_21/normalization_7/sync_batch_normalization_7/batchnorm/sub"], "attr": {"T": {"type": "DT_FLOAT"}}}, {"name": "StatefulPartitionedCall/SINet/si_net_1/s2_module_12/s2_block_25/conv2d_19/normalization_6/p_re_lu_18/p_re_lu_19/Relu", "op": "Prelu", "input": ["StatefulPartitionedCall/SINet/si_net_1/s2_module_12/s2_block_25/conv2d_19/normalization_6/sync_batch_normalization_6/batchnorm/add_1", "StatefulPartitionedCall/SINet/si_net_1/s2_module_12/s2_block_25/conv2d_19/normalization_6/p_re_lu_18/p_re_lu_19/Neg"]}, {"name": "StatefulPartitionedCall/SINet/si_net_1/s2_module_12/s2_block_24/conv2d_21/normalization_7/p_re_lu_20/p_re_lu_21/Relu", "op": "Prelu", "input": ["StatefulPartitionedCall/SINet/si_net_1/s2_module_12/s2_block_24/conv2d_21/normalization_7/sync_batch_normalization_7/batchnorm/add_1", "StatefulPartitionedCall/SINet/si_net_1/s2_module_12/s2_block_24/conv2d_21/normalization_7/p_re_lu_20/p_re_lu_21/Neg"]}, {"name": "StatefulPartitionedCall/SINet/si_net_1/s2_module_12/s2_block_25/normalization_45/sync_batch_normalization_45/batchnorm/mul_1", "op": "Conv2D", "input": ["StatefulPartitionedCall/SINet/si_net_1/s2_module_12/s2_block_25/conv2d_19/normalization_6/p_re_lu_18/p_re_lu_19/Relu", "StatefulPartitionedCall/SINet/si_net_1/s2_module_12/s2_block_25/conv2d_43/conv2d_20/Conv2D/merged_input"], "device": "/device:CPU:0", "attr": {"explicit_paddings": {"list": {}}, "dilations": {"list": {"i": ["1", "1", "1", "1"]}}, "padding": {"s": "VkFMSUQ="}, "use_cudnn_on_gpu": {"b": true}, "T": {"type": "DT_FLOAT"}, "strides": {"list": {"i": ["1", "1", "1", "1"]}}, "data_format": {"s": "TkhXQw=="}}}, {"name": "StatefulPartitionedCall/SINet/si_net_1/s2_module_12/s2_block_24/normalization_44/sync_batch_normalization_44/batchnorm/mul_1", "op": "Conv2D", "input": ["StatefulPartitionedCall/SINet/si_net_1/s2_module_12/s2_block_24/conv2d_21/normalization_7/p_re_lu_20/p_re_lu_21/Relu", "StatefulPartitionedCall/SINet/si_net_1/s2_module_12/s2_block_24/conv2d_42/conv2d_22/Conv2D/merged_input"], "device": "/device:CPU:0", "attr": {"data_format": {"s": "TkhXQw=="}, "strides": {"list": {"i": ["1", "1", "1", "1"]}}, "padding": {"s": "VkFMSUQ="}, "dilations": {"list": {"i": ["1", "1", "1", "1"]}}, "use_cudnn_on_gpu": {"b": true}, "T": {"type": "DT_FLOAT"}, "explicit_paddings": {"list": {}}}}, {"name": "StatefulPartitionedCall/SINet/si_net_1/s2_module_12/s2_block_25/normalization_45/sync_batch_normalization_45/batchnorm/add_1", "op": "AddV2", "input": ["StatefulPartitionedCall/SINet/si_net_1/s2_module_12/s2_block_25/normalization_45/sync_batch_normalization_45/batchnorm/mul_1", "StatefulPartitionedCall/SINet/si_net_1/s2_module_12/s2_block_25/normalization_45/sync_batch_normalization_45/batchnorm/sub"], "attr": {"T": {"type": "DT_FLOAT"}}}, {"name": "StatefulPartitionedCall/SINet/si_net_1/s2_module_12/s2_block_24/normalization_44/sync_batch_normalization_44/batchnorm/add_1", "op": "AddV2", "input": ["StatefulPartitionedCall/SINet/si_net_1/s2_module_12/s2_block_24/normalization_44/sync_batch_normalization_44/batchnorm/mul_1", "StatefulPartitionedCall/SINet/si_net_1/s2_module_12/s2_block_24/normalization_44/sync_batch_normalization_44/batchnorm/sub"], "attr": {"T": {"type": "DT_FLOAT"}}}, {"name": "StatefulPartitionedCall/SINet/si_net_1/s2_module_12/concat", "op": "ConcatV2", "input": ["StatefulPartitionedCall/SINet/si_net_1/s2_module_12/s2_block_25/normalization_45/sync_batch_normalization_45/batchnorm/add_1", "StatefulPartitionedCall/SINet/si_net_1/s2_module_12/s2_block_24/normalization_44/sync_batch_normalization_44/batchnorm/add_1", "StatefulPartitionedCall/SINet/si_net_1/s2_module_12/concat/axis"], "attr": {"T": {"type": "DT_FLOAT"}, "N": {"i": "2"}, "Tidx": {"type": "DT_INT32"}}}, {"name": "StatefulPartitionedCall/SINet/si_net_1/s2_module_12/normalization_46/sync_batch_normalization_46/batchnorm/mul_1", "op": "Mul", "input": ["StatefulPartitionedCall/SINet/si_net_1/s2_module_12/concat", "StatefulPartitionedCall/SINet/si_net_1/s2_module_12/normalization_46/sync_batch_normalization_46/batchnorm/mul"], "attr": {"T": {"type": "DT_FLOAT"}}}, {"name": "StatefulPartitionedCall/SINet/si_net_1/s2_module_12/normalization_46/sync_batch_normalization_46/batchnorm/add_1", "op": "AddV2", "input": ["StatefulPartitionedCall/SINet/si_net_1/s2_module_12/normalization_46/sync_batch_normalization_46/batchnorm/mul_1", "StatefulPartitionedCall/SINet/si_net_1/s2_module_12/normalization_46/sync_batch_normalization_46/batchnorm/sub"], "attr": {"T": {"type": "DT_FLOAT"}}}, {"name": "StatefulPartitionedCall/SINet/si_net_1/s2_modu…
], "attr": {"T": {"type": "DT_FLOAT"}}}, {"name": "Identity", "op": "Identity", "input": ["StatefulPartitionedCall/SINet/si_net_1/conv2d_67/Sigmoid"], "attr": {"T": {"type": "DT_FLOAT"}}}], "library": {}, "versions": {"producer": 671}}, "weightsManifest": [{"paths": ["group1-shard1of1.bin"], "weights": [{"name": "StatefulPartitionedCall/SINet/si_net_1/conv2d_66/normalization_71/p_re_lu_54/p_re_lu_55/Neg", "shape": [1, 1, 1], "dtype": "float32"}, {"name": "StatefulPartitionedCall/SINet/si_net_1/conv2d_66/conv2d_66/Conv2D/merged_input", "shape": [1, 1, 48, 1], "dtype": "float32"}, {"name": "StatefulPartitionedCall/SINet/si_net_1/conv2d_66/normalization_71/sync_batch_normalization_71/batchnorm/sub", "shape": [1], "dtype": "float32"}, {"name": "StatefulPartitionedCall/SINet/si_net_1/sub/x", "shape": [], "dtype": "float32"}, {"name": "StatefulPartitionedCall/SINet/si_net_1/Max/reduction_indices", "shape": [], "dtype": "int32"}, {"name": "StatefulPartitionedCall/SINet/si_net_1/normalization_68/p_re_lu_52/p_re_lu_53/Neg", "shape": [1, 1, 144], "dtype": "float32"}, {"name": "StatefulPartitionedCall/SINet/si_net_1/s2_module_19/normalization_67/p_re_lu_50/p_re_lu_51/Neg", "shape": [1, 1, 96], "dtype": "float32"}, {"name": "StatefulPartitionedCall/SINet/si_net_1/s2_module_19/s2_block_39/conv2d_61/normalization_20/p_re_lu_46/p_re_lu_47/Neg", "shape": [1, 1, 48], "dtype": "float32"}, {"name": "StatefulPartitionedCall/SINet/si_net_1/s2_module_19/s2_block_39/conv2d_61/depthwise_conv2d_18/depthwise/ReadVariableOp", "shape": [3, 3, 48, 1], "dtype": "float32"}, {"name": "StatefulPartitionedCall/SINet/si_net_1/s2_module_19/s2_block_39/conv2d_61/normalization_20/sync_batch_normalization_20/batchnorm/mul", "shape": [48], "dtype": "float32"}, {"name": "StatefulPartitionedCall/SINet/si_net_1/s2_module_19/s2_block_39/conv2d_61/normalization_20/sync_batch_normalization_20/batchnorm/sub", "shape": [48], "dtype": "float32"}, {"name": "StatefulPartitionedCall/SINet/si_net_1/s2_module_19/s2_block_39/conv2d_64/conv2d_62/Conv2D/merged_input", "shape": [1, 1, 48, 48], "dtype": "float32"}, {"name": "StatefulPartitionedCall/SINet/si_net_1/s2_module_19/s2_block_39/normalization_66/sync_batch_normalization_66/batchnorm/sub", "shape": [48], "dtype": "float32"}, {"name": "StatefulPartitionedCall/SINet/si_net_1/s2_module_19/s2_block_38/conv2d_63/normalization_21/p_re_lu_48/p_re_lu_49/Neg", "shape": [1, 1, 48], "dtype": "float32"}, {"name": "StatefulPartitionedCall/SINet/si_net_1/s2_module_19/conv2d_62/grouped_0/conv2d_59/Conv2D/ReadVariableOp", "shape": [1, 1, 48, 24], "dtype": "float32"}, {"name": "StatefulPartitionedCall/SINet/si_net_1/s2_module_18/normalization_64/p_re_lu_48/p_re_lu_49/Neg", "shape": [1, 1, 96], "dtype": "float32"}, {"name": "StatefulPartitionedCall/SINet/si_net_1/s2_module_18/s2_block_37/conv2d_55/normalization_18/p_re_lu_42/p_re_lu_43/Neg", "shape": [1, 1, 48], "dtype": "float32"}, {"name": "StatefulPartitionedCall/SINet/si_net_1/s2_module_18/s2_block_37/conv2d_55/depthwise_conv2d_16/depthwise/ReadVariableOp", "shape": [3, 3, 48, 1], "dtype": "float32"}, {"name": "StatefulPartitionedCall/SINet/si_net_1/s2_module_18/s2_block_37/conv2d_55/normalization_18/sync_batch_normalization_18/batchnorm/mul", "shape": [48], "dtype": "float32"}, {"name": "StatefulPartitionedCall/SINet/si_net_1/s2_module_18/s2_block_37/conv2d_55/normalization_18/sync_batch_normalization_18/batchnorm/sub", "shape": [48], "dtype": "float32"}, {"name": "StatefulPartitionedCall/SINet/si_net_1/s2_module_18/s2_block_37/conv2d_61/conv2d_56/Conv2D/ReadVariableOp", "shape": [1, 1, 48, 48], "dtype": "float32"}, {"name": "StatefulPartitionedCall/SINet/si_net_1/s2_module_18/s2_block_37/upsampling_bilinear2d_10/resize/size", "shape": [2], "dtype": "int32"}, {"name": "StatefulPartitionedCall/SINet/si_net_1/s2_module_18/s2_block_37/normalization_63/sync_batch_normalization_63/batchnorm/mul", "shape": [48], "dtype": "float32"}, {"name": "StatefulPartitionedCall/SINet/si_net_1/s2_module_18/s2_block_37/normalization_63/sync_batch_normalization_63/batchnorm/sub", "shape": [48], "dtype": "float32"}, {"name": "StatefulPartitionedCall/SINet/si_net_1/s2_module_18/s2_block_36/conv2d_57/normalization_19/p_re_lu_44/p_re_lu_45/Neg", "shape": [1, 1, 48], "dtype": "float32"}, {"name": "StatefulPartitionedCall/SINet/si_net_1/s2_module_18/conv2d_59/grouped_0/conv2d_53/Conv2D/ReadVariableOp", "shape": [1, 1, 48, 24], "dtype": "float32"}, {"name": "StatefulPartitionedCall/SINet/si_net_1/s2_module_17/normalization_61/p_re_lu_46/p_re_lu_47/Neg", "shape": [1, 1, 96], "dtype": "float32"}, {"name": "StatefulPartitionedCall/SINet/si_net_1/s2_module_17/s2_block_35/conv2d_49/normalization_16/p_re_lu_38/p_re_lu_39/Neg", "shape": [1, 1, 48], "dtype": "float32"}, {"name": "StatefulPartitionedCall/SINet/si_net_1/s2_module_17/s2_block_35/conv2d_49/depthwise_conv2d_14/depthwise/ReadVariableOp", "shape": [5, 5, 48, 1], "dtype": "float32"}, {"name": "StatefulPartitionedCall/SINet/si_net_1/s2_module_17/s2_block_35/conv2d_49/normalization_16/sync_batch_normalization_16/batchnorm/mul", "shape": [48], "dtype": "float32"}, {"name": "StatefulPartitionedCall/SINet/si_net_1/s2_module_17/s2_block_35/conv2d_49/normalization_16/sync_batch_normalization_16/batchnorm/sub", "shape": [48], "dtype": "float32"}, {"name": "StatefulPartitionedCall/SINet/si_net_1/s2_module_17/s2_block_35/conv2d_58/conv2d_50/Conv2D/merged_input", "shape": [1, 1, 48, 48], "dtype": "float32"}, {"name": "StatefulPartitionedCall/SINet/si_net_1/s2_module_17/s2_block_35/normalization_60/sync_batch_normalization_60/batchnorm/sub", "shape": [48], "dtype": "float32"}, {"name": "StatefulPartitionedCall/SINet/si_net_1/s2_module_17/s2_block_34/conv2d_51/normalization_17/p_re_lu_40/p_re_lu_41/Neg", "shape": [1, 1, 48], "dtype": "float32"}, {"name": "StatefulPartitionedCall/SINet/si_net_1/s2_module_17/conv2d_56/grouped_0/conv2d_47/Conv2D/ReadVariableOp", "shape": [1, 1, 48, 24], "dtype": "float32"}, {"name": "StatefulPartitionedCall/SINet/si_net_1/s2_module_16/normalization_58/p_re_lu_44/p_re_lu_45/Neg", "shape": [1, 1, 96], "dtype": "float32"}, {"name": "StatefulPartitionedCall/SINet/si_net_1/s2_module_16/s2_block_33/conv2d_43/normalization_14/p_re_lu_34/p_re_lu_35/Neg", "shape": [1, 1, 48], "dtype": "float32"}, {"name": "StatefulPartitionedCall/SINet/si_net_1/s2_module_16/s2_block_33/conv2d_43/depthwise_conv2d_12/depthwise/ReadVariableOp", "shape": [3, 3, 48, 1], "dtype": "float32"}, {"name": "StatefulPartitionedCall/SINet/si_net_1/s2_module_16/s2_block_33/conv2d_43/normalization_14/sync_batch_normalization_14/batchnorm/mul", "shape": [48], "dtype": "float32"}, {"name": "StatefulPartitionedCall/SINet/si_net_1/s2_module_16/s2_block_33/conv2d_43/normalization_14/sync_batch_normalization_14/batchnorm/sub", "shape": [48], "dtype": "float32"}, {"name": "StatefulPartitionedCall/SINet/si_net_1/s2_module_16/s2_block_33/conv2d_55/conv2d_44/Conv2D/merged_input", "shape": [1, 1, 48, 48], "dtype": "float32"}, {"name": "StatefulPartitionedCall/SINet/si_net_1/s2_module_16/s2_block_33/normalization_57/sync_batch_normalization_57/batchnorm/sub", "shape": [48], "dtype": "float32"}, {"name": "StatefulPartitionedCall/SINet/si_net_1/s2_module_16/s2_block_32/conv2d_45/normalization_15/p_re_lu_36/p_re_lu_37/Neg", "shape": [1, 1, 48], "dtype": "float32"}, {"name": "StatefulPartitionedCall/SINet/si_net_1/s2_module_16/conv2d_53/grouped_0/conv2d_41/Conv2D/ReadVariableOp", "shape": [1, 1, 48, 24], "dtype": "float32"}, {"name": "StatefulPartitionedCall/SINet/si_net_1/s2_module_15/normalization_55/p_re_lu_42/p_re_lu_43/Neg", "shape": [1, 1, 96], "dtype": "float32"}, {"name": "StatefulPartitionedCall/SINet/si_net_1/s2_module_15/s2_block_31/conv2d_37/normalization_12/p_re_lu_30/p_re_lu_31/Neg", "shape": [1, 1, 48], "dtype": "float32"}, {"name": "StatefulPartitionedCall/SINet/si_net_1/s2_module_15/s2_block_31/conv2d_37/depthwise_conv2d_10/depthwise/ReadVariableOp", "shape": [5, 5, 48, 1], "dtype": "float32"}, {"name": "StatefulPartitionedCall/SINet/si_net_1/s2_module_15/s2_block_31/conv2d_37/normalization_12/sync_batch_normalization_12/batchnorm/mul", "shape": [48], "dtype": "float32"}, {"name": "StatefulPartitionedCall/SINet/si_net_1/s2_module_15/s2_block_31/conv2d_37/normalization_12/sync_batch_normalization_12/batchnorm/sub", "shape": [48], "dtype": "float32"}, {"name": "StatefulPartitionedCall/SINet/si_net_1/s2_module_15/s2_block_31/conv2d_52/conv2d_38/Conv2D/ReadVariableOp", "shape": [1, 1, 48, 48], "dtype": "float32"}, {"name": "StatefulPartitionedCall/SINet/si_net_1/s2_module_15/s2_block_31/upsampling_bilinear2d_8/resize/size", "shape": [2], "dtype": "int32"}, {"name": "StatefulPartitionedCall/SINet/si_net_1/s2_module_15/s2_block_31/normalization_54/sync_batch_normalization_54/batchnorm/mul", "shape": [48], "dtype": "float32"}, {"name": "StatefulPartitionedCall/SINet/si_net_1/s2_module_15/s2_block_31/normalization_54/sync_batch_normalization_54/batchnorm/sub", "shape": [48], "dtype": "float32"}, {"name": "StatefulPartitionedCall/SINet/si_net_1/s2_module_15/s2_block_30/conv2d_39/normalization_13/p_re_lu_32/p_re_lu_33/Neg", "shape": [1, 1, 48], "dtype": "float32"}, {"name": "StatefulPartitionedCall/SINet/si_net_1/s2_module_15/conv2d_50/grouped_0/conv2d_35/Conv2D/ReadVariableOp", "shape": [1, 1, 48, 24], "dtype": "float32"}, {"name": "StatefulPartitionedCall/SINet/si_net_1/s2_module_14/normalization_52/p_re_lu_40/p_re_lu_41/Neg", "shape": [1, 1, 96], "dtype": "float32"}, {"name": "StatefulPartitionedCall/SINet/si_net_1/s2_module_14/s2_block_29/conv2d_31/normalization_10/p_re_lu_26/p_re_lu_27/Neg", "shape": [1, 1, 48], "dtype": "float32"}, {"name": "StatefulPartitionedCall/SINet/si_net_1/s2_module_14/s2_block_29/conv2d_31/depthwise_conv2d_8/depthwise/ReadVariableOp", "shape": [5, 5, 48, 1], "dtype": "float32"}, {"name": "StatefulPartitionedCall/SINet/si_net_1/s2_module_14/s2_block_29/conv2d_31/normalization_10/sync_batch_normalization_10/batchnorm/mul", "shape": [48], "dtype": "float32"}, {"name": "StatefulPartitionedCall/SINet/si_net_1/s2_module_14/s2_block_29/conv2d_31/normalization_10/sync_batch_normalization_10/batchnorm/sub", "shape": [48], "dtype": "float32"}, {"name": "StatefulPartitionedCall/SINet/si_net_1/s2_module_14/s2_block_29/conv2d_49/conv2d_32/Conv2D/merged_input", "shape": [1, 1, 48, 48], "dtype": "float32"}, {"name": "StatefulPartitionedCall/SINet/si_net_1/s2_module_14/s2_block_29/normalization_51/sync_batch_normalization_51/batchnorm/sub", "shape": [48], "dtype": "float32"}, {"name": "StatefulPartitionedCall/SINet/si_net_1/s2_module_14/s2_block_28/conv2d_33/normalization_11/p_re_lu_28/p_re_lu_29/Neg", "shape": [1, 1, 48], "dtype": "float32"}, {"name": "StatefulPartitionedCall/SINet/si_net_1/s2_module_14/conv2d_47/grouped_0/conv2d_29/Conv2D/ReadVariableOp", "shape": [1, 1, 48, 24], "dtype": "float32"}, {"name": "StatefulPartitionedCall/SINet/si_net_1/s2_module_13/normalization_49/p_re_lu_38/p_re_lu_39/Neg", "shape": [1, 1, 96], "dtype": "float32"}, {"name": "StatefulPartitionedCall/SINet/si_net_1/s2_module_13/s2_block_27/conv2d_25/normalization_8/p_re_lu_22/p_re_lu_23/Neg", "shape": [1, 1, 48], "dtype": "float32"}, {"name": "StatefulPartitionedCall/SINet/si_net_1/s2_module_13/s2_block_27/conv2d_25/depthwise_conv2d_6/depthwise/ReadVariableOp", "shape": [3, 3, 48, 1], "dtype": "float32"}, {"name": "StatefulPartitionedCall/SINet/si_net_1/s2_module_13/s2_block_27/conv2d_25/normalization_8/sync_batch_normalization_8/batchnorm/mul", "shape": [48], "dtype": "float32"}, {"name": "StatefulPartitionedCall/SINet/si_net_1/s2_module_13/s2_block_27/conv2d_25/normalization_8/sync_batch_normalization_8/batchnorm/sub", "shape": [48], "dtype": "float32"}, {"name": "StatefulPartitionedCall/SINet/si_net_1/s2_module_13/s2_block_27/conv2d_46/conv2d_26/Conv2D/merged_input", "shape": [1, 1, 48, 48], "dtype": "float32"}, {"name": "StatefulPartitionedCall/SINet/si_net_1/s2_module_13/s2_block_27/normalization_48/sync_batch_normalization_48/batchnorm/sub", "shape": [48], "dtype": "float32"}, {"name": "StatefulPartitionedCall/SINet/si_net_1/s2_module_13/s2_block_26/conv2d_27/normalization_9/p_re_lu_24/p_re_lu_25/Neg", "shape": [1, 1, 48], "dtype": "float32"}, {"name": "StatefulPartitionedCall/SINet/si_net_1/s2_module_13/conv2d_44/grouped_0/conv2d_23/Conv2D/ReadVariableOp", "shape": [1, 1, 48, 24], "dtype": "float32"}, {"name": "StatefulPartitionedCall/SINet/si_net_1/s2_module_12/normalization_46/p_re_lu_36/p_re_lu_37/Neg", "shape": [1, 1, 96], "dtype": "float32"}, {"name": "StatefulPartitionedCall/SINet/si_net_1/s2_module_12/s2_block_25/conv2d_19/normalization_6/p_re_lu_18/p_re_lu_19/Neg", "shape": [1, 1, 48], "dtype": "float32"}, {"name": "StatefulPartitionedCall/SINet/si_net_1/s2_module_12/s2_block_25/conv2d_19/depthwise_conv2d_4/depthwise/ReadVariableOp", "shape": [3, 3, 48, 1], "dtype": "float32"}, {"name": "StatefulPartitionedCall/SINet/si_net_1/s2_module_12/s2_block_25/conv2d_19/normalization_6/sync_batch_normalization_6/batchnorm/mul", "shape": [48], "dtype": "float32"}, {"name": "StatefulPartitionedCall/SINet/si_net_1/s2_module_12/s2_block_25/conv2d_19/normalization_6/sync_batch_normalization_6/batchnorm/sub", "shape": [48], "dtype": "float32"}, {"name": "StatefulPartitionedCall/SINet/si_net_1/s2_module_12/s2_block_25/conv2d_43/conv2d_20/Conv2D/merged_input", "shape": [1, 1, 48, 48], "dtype": "float32"}, {"name": "StatefulPartitionedCall/SINet/si_net_1/s2_module_12/s2_block_25/normalization_45/sync_batch_normalization_45/batchnorm/sub", "shape": [48], "dtype": "float32"}, {"name": "StatefulPartitionedCall/SINet/si_net_1/s2_module_12/s2_block_24/conv2d_21/normalization_7/p_re_lu_20/p_re_lu_21/Neg", "shape": [1, 1, 48], "dtype": "float32"}, {"name": "StatefulPartitionedCall/SINet/si_net_1/s2_module_12/conv2d_41/grouped_0/conv2d_17/Conv2D/ReadVariableOp", "shape": [1, 1, 24, 24], "dtype": "float32"}, {"name": "StatefulPartitionedCall/SINet/si_net_1/squeeze_separable_conv2d_3/sequential_3/conv2d_16/normalization_5/p_re_lu_16/p_re_lu_17/Neg", "shape": [1, 1, 48], "dtype": "float32"}, {"name": "StatefulPartitionedCall/SINet/si_net_1/squeeze_separable_conv2d_3/sequential_3/squeeze_block_1/sequential_2/p_re_lu_14/p_re_lu_15/Neg", "shape": [1, 1, 64], "dtype": "float32"}, {"name": "StatefulPartitionedCall/SINet/si_net_1/squeeze_separable_conv2d_3/sequential_3/squeeze_block_1/sequential_2/dense_2/Tensordot/Const", "shape": [1], "dtype": "int32"}, {"name": "StatefulPartitionedCall/SINet/si_net_1/squeeze_separable_conv2d_3/sequential_3/squeeze_block_1/sequential_2/dense_2/Tensordot/axes", "shape": [1], "dtype": "int32"}, {"name": "StatefulPartitionedCall/SINet/si_net_1/squeeze_separable_conv2d_3/sequential_3/squeeze_block_1/sequential_2/dense_2/Tensordot/GatherV2_1/axis", "shape": [], "dtype": "int32"}, {"name": "StatefulPartitionedCall/SINet/si_net_1/squeeze_separable_conv2d_3/sequential_3/squeeze_block_1/sequential_2/dense_2/Tensordot/Const_1", "shape": [1], "dtype": "int32"}, {"name": "StatefulPartitionedCall/SINet/si_net_1/squeeze_separable_conv2d_3/sequential_3/squeeze_block_1/sequential_2/dense_2/Tensordot/ReadVariableOp", "shape": [32, 64], "dtype": "float32"}, {"name": "StatefulPartitionedCall/SINet/si_net_1/squeeze_separable_conv2d_3/sequential_3/squeeze_block_1/sequential_2/p_re_lu_12/p_re_lu_13/Neg", "shape": [1, 1, 32], "dtype": "float32"}, {"name": "StatefulPartitionedCall/SINet/si_net_1/squeeze_separable_conv2d_3/sequential_3/squeeze_block_1/sequential_2/dense_1/Tensordot/Const", "shape": [1], "dtype": "int32"}, {"name": "StatefulPartitionedCall/SINet/si_net_1/squeeze_separable_conv2d_3/sequential_3/squeeze_block_1/sequential_2/dense_1/Tensordot/axes", "shape": [1], "dtype": "int32"}, {"name": "StatefulPartitionedCall/SINet/si_net_1/squeeze_separable_conv2d_3/sequential_3/squeeze_block_1/sequential_2/dense_1/Tensordot/GatherV2_1/axis", "shape": [], "dtype": "int32"}, {"name": "StatefulPartitionedCall/SINet/si_net_1/squeeze_separable_conv2d_3/sequential_3/squeeze_block_1/sequential_2/dense_1/Tensordot/Const_1", "shape": [1], "dtype": "int32"}, {"name": "StatefulPartitionedCall/SINet/si_net_1/squeeze_separable_conv2d_3/sequential_3/squeeze_block_1/sequential_2/dense_1/Tensordot/ReadVariableOp", "shape": [64, 32], "dtype": "float32"}, {"name": "StatefulPartitionedCall/SINet/si_net_1/squeeze_separable_conv2d_3/sequential_3/squeeze_block_1/Mean/reduction_indices", "shape": [2], "dtype": "int32"}, {"name": "StatefulPartitionedCall/SINet/si_net_1/squeeze_separable_conv2d_3/sequential_3/squeeze_block_1/sequential_2/dense_1/Tensordot/free", "shape": [3], "dtype": "int32"}, {"name": "StatefulPartitionedCall/SINet/si_net_1/squeeze_separable_conv2d_3/sequential_3/squeeze_block_1/sequential_2/dense_1/Tensordot/GatherV2/axis", "shape": [], "dtype": "int32"}, {"name": "StatefulPartitionedCall/SINet/si_net_1/squeeze_separable_conv2d_3/sequential_3/squeeze_block_1/sequential_2/dense_1/Tensordot/Const_2", "shape": [1], "dtype": "int32"}, {"name": "StatefulPartitionedCall/SINet/si_net_1/squeeze_separable_conv2d_3/sequential_3/squeeze_block_1/sequential_2/dense_1/Tensordot/concat_1/axis", "shape": [], "dtype": "int32"}, {"name": "StatefulPartitionedCall/SINet/si_net_1/squeeze_separable_conv2d_3/sequential_3/squeeze_block_1/sequential_2/dense_1/BiasAdd/ReadVariableOp", "shape": [32], "dtype": "float32"}, {"name": "StatefulPartitionedCall/SINet/si_net_1/squeeze_separable_conv2d_3/sequential_3/squeeze_block_1/sequential_2/dense_2/Tensordot/free", "shape": [3], "dtype": "int32"}, {"name": "StatefulPartitionedCall/SINet/si_net_1/squeeze_separable_conv2d_3/sequential_3/squeeze_block_1/sequential_2/dense_2/Tensordot/GatherV2/axis", "shape": [], "dtype": "int32"}, {"name": "StatefulPartitionedCall/SINet/si_net_1/squeeze_separable_conv2d_3/sequential_3/squeeze_block_1/sequential_2/dense_2/Tensordot/Const_2", "shape": [1], "dtype": "int32"}, {"name": "StatefulPartitionedCall/SINet/si_net_1/squeeze_separable_conv2d_3/sequential_3/squeeze_block_1/sequential_2/dense_2/Tensordot/concat_1/axis", "shape": [], "dtype": "int32"}, {"name": "StatefulPartitionedCall/SINet/si_net_1/squeeze_separable_conv2d_3/sequential_3/squeeze_block_1/sequential_2/dense_2/BiasAdd/ReadVariableOp", "shape": [64], "dtype": "float32"}, {"name": "StatefulPartitionedCall/SINet/si_net_1/normalization_43/p_re_lu_34/p_re_lu_35/Neg", "shape": [1, 1, 64], "dtype": "float32"}, {"name": "StatefulPartitionedCall/SINet/si_net_1/s2_module_11/normalization_42/p_re_lu_32/p_re_lu_33/Neg", "shape": [1, 1, 48], "dtype": "float32"}, {"name": "StatefulPartitionedCall/SINet/si_net_1/s2_module_11/s2_block_23/conv2d_11/normalization_3/p_re_lu_8/p_re_lu_9/Neg", "shape": [1, 1, 24], "dtype": "float32"}, {"name": "StatefulPartitionedCall/SINet/si_net_1/s2_module_11/s2_block_23/conv2d_11/depthwise_conv2d_2/depthwise/ReadVariableOp", "shape": [3, 3, 24, 1], "dtype": "float32"}, {"name": "StatefulPartitionedCall/SINet/si_net_1/s2_module_11/s2_block_23/conv2d_11/normalization_3/sync_batch_normalization_3/batchnorm/mul", "shape": [24], "dtype": "float32"}, {"name": "StatefulPartitionedCall/SINet/si_net_1/s2_module_11/s2_block_23/conv2d_11/normalization_3/sync_batch_normalization_3/batchnorm/sub", "shape": [24], "dtype": "float32"}, {"name": "StatefulPartitionedCall/SINet/si_net_1/s2_module_11/s2_block_23/conv2d_40/conv2d_12/Conv2D/merged_input", "shape": [1, 1, 24, 24], "dtype": "float32"}, {"name": "StatefulPartitionedCall/SINet/si_net_1/s2_module_11/s2_block_23/normalization_41/sync_batch_normalization_41/batchnorm/sub", "shape": [24], "dtype": "float32"}, {"name": "StatefulPartitionedCall/SINet/si_net_1/s2_module_11/s2_block_22/conv2d_13/normalization_4/p_re_lu_10/p_re_lu_11/Neg", "shape": [1, 1, 24], "dtype": "float32"}, {"name": "StatefulPartitionedCall/SINet/si_net_1/s2_module_11/conv2d_38/grouped_0/conv2d_9/Conv2D/ReadVariableOp", "shape": [1, 1, 24, 12], "dtype": "float32"}, {"name": "StatefulPartitionedCall/SINet/si_net_1/s2_module_10/normalization_39/p_re_lu_30/p_re_lu_31/Neg", "shape": [1, 1, 48], "dtype": "float32"}, {"name": "StatefulPartitionedCall/SINet/si_net_1/s2_module_10/s2_block_21/conv2d_5/normalization_1/p_re_lu_4/p_re_lu_5/Neg", "shape": [1, 1, 24], "dtype": "float32"}, {"name": "StatefulPartitionedCall/SINet/si_net_1/s2_module_10/s2_block_21/conv2d_5/depthwise_conv2d/depthwise/ReadVariableOp", "shape": [3, 3, 24, 1], "dtype": "float32"}, {"name": "StatefulPartitionedCall/SINet/si_net_1/s2_module_10/s2_block_21/conv2d_5/normalization_1/sync_batch_normalization_1/batchnorm/mul", "shape": [24], "dtype": "float32"}, {"name": "StatefulPartitionedCall/SINet/si_net_1/s2_module_10/s2_block_21/conv2d_5/normalization_1/sync_batch_normalization_1/batchnorm/sub", "shape": [24], "dtype": "float32"}, {"name": "StatefulPartitionedCall/SINet/si_net_1/s2_module_10/s2_block_21/conv2d_37/conv2d_6/Conv2D/merged_input", "shape": [1, 1, 24, 24], "dtype": "float32"}, {"name": "StatefulPartitionedCall/SINet/si_net_1/s2_module_10/s2_block_21/normalization_38/sync_batch_normalization_38/batchnorm/sub", "shape": [24], "dtype": "float32"}, {"name": "StatefulPartitionedCall/SINet/si_net_1/s2_module_10/s2_block_20/conv2d_7/normalization_2/p_re_lu_6/p_re_lu_7/Neg", "shape": [1, 1, 24], "dtype": "float32"}, {"name": "StatefulPartitionedCall/SINet/si_net_1/s2_module_10/conv2d_35/grouped_0/conv2d_3/Conv2D/ReadVariableOp", "shape": [1, 1, 8, 12], "dtype": "float32"}, {"name": "StatefulPartitionedCall/SINet/si_net_1/squeeze_separable_conv2d_2/sequential_1/conv2d_2/normalization/p_re_lu_2/p_re_lu_3/Neg", "shape": [1, 1, 16], "dtype": "float32"}, {"name": "StatefulPartitionedCall/SINet/si_net_1/squeeze_separable_conv2d_2/sequential_1/squeeze_block/sequential/p_re_lu/p_re_lu_1/Neg", "shape": [1, 1, 12], "dtype": "float32"}, {"name": "StatefulPartitionedCall/SINet/si_net_1/squeeze_separable_conv2d_2/sequential_1/squeeze_block/sequential/dense/Tensordot/Const", "shape": [1], "dtype": "int32"}, {"name": "StatefulPartitionedCall/SINet/si_net_1/squeeze_separable_conv2d_2/sequential_1/squeeze_block/sequential/dense/Tensordot/axes", "shape": [1], "dtype": "int32"}, {"name": "StatefulPartitionedCall/SINet/si_net_1/squeeze_separable_conv2d_2/sequential_1/squeeze_block/sequential/dense/Tensordot/GatherV2_1/axis", "shape": [], "dtype": "int32"}, {"name": "StatefulPartitionedCall/SINet/si_net_1/squeeze_separable_conv2d_2/sequential_1/squeeze_block/sequential/dense/Tensordot/Const_1", "shape": [1], "dtype": "int32"}, {"name": "StatefulPartitionedCall/SINet/si_net_1/squeeze_separable_conv2d_2/sequential_1/squeeze_block/sequential/dense/Tensordot/ReadVariableOp", "shape": [12, 12], "dtype": "float32"}, {"name": "StatefulPartitionedCall/SINet/si_net_1/squeeze_separable_conv2d_2/sequential_1/squeeze_block/Mean/reduction_indices", "shape": [2], "dtype": "int32"}, {"name": "StatefulPartitionedCall/SINet/si_net_1/squeeze_separable_conv2d_2/sequential_1/squeeze_block/sequential/dense/Tensordot/free", "shape": [3], "dtype": "int32"}, {"name": "StatefulPartitionedCall/SINet/si_net_1/squeeze_separable_conv2d_2/sequential_1/squeeze_block/sequential/dense/Tensordot/GatherV2/axis", "shape": [], "dtype": "int32"}, {"name": "StatefulPartitionedCall/SINet/si_net_1/squeeze_separable_conv2d_2/sequential_1/squeeze_block/sequential/dense/Tensordot/Const_2", "shape": [1], "dtype": "int32"}, {"name": "StatefulPartitionedCall/SINet/si_net_1/squeeze_separable_conv2d_2/sequential_1/squeeze_block/sequential/dense/Tensordot/concat_1/axis", "shape": [], "dtype": "int32"}, {"name": "StatefulPartitionedCall/SINet/si_net_1/squeeze_separable_conv2d_2/sequential_1/squeeze_block/sequential/dense/BiasAdd/ReadVariableOp", "shape": [12], "dtype": "float32"}, {"name": "StatefulPartitionedCall/SINet/si_net_1/conv2d_34/normalization_36/p_re_lu_28/p_re_lu_29/Neg", "shape": [1, 1, 12], "dtype": "float32"}, {"name": "StatefulPartitionedCall/SINet/si_net_1/conv2d_34/conv2d/Conv2D/merged_input", "shape": [3, 3, 3, 12], "dtype": "float32"}, {"name": "StatefulPartitionedCall/SINet/si_net_1/conv2d_34/normalization_36/sync_batch_normalization_36/batchnorm/sub", "shape": [12], "dtype": "float32"}, {"name": "StatefulPartitionedCall/SINet/si_net_1/squeeze_separable_conv2d_2/sequential_1/conv2d_1/depthwise_conv2d/depthwise/ReadVariableOp", "shape": [3, 3, 12, 1], "dtype": "float32"}, {"name": "StatefulPartitionedCall/SINet/si_net_1/squeeze_separable_conv2d_2/sequential_1/conv2d_2/conv2d/Conv2D/merged_input", "shape": [1, 1, 12, 16], "dtype": "float32"}, {"name": "StatefulPartitionedCall/SINet/si_net_1/squeeze_separable_conv2d_2/sequential_1/conv2d_2/normalization/sync_batch_normalization/batchnorm/sub", "shape": [16], "dtype": "float32"}, {"name": "StatefulPartitionedCall/SINet/si_net_1/s2_module_10/conv2d_35/Const", "shape": [2], "dtype": "int32"}, {"name": "StatefulPartitionedCall/SINet/si_net_1/s2_module_10/conv2d_35/split/split_dim", "shape": [], "dtype": "int32"}, {"name": "StatefulPartitionedCall/SINet/si_net_1/s2_module_10/conv2d_35/grouped_1/conv2d_4/Conv2D/ReadVariableOp", "shape": [1, 1, 8, 12], "dtype": "float32"}, {"name": "StatefulPartitionedCall/SINet/si_net_1/s2_module_10/conv2d_35/concat/axis", "shape": [], "dtype": "int32"}, {"name": "StatefulPartitionedCall/SINet/si_net_1/s2_module_10/channel_shuffle_10/Reshape/shape", "shape": [5], "dtype": "int32"}, {"name": "StatefulPartitionedCall/SINet/si_net_1/s2_module_10/channel_shuffle_10/transpose/perm", "shape": [5], "dtype": "int32"}, {"name": "StatefulPartitionedCall/SINet/si_net_1/s2_module_10/channel_shuffle_10/Reshape_1/shape", "shape": [4], "dtype": "int32"}, {"name": "StatefulPartitionedCall/SINet/si_net_1/s2_module_10/s2_block_20/conv2d_7/depthwise_conv2d_1/depthwise/ReadVariableOp", "shape": [3, 3, 24, 1], "dtype": "float32"}, {"name": "StatefulPartitionedCall/SINet/si_net_1/s2_module_10/s2_block_20/conv2d_7/normalization_2/sync_batch_normalization_2/batchnorm/mul", "shape": [24], "dtype": "float32"}, {"name": "StatefulPartitionedCall/SINet/si_net_1/s2_module_10/s2_block_20/conv2d_7/normalization_2/sync_batch_normalization_2/batchnorm/sub", "shape": [24], "dtype": "float32"}, {"name": "StatefulPartitionedCall/SINet/si_net_1/s2_module_10/s2_block_20/conv2d_36/conv2d_8/Conv2D/merged_input", "shape": [1, 1, 24, 24], "dtype": "float32"}, {"name": "StatefulPartitionedCall/SINet/si_net_1/s2_module_10/s2_block_20/normalization_37/sync_batch_normalization_37/batchnorm/sub", "shape": [24], "dtype": "float32"}, {"name": "StatefulPartitionedCall/SINet/si_net_1/s2_module_10/concat/axis", "shape": [], "dtype": "int32"}, {"name": "StatefulPartitionedCall/SINet/si_net_1/s2_module_10/normalization_39/sync_batch_normalization_39/batchnorm/mul", "shape": [48], "dtype": "float32"}, {"name": "StatefulPartitionedCall/SINet/si_net_1/s2_module_10/normalization_39/sync_batch_normalization_39/batchnorm/sub", "shape": [48], "dtype": "float32"}, {"name": "StatefulPartitionedCall/SINet/si_net_1/s2_module_11/conv2d_38/Const", "shape": [2], "dtype": "int32"}, {"name": "StatefulPartitionedCall/SINet/si_net_1/s2_module_11/conv2d_38/split/split_dim", "shape": [], "dtype": "int32"}, {"name": "StatefulPartitionedCall/SINet/si_net_1/s2_module_11/conv2d_38/grouped_1/conv2d_10/Conv2D/ReadVariableOp", "shape": [1, 1, 24, 12], "dtype": "float32"}, {"name": "StatefulPartitionedCall/SINet/si_net_1/s2_module_11/conv2d_38/concat/axis", "shape": [], "dtype": "int32"}, {"name": "StatefulPartitionedCall/SINet/si_net_1/s2_module_11/channel_shuffle_11/Reshape/shape", "shape": [5], "dtype": "int32"}, {"name": "StatefulPartitionedCall/SINet/si_net_1/s2_module_11/channel_shuffle_11/transpose/perm", "shape": [5], "dtype": "int32"}, {"name": "StatefulPartitionedCall/SINet/si_net_1/s2_module_11/channel_shuffle_11/Reshape_1/shape", "shape": [4], "dtype": "int32"}, {"name": "StatefulPartitionedCall/SINet/si_net_1/s2_module_11/s2_block_22/conv2d_13/depthwise_conv2d_3/depthwise/ReadVariableOp", "shape": [3, 3, 24, 1], "dtype": "float32"}, {"name": "StatefulPartitionedCall/SINet/si_net_1/s2_module_11/s2_block_22/conv2d_13/normalization_4/sync_batch_normalization_4/batchnorm/mul", "shape": [24], "dtype": "float32"}, {"name": "StatefulPartitionedCall/SINet/si_net_1/s2_module_11/s2_block_22/conv2d_13/normalization_4/sync_batch_normalization_4/batchnorm/sub", "shape": [24], "dtype": "float32"}, {"name": "StatefulPartitionedCall/SINet/si_net_1/s2_module_11/s2_block_22/conv2d_39/conv2d_14/Conv2D/merged_input", "shape": [1, 1, 24, 24], "dtype": "float32"}, {"name": "StatefulPartitionedCall/SINet/si_net_1/s2_module_11/s2_block_22/normalization_40/sync_batch_normalization_40/batchnorm/sub", "shape": [24], "dtype": "float32"}, {"name": "StatefulPartitionedCall/SINet/si_net_1/s2_module_11/concat/axis", "shape": [], "dtype": "int32"}, {"name": "StatefulPartitionedCall/SINet/si_net_1/s2_module_11/normalization_42/sync_batch_normalization_42/batchnorm/mul", "shape": [48], "dtype": "float32"}, {"name": "StatefulPartitionedCall/SINet/si_net_1/s2_module_11/normalization_42/sync_batch_normalization_42/batchnorm/sub", "shape": [48], "dtype": "float32"}, {"name": "StatefulPartitionedCall/SINet/si_net_1/concat/axis", "shape": [], "dtype": "int32"}, {"name": "StatefulPartitionedCall/SINet/si_net_1/normalization_43/sync_batch_normalization_43/batchnorm/mul", "shape": [64], "dtype": "float32"}, {"name": "StatefulPartitionedCall/SINet/si_net_1/normalization_43/sync_batch_normalization_43/batchnorm/sub", "shape": [64], "dtype": "float32"}, {"name": "StatefulPartitionedCall/SINet/si_net_1/squeeze_separable_conv2d_3/sequential_3/conv2d_15/depthwise_conv2d/depthwise/ReadVariableOp", "shape": [3, 3, 64, 1], "dtype": "float32"}, {"name": "StatefulPartitionedCall/SINet/si_net_1/squeeze_separable_conv2d_3/sequential_3/conv2d_16/conv2d/Conv2D/merged_input", "shape": [1, 1, 64, 48], "dtype": "float32"}, {"name": "StatefulPartitionedCall/SINet/si_net_1/squeeze_separable_conv2d_3/sequential_3/conv2d_16/normalization_5/sync_batch_normalization_5/batchnorm/sub", "shape": [48], "dtype": "float32"}, {"name": "StatefulPartitionedCall/SINet/si_net_1/s2_module_12/conv2d_41/Const", "shape": [2], "dtype": "int32"}, {"name": "StatefulPartitionedCall/SINet/si_net_1/s2_module_12/conv2d_41/split/split_dim", "shape": [], "dtype": "int32"}, {"name": "StatefulPartitionedCall/SINet/si_net_1/s2_module_12/conv2d_41/grouped_1/conv2d_18/Conv2D/ReadVariableOp", "shape": [1, 1, 24, 24], "dtype": "float32"}, {"name": "StatefulPartitionedCall/SINet/si_net_1/s2_module_12/conv2d_41/concat/axis", "shape": [], "dtype": "int32"}, {"name": "StatefulPartitionedCall/SINet/si_net_1/s2_module_12/channel_shuffle_12/Reshape/shape", "shape": [5], "dtype": "int32"}, {"name": "StatefulPartitionedCall/SINet/si_net_1/s2_module_12/channel_shuffle_12/transpose/perm", "shape": [5], "dtype": "int32"}, {"name": "StatefulPartitionedCall/SINet/si_net_1/s2_module_12/channel_shuffle_12/Reshape_1/shape", "shape": [4], "dtype": "int32"}, {"name": "StatefulPartitionedCall/SINet/si_net_1/s2_module_12/s2_block_24/conv2d_21/depthwise_conv2d_5/depthwise/ReadVariableOp", "shape": [3, 3, 48, 1], "dtype": "float32"}, {"name": "StatefulPartitionedCall/SINet/si_net_1/s2_module_12/s2_block_24/conv2d_21/normalization_7/sync_batch_normalization_7/batchnorm/mul", "shape": [48], "dtype": "float32"}, {"name": "StatefulPartitionedCall/SINet/si_net_1/s2_module_12/s2_block_24/conv2d_21/normalization_7/sync_batch_normalization_7/batchnorm/sub", "shape": [48], "dtype": "float32"}, {"name": "StatefulPartitionedCall/SINet/si_net_1/s2_module_12/s2_block_24/conv2d_42/conv2d_22/Conv2D/merged_input", "shape": [1, 1, 48, 48], "dtype": "float32"}, {"name": "StatefulPartitionedCall/SINet/si_net_1/s2_module_12/s2_block_24/normalization_44/sync_batch_normalization_44/batchnorm/sub", "shape": [48], "dtype": "float32"}, {"name": "StatefulPartitionedCall/SINet/si_net_1/s2_module_12/concat/axis", "shape": [], "dtype": "int32"}, {"name": "StatefulPartitionedCall/SINet/si_net_1/s2_module_12/normalization_46/sync_batch_normalization_46/batchnorm/mul", "shape": [96], "dtype": "float32"}, {"name": "StatefulPartitionedCall/SINet/si_net_1/s2_module_12/normalization_46/sync_batch_normalization_46/batchnorm/sub", "shape": [96], "dtype": "float32"}, {"name": "StatefulPartitionedCall/SINet/si_net_1/s2_module_13/conv2d_44/Const", "shape": [2], "dtype": "int32"}, {"name": "StatefulPartitionedCall/SINet/si_net_1/s2_module_13/conv2d_44/split/split_dim", "shape": [], "dtype": "int32"}, {"name": "StatefulPartitionedCall/SINet/si_net_1/s2_module_13/conv2d_44/grouped_1/conv2d_24/Conv2D/ReadVariableOp", "shape": [1, 1, 48, 24], "dtype": "float32"}, {"name": "StatefulPartitionedCall/SINet/si_net_1/s2_module_13/conv2d_44/concat/axis", "shape": [], "dtype": "int32"}, {"name": "StatefulPartitionedCall/SINet/si_net_1/s2_module_13/channel_shuffle_13/Reshape/shape", "shape": [5], "dtype": "int32"}, {"name": "StatefulPartitionedCall/SINet/si_net_1/s2_module_13/channel_shuffle_13/transpose/perm", "shape": [5], "dtype": "int32"}, {"name": "StatefulPartitionedCall/SINet/si_net_1/s2_module_13/channel_shuffle_13/Reshape_1/shape", "shape": [4], "dtype": "int32"}, {"name": "StatefulPartitionedCall/SINet/si_net_1/s2_module_13/s2_block_26/conv2d_27/depthwise_conv2d_7/depthwise/ReadVariableOp", "shape": [3, 3, 48, 1], "dtype": "float32"}, {"name": "StatefulPartitionedCall/SINet/si_net_1/s2_module_13/s2_block_26/conv2d_27/normalization_9/sync_batch_normalization_9/batchnorm/mul", "shape": [48], "dtype": "float32"}, {"name": "StatefulPartitionedCall/SINet/si_net_1/s2_module_13/s2_block_26/conv2d_27/normalization_9/sync_batch_normalization_9/batchnorm/sub", "shape": [48], "dtype": "float32"}, {"name": "StatefulPartitionedCall/SINet/si_net_1/s2_module_13/s2_block_26/conv2d_45/conv2d_28/Conv2D/merged_input", "shape": [1, 1, 48, 48], "dtype": "float32"}, {"name": "StatefulPartitionedCall/SINet/si_net_1/s2_module_13/s2_block_26/normalization_47/sync_batch_normalization_47/batchnorm/sub", "shape": [48], "dtype": "float32"}, {"name": "StatefulPartitionedCall/SINet/si_net_1/s2_module_13/concat/axis", "shape": [], "dtype": "int32"}, {"name": "StatefulPartitionedCall/SINet/si_net_1/s2_module_13/normalization_49/sync_batch_normalization_49/batchnorm/mul", "shape": [96], "dtype": "float32"}, {"name": "StatefulPartitionedCall/SINet/si_net_1/s2_module_13/normalization_49/sync_batch_normalization_49/batchnorm/sub", "shape": [96], "dtype": "float32"}, {"name": "StatefulPartitionedCall/SINet/si_net_1/s2_module_14/conv2d_47/Const", "shape": [2], "dtype": "int32"}, {"name": "StatefulPartitionedCall/SINet/si_net_1/s2_module_14/conv2d_47/split/split_dim", "shape": [], "dtype": "int32"}, {"name": "StatefulPartitionedCall/SINet/si_net_1/s2_module_14/conv2d_47/grouped_1/conv2d_30/Conv2D/ReadVariableOp", "shape": [1, 1, 48, 24], "dtype": "float32"}, {"name": "StatefulPartitionedCall/SINet/si_net_1/s2_module_14/conv2d_47/concat/axis", "shape": [], "dtype": "int32"}, {"name": "StatefulPartitionedCall/SINet/si_net_1/s2_module_14/channel_shuffle_14/Reshape/shape", "shape": [5], "dtype": "int32"}, {"name": "StatefulPartitionedCall/SINet/si_net_1/s2_module_14/channel_shuffle_14/transpose/perm", "shape": [5], "dtype": "int32"}, {"name": "StatefulPartitionedCall/SINet/si_net_1/s2_module_14/channel_shuffle_14/Reshape_1/shape", "shape": [4], "dtype": "int32"}, {"name": "StatefulPartitionedCall/SINet/si_net_1/s2_module_14/s2_block_28/conv2d_33/depthwise_conv2d_9/depthwise/ReadVariableOp", "shape": [5, 5, 48, 1], "dtype": "float32"}, {"name": "StatefulPartitionedCall/SINet/si_net_1/s2_module_14/s2_block_28/conv2d_33/normalization_11/sync_batch_normalization_11/batchnorm/mul", "shape": [48], "dtype": "float32"}, {"name": "StatefulPartitionedCall/SINet/si_net_1/s2_module_14/s2_block_28/conv2d_33/normalization_11/sync_batch_normalization_11/batchnorm/sub", "shape": [48], "dtype": "float32"}, {"name": "StatefulPartitionedCall/SINet/si_net_1/s2_module_14/s2_block_28/conv2d_48/conv2d_34/Conv2D/merged_input", "shape": [1, 1, 48, 48], "dtype": "float32"}, {"name": "StatefulPartitionedCall/SINet/si_net_1/s2_module_14/s2_block_28/normalization_50/sync_batch_normalization_50/batchnorm/sub", "shape": [48], "dtype": "float32"}, {"name": "StatefulPartitionedCall/SINet/si_net_1/s2_module_14/concat/axis", "shape": [], "dtype": "int32"}, {"name": "StatefulPartitionedCall/SINet/si_net_1/s2_module_14/normalization_52/sync_batch_normalization_52/batchnorm/mul", "shape": [96], "dtype": "float32"}, {"name": "StatefulPartitionedCall/SINet/si_net_1/s2_module_14/normalization_52/sync_batch_normalization_52/batchnorm/sub", "shape": [96], "dtype": "float32"}, {"name": "StatefulPartitionedCall/SINet/si_net_1/s2_module_15/conv2d_50/Const", "shape": [2], "dtype": "int32"}, {"name": "StatefulPartitionedCall/SINet/si_net_1/s2_module_15/conv2d_50/split/split_dim", "shape": [], "dtype": "int32"}, {"name": "StatefulPartitionedCall/SINet/si_net_1/s2_module_15/conv2d_50/grouped_1/conv2d_36/Conv2D/ReadVariableOp", "shape": [1, 1, 48, 24], "dtype": "float32"}, {"name": "StatefulPartitionedCall/SINet/si_net_1/s2_module_15/conv2d_50/concat/axis", "shape": [], "dtype": "int32"}, {"name": "StatefulPartitionedCall/SINet/si_net_1/s2_module_15/channel_shuffle_15/Reshape/shape", "shape": [5], "dtype": "int32"}, {"name": "StatefulPartitionedCall/SINet/si_net_1/s2_module_15/channel_shuffle_15/transpose/perm", "shape": [5], "dtype": "int32"}, {"name": "StatefulPartitionedCall/SINet/si_net_1/s2_module_15/channel_shuffle_15/Reshape_1/shape", "shape": [4], "dtype": "int32"}, {"name": "StatefulPartitionedCall/SINet/si_net_1/s2_module_15/s2_block_30/conv2d_39/depthwise_conv2d_11/depthwise/ReadVariableOp", "shape": [5, 5, 48, 1], "dtype": "float32"}, {"name": "StatefulPartitionedCall/SINet/si_net_1/s2_module_15/s2_block_30/conv2d_39/normalization_13/sync_batch_normalization_13/batchnorm/mul", "shape": [48], "dtype": "float32"}, {"name": "StatefulPartitionedCall/SINet/si_net_1/s2_module_15/s2_block_30/conv2d_39/normalization_13/sync_batch_normalization_13/batchnorm/sub", "shape": [48], "dtype": "float32"}, {"name": "StatefulPartitionedCall/SINet/si_net_1/s2_module_15/s2_block_30/conv2d_51/conv2d_40/Conv2D/ReadVariableOp", "shape": [1, 1, 48, 48], "dtype": "float32"}, {"name": "StatefulPartitionedCall/SINet/si_net_1/s2_module_15/s2_block_30/upsampling_bilinear2d_7/resize/size", "shape": [2], "dtype": "int32"}, {"name": "StatefulPartitionedCall/SINet/si_net_1/s2_module_15/s2_block_30/normalization_53/sync_batch_normalization_53/batchnorm/mul", "shape": [48], "dtype": "float32"}, {"name": "StatefulPartitionedCall/SINet/si_net_1/s2_module_15/s2_block_30/normalization_53/sync_batch_normalization_53/batchnorm/sub", "shape": [48], "dtype": "float32"}, {"name": "StatefulPartitionedCall/SINet/si_net_1/s2_module_15/concat/axis", "shape": [], "dtype": "int32"}, {"name": "StatefulPartitionedCall/SINet/si_net_1/s2_module_15/normalization_55/sync_batch_normalization_55/batchnorm/mul", "shape": [96], "dtype": "float32"}, {"name": "StatefulPartitionedCall/SINet/si_net_1/s2_module_15/normalization_55/sync_batch_normalization_55/batchnorm/sub", "shape": [96], "dtype": "float32"}, {"name": "StatefulPartitionedCall/SINet/si_net_1/s2_module_16/conv2d_53/Const", "shape": [2], "dtype": "int32"}, {"name": "StatefulPartitionedCall/SINet/si_net_1/s2_module_16/conv2d_53/split/split_dim", "shape": [], "dtype": "int32"}, {"name": "StatefulPartitionedCall/SINet/si_net_1/s2_module_16/conv2d_53/grouped_1/conv2d_42/Conv2D/ReadVariableOp", "shape": [1, 1, 48, 24], "dtype": "float32"}, {"name": "StatefulPartitionedCall/SINet/si_net_1/s2_module_16/conv2d_53/concat/axis", "shape": [], "dtype": "int32"}, {"name": "StatefulPartitionedCall/SINet/si_net_1/s2_module_16/channel_shuffle_16/Reshape/shape", "shape": [5], "dtype": "int32"}, {"name": "StatefulPartitionedCall/SINet/si_net_1/s2_module_16/channel_shuffle_16/transpose/perm", "shape": [5], "dtype": "int32"}, {"name": "StatefulPartitionedCall/SINet/si_net_1/s2_module_16/channel_shuffle_16/Reshape_1/shape", "shape": [4], "dtype": "int32"}, {"name": "StatefulPartitionedCall/SINet/si_net_1/s2_module_16/s2_block_32/conv2d_45/depthwise_conv2d_13/depthwise/ReadVariableOp", "shape": [3, 3, 48, 1], "dtype": "float32"}, {"name": "StatefulPartitionedCall/SINet/si_net_1/s2_module_16/s2_block_32/conv2d_45/normalization_15/sync_batch_normalization_15/batchnorm/mul", "shape": [48], "dtype": "float32"}, {"name": "StatefulPartitionedCall/SINet/si_net_1/s2_module_16/s2_block_32/conv2d_45/normalization_15/sync_batch_normalization_15/batchnorm/sub", "shape": [48], "dtype": "float32"}, {"name": "StatefulPartitionedCall/SINet/si_net_1/s2_module_16/s2_block_32/conv2d_54/conv2d_46/Conv2D/merged_input", "shape": [1, 1, 48, 48], "dtype": "float32"}, {"name": "StatefulPartitionedCall/SINet/si_net_1/s2_module_16/s2_block_32/normalization_56/sync_batch_normalization_56/batchnorm/sub", "shape": [48], "dtype": "float32"}, {"name": "StatefulPartitionedCall/SINet/si_net_1/s2_module_16/concat/axis", "shape": [], "dtype": "int32"}, {"name": "StatefulPartitionedCall/SINet/si_net_1/s2_module_16/normalization_58/sync_batch_normalization_58/batchnorm/mul", "shape": [96], "dtype": "float32"}, {"name": "StatefulPartitionedCall/SINet/si_net_1/s2_module_16/normalization_58/sync_batch_normalization_58/batchnorm/sub", "shape": [96], "dtype": "float32"}, {"name": "StatefulPartitionedCall/SINet/si_net_1/s2_module_17/conv2d_56/Const", "shape": [2], "dtype": "int32"}, {"name": "StatefulPartitionedCall/SINet/si_net_1/s2_module_17/conv2d_56/split/split_dim", "shape": [], "dtype": "int32"}, {"name": "StatefulPartitionedCall/SINet/si_net_1/s2_module_17/conv2d_56/grouped_1/conv2d_48/Conv2D/ReadVariableOp", "shape": [1, 1, 48, 24], "dtype": "float32"}, {"name": "StatefulPartitionedCall/SINet/si_net_1/s2_module_17/conv2d_56/concat/axis", "shape": [], "dtype": "int32"}, {"name": "StatefulPartitionedCall/SINet/si_net_1/s2_module_17/channel_shuffle_17/Reshape/shape", "shape": [5], "dtype": "int32"}, {"name": "StatefulPartitionedCall/SINet/si_net_1/s2_module_17/channel_shuffle_17/transpose/perm", "shape": [5], "dtype": "int32"}, {"name": "StatefulPartitionedCall/SINet/si_net_1/s2_module_17/channel_shuffle_17/Reshape_1/shape", "shape": [4], "dtype": "int32"}, {"name": "StatefulPartitionedCall/SINet/si_net_1/s2_module_17/s2_block_34/conv2d_51/depthwise_conv2d_15/depthwise/ReadVariableOp", "shape": [5, 5, 48, 1], "dtype": "float32"}, {"name": "StatefulPartitionedCall/SINet/si_net_1/s2_module_17/s2_block_34/conv2d_51/normalization_17/sync_batch_normalization_17/batchnorm/mul", "shape": [48], "dtype": "float32"}, {"name": "StatefulPartitionedCall/SINet/si_net_1/s2_module_17/s2_block_34/conv2d_51/normalization_17/sync_batch_normalization_17/batchnorm/sub", "shape": [48], "dtype": "float32"}, {"name": "StatefulPartitionedCall/SINet/si_net_1/s2_module_17/s2_block_34/conv2d_57/conv2d_52/Conv2D/merged_input", "shape": [1, 1, 48, 48], "dtype": "float32"}, {"name": "StatefulPartitionedCall/SINet/si_net_1/s2_module_17/s2_block_34/normalization_59/sync_batch_normalization_59/batchnorm/sub", "shape": [48], "dtype": "float32"}, {"name": "StatefulPartitionedCall/SINet/si_net_1/s2_module_17/concat/axis", "shape": [], "dtype": "int32"}, {"name": "StatefulPartitionedCall/SINet/si_net_1/s2_module_17/normalization_61/sync_batch_normalization_61/batchnorm/mul", "shape": [96], "dtype": "float32"}, {"name": "StatefulPartitionedCall/SINet/si_net_1/s2_module_17/normalization_61/sync_batch_normalization_61/batchnorm/sub", "shape": [96], "dtype": "float32"}, {"name": "StatefulPartitionedCall/SINet/si_net_1/s2_module_18/conv2d_59/Const", "shape": [2], "dtype": "int32"}, {"name": "StatefulPartitionedCall/SINet/si_net_1/s2_module_18/conv2d_59/split/split_dim", "shape": [], "dtype": "int32"}, {"name": "StatefulPartitionedCall/SINet/si_net_1/s2_module_18/conv2d_59/grouped_1/conv2d_54/Conv2D/ReadVariableOp", "shape": [1, 1, 48, 24], "dtype": "float32"}, {"name": "StatefulPartitionedCall/SINet/si_net_1/s2_module_18/conv2d_59/concat/axis", "shape": [], "dtype": "int32"}, {"name": "StatefulPartitionedCall/SINet/si_net_1/s2_module_18/channel_shuffle_18/Reshape/shape", "shape": [5], "dtype": "int32"}, {"name": "StatefulPartitionedCall/SINet/si_net_1/s2_module_18/channel_shuffle_18/transpose/perm", "shape": [5], "dtype": "int32"}, {"name": "StatefulPartitionedCall/SINet/si_net_1/s2_module_18/channel_shuffle_18/Reshape_1/shape", "shape": [4], "dtype": "int32"}, {"name": "StatefulPartitionedCall/SINet/si_net_1/s2_module_18/s2_block_36/conv2d_57/depthwise_conv2d_17/depthwise/ReadVariableOp", "shape": [3, 3, 48, 1], "dtype": "float32"}, {"name": "StatefulPartitionedCall/SINet/si_net_1/s2_module_18/s2_block_36/conv2d_57/normalization_19/sync_batch_normalization_19/batchnorm/mul", "shape": [48], "dtype": "float32"}, {"name": "StatefulPartitionedCall/SINet/si_net_1/s2_module_18/s2_block_36/conv2d_57/normalization_19/sync_batch_normalization_19/batchnorm/sub", "shape": [48], "dtype": "float32"}, {"name": "StatefulPartitionedCall/SINet/si_net_1/s2_module_18/s2_block_36/conv2d_60/conv2d_58/Conv2D/ReadVariableOp", "shape": [1, 1, 48, 48], "dtype": "float32"}, {"name": "StatefulPartitionedCall/SINet/si_net_1/s2_module_18/s2_block_36/upsampling_bilinear2d_9/resize/size", "shape": [2], "dtype": "int32"}, {"name": "StatefulPartitionedCall/SINet/si_net_1/s2_module_18/s2_block_36/normalization_62/sync_batch_normalization_62/batchnorm/mul", "shape": [48], "dtype": "float32"}, {"name": "StatefulPartitionedCall/SINet/si_net_1/s2_module_18/s2_block_36/normalization_62/sync_batch_normalization_62/batchnorm/sub", "shape": [48], "dtype": "float32"}, {"name": "StatefulPartitionedCall/SINet/si_net_1/s2_module_18/concat/axis", "shape": [], "dtype": "int32"}, {"name": "StatefulPartitionedCall/SINet/si_net_1/s2_module_18/normalization_64/sync_batch_normalization_64/batchnorm/mul", "shape": [96], "dtype": "float32"}, {"name": "StatefulPartitionedCall/SINet/si_net_1/s2_module_18/normalization_64/sync_batch_normalization_64/batchnorm/sub", "shape": [96], "dtype": "float32"}, {"name": "StatefulPartitionedCall/SINet/si_net_1/s2_module_19/conv2d_62/Const", "shape": [2], "dtype": "int32"}, {"name": "StatefulPartitionedCall/SINet/si_net_1/s2_module_19/conv2d_62/split/split_dim", "shape": [], "dtype": "int32"}, {"name": "StatefulPartitionedCall/SINet/si_net_1/s2_module_19/conv2d_62/grouped_1/conv2d_60/Conv2D/ReadVariableOp", "shape": [1, 1, 48, 24], "dtype": "float32"}, {"name": "StatefulPartitionedCall/SINet/si_net_1/s2_module_19/conv2d_62/concat/axis", "shape": [], "dtype": "int32"}, {"name": "StatefulPartitionedCall/SINet/si_net_1/s2_module_19/channel_shuffle_19/Reshape/shape", "shape": [5], "dtype": "int32"}, {"name": "StatefulPartitionedCall/SINet/si_net_1/s2_module_19/channel_shuffle_19/transpose/perm", "shape": [5], "dtype": "int32"}, {"name": "StatefulPartitionedCall/SINet/si_net_1/s2_module_19/channel_shuffle_19/Reshape_1/shape", "shape": [4], "dtype": "int32"}, {"name": "StatefulPartitionedCall/SINet/si_net_1/s2_module_19/s2_block_38/conv2d_63/depthwise_conv2d_19/depthwise/ReadVariableOp", "shape": [3, 3, 48, 1], "dtype": "float32"}, {"name": "StatefulPartitionedCall/SINet/si_net_1/s2_module_19/s2_block_38/conv2d_63/normalization_21/sync_batch_normalization_21/batchnorm/mul", "shape": [48], "dtype": "float32"}, {"name": "StatefulPartitionedCall/SINet/si_net_1/s2_module_19/s2_block_38/conv2d_63/normalization_21/sync_batch_normalization_21/batchnorm/sub", "shape": [48], "dtype": "float32"}, {"name": "StatefulPartitionedCall/SINet/si_net_1/s2_module_19/s2_block_38/conv2d_63/conv2d_64/Conv2D/merged_input", "shape": [1, 1, 48, 48], "dtype": "float32"}, {"name": "StatefulPartitionedCall/SINet/si_net_1/s2_module_19/s2_block_38/normalization_65/sync_batch_normalization_65/batchnorm/sub", "shape": [48], "dtype": "float32"}, {"name": "StatefulPartitionedCall/SINet/si_net_1/s2_module_19/concat/axis", "shape": [], "dtype": "int32"}, {"name": "StatefulPartitionedCall/SINet/si_net_1/s2_module_19/normalization_67/sync_batch_normalization_67/batchnorm/mul", "shape": [96], "dtype": "float32"}, {"name": "StatefulPartitionedCall/SINet/si_net_1/s2_module_19/normalization_67/sync_batch_normalization_67/batchnorm/sub", "shape": [96], "dtype": "float32"}, {"name": "StatefulPartitionedCall/SINet/si_net_1/concat_1/axis", "shape": [], "dtype": "int32"}, {"name": "StatefulPartitionedCall/SINet/si_net_1/normalization_68/sync_batch_normalization_68/batchnorm/mul", "shape": [144], "dtype": "float32"}, {"name": "StatefulPartitionedCall/SINet/si_net_1/normalization_68/sync_batch_normalization_68/batchnorm/sub", "shape": [144], "dtype": "float32"}, {"name": "StatefulPartitionedCall/SINet/si_net_1/conv2d_65/conv2d_65/Conv2D/ReadVariableOp", "shape": [1, 1, 144, 1], "dtype": "float32"}, {"name": "StatefulPartitionedCall/SINet/si_net_1/upsampling_bilinear2d_11/resize/size", "shape": [2], "dtype": "int32"}, {"name": "StatefulPartitionedCall/SINet/si_net_1/upsampling_bilinear2d_11/normalization_69/sync_batch_normalization_69/batchnorm/mul", "shape": [1], "dtype": "float32"}, {"name": "StatefulPartitionedCall/SINet/si_net_1/upsampling_bilinear2d_11/normalization_69/sync_batch_normalization_69/batchnorm/sub", "shape": [1], "dtype": "float32"}, {"name": "StatefulPartitionedCall/SINet/si_net_1/upsampling_bilinear2d_12/resize/size", "shape": [2], "dtype": "int32"}, {"name": "StatefulPartitionedCall/SINet/si_net_1/upsampling_bilinear2d_12/normalization_70/sync_batch_normalization_70/batchnorm/mul", "shape": [1], "dtype": "float32"}, {"name": "StatefulPartitionedCall/SINet/si_net_1/upsampling_bilinear2d_12/normalization_70/sync_batch_normalization_70/batchnorm/sub", "shape": [1], "dtype": "float32"}, {"name": "StatefulPartitionedCall/SINet/si_net_1/upsampling_bilinear2d_13/resize/size", "shape": [2], "dtype": "int32"}, {"name": "StatefulPartitionedCall/SINet/si_net_1/conv2d_67/depthwise_conv2d_20/depthwise/ReadVariableOp", "shape": [3, 3, 1, 1], "dtype": "float32"}]}]}